checkpoints/all_Dlinear_BCE_100epochs_종가_거래대금_거래량볼밴_이등분선_checkpoint.pth (torch, 3912 bytes, 5 tensors)

Linear_Seasonal.weight f4 [10, 10]
000000 3f 22 26 3d c0 13 ea bc ba 14 9d 3b e8 3e 17 bc
       0.040560003 -0.02857387 0.0047937306 -0.009231307
000010 2c db 16 3d 9c c5 8e bd 72 0c 88 bd 72 2f 8b bc
       0.036830112 -0.06971285 -0.06642999 -0.016990397
000020 04 d8 b1 bb 79 0f d9 3d 64 d1 00 bc 19 ba 0a 3c
       -0.0054273624 0.10598654 -0.007862423 0.008467221
000030 14 5e a6 3a 71 c7 14 3d 73 59 b6 bc 43 6a a8 bc
       0.0012692832 0.036323015 -0.02225945 -0.020558482
000040 38 23 8b 39 9d 0a b5 3c 4a e0 0f bb 9b 05 63 bc
       0.00026538386 0.022099787 -0.0021953755 -0.013856317
000050 24 4d 86 bb 78 ab 88 37 51 cc 77 3b cb cd 17 bd
       -0.0040985513 1.629231e-05 0.003781099 -0.037061494
000060 3c cf d5 3c 6f 4c 66 3c 62 60 5f 3c 8d a8 c0 b9
       0.026099794 0.014056309 0.013633819 -0.00036746674
000070 47 dd da bb 3c 02 a8 bb 37 75 fd 3c b4 30 65 bc
       -0.0066792103 -0.0051272195 0.030939681 -0.0139886625
000080 a1 8f b5 3a ed 16 57 bd 9a 33 28 3d 22 30 d6 bc
       0.0013852009 -0.052512098 0.041064836 -0.026145998
000090 0b 56 37 bb a2 18 c8 3c 6e b5 07 bd 0a f7 c4 3c
       -0.002797487 0.024425808 -0.03313201 0.024043579
0000a0 cf 4a 88 3e aa 55 20 be f2 be d6 ba 00 16 92 bc
       0.26619574 -0.15657678 -0.001638381 -0.017832756
0000b0 fc e9 09 be a7 95 3d 3d 7d c8 d9 3d 3d 76 f0 3c
       -0.13468164 0.046285298 0.10633943 0.029353255
0000c0 52 42 02 3e 8f 01 83 be 1c 05 a5 3c be 74 3c bc
       0.12720612 -0.25587127 0.020144038 -0.011502443
0000d0 2c 12 1a 3c 8a 0e f2 bc f7 fa e6 3c a1 61 bc bc
       0.009403747 -0.029547948 0.028195841 -0.022995772
0000e0 17 76 93 bc 50 02 5f 3c a2 3c 74 bc da 91 66 3c
       -0.018000646 0.013611391 -0.014907034 0.01407286
0000f0 c2 e1 b3 3d 49 6f 69 bd f2 c3 d7 bb b5 8c 93 bd
       0.08783294 -0.056990895 -0.006584638 -0.07204572
000100 e9 08 03 bb 7e 80 1c 3c 53 29 a5 bc 30 b1 3f bd
       -0.0019994325 0.009552119 -0.020161306 -0.04679984
000110 ef 70 8d bc 29 7a de 3d 33 93 57 3d 08 d8 cd bc
       -0.017265765 0.10863144 0.052630614 -0.025127426
000120 3e 0d 90 3a c7 40 4d bd 28 7c e9 3b 44 68 21 3c
       0.0010990275 -0.050110605 0.0071253963 0.009851519
000130 3b 40 a8 3c ba 9f 1d bc 23 f3 86 bc 05 b1 60 3c
       0.02053844 -0.009620601 -0.016473358 0.01371408
000140 50 b5 84 bb 0d 45 86 3c 7d 6e 4b bc cc 23 7b 3c
       -0.0040499344 0.016390348 -0.012416479 0.015328359
000150 77 31 16 bd 68 88 d5 3c d1 0d 50 3d a2 96 6f 3c
       -0.036668267 0.02606602 0.050794426 0.014623316
000160 a6 88 24 bc 5a 1f 25 bd 1a 73 6e 3d 2a bf 37 bd
       -0.010042345 -0.040313102 0.05821524 -0.044860043
000170 c5 cf a0 3c 5b 25 e1 bc bb 83 d9 3a 53 64 55 bc
       0.019630322 -0.027483633 0.0016595045 -0.013024407
000180 32 ea 1a bc 9d ec d8 3b b5 76 b4 ba 1c 19 24 3b
       -0.009455251 0.0066200034 -0.0013768288 0.002503938

Linear_Seasonal.bias f4 [10]
000000 f8 71 af bd 30 c7 cf 3e 2e c4 40 be 3c 60 b0 bd
       -0.0856666 0.40581656 -0.18824837 -0.08612105
000010 c9 cd 09 3e 8f 1e 66 bd a1 5f ad be b5 e3 75 be
       0.13457407 -0.056181487 -0.33862022 -0.24012645
000020 5b e7 5b 3e c8 b9 32 bd
       0.21474974 -0.043634206

Linear_Trend.weight f4 [10, 10]
000000 55 9d 42 3d bc 1a 58 bc 79 54 ba bd b5 f8 05 be
       0.047513325 -0.013189968 -0.09098143 -0.13083155
000010 ed 76 36 be 64 f4 3e be 37 4b 00 be 70 a5 35 3d
       -0.17818804 -0.18647915 -0.12528692 0.044347227
000020 32 af 96 3e 19 e9 f4 3e ac 58 18 be 14 c5 24 be
       0.29430538 0.4783409 -0.14877576 -0.16090804
000030 8f 2b 40 be 3d ab 71 be 9d e1 a0 be a4 b9 c4 be
       -0.18766616 -0.23600478 -0.3142213 -0.38422883
000040 08 1a d1 be af e2 da be 0c 68 e8 be 07 b1 fb be
       -0.40840173 -0.4275107 -0.4539188 -0.491585
000050 a5 75 74 bc 9e 64 90 3b 57 66 15 3d b5 0a c1 3d
       -0.014920627 0.0044065258 0.036474552 0.0942587
000060 ac 16 2d 3e 1a 7d 72 3e 0d da 79 3e a2 ab 60 3e
       0.1690318 0.23680535 0.24399586 0.21940473
000070 ac 87 31 3e 19 5f 17 3e 7e 2e 7f 3d 99 c4 55 3c
       0.17336911 0.1478237 0.062300198 0.013047361
000080 78 34 43 bd 5c 99 60 bd 46 92 11 bd 07 2b 6a 3c
       -0.04765746 -0.054833755 -0.035539888 0.014292485
000090 55 0d 53 3d c1 86 bb 3d a0 44 11 3e b9 e1 37 3e
       0.051526386 0.09156562 0.14186335 0.179572
0000a0 b8 40 12 3f dd aa da 3e 73 b0 69 3e 07 db a7 3d
       0.5713 0.42708483 0.22821216 0.08196073
0000b0 a1 86 d0 bc 46 9c ab bd f6 0c 09 be 77 3d 6a be
       -0.025454821 -0.08379416 -0.1338385 -0.2287501
0000c0 40 38 d4 be 4d d9 0f bf 85 c9 12 3d 17 aa 1f 3c
       -0.41449165 -0.5619095 0.035836715 0.009745142
0000d0 66 7d d0 bc 55 bf 18 bd bc 55 21 bd eb 65 c7 bc
       -0.02545042 -0.037291843 -0.039388403 -0.02434059
0000e0 73 0d 76 ba 3c 3a 35 3d 49 8e e6 3d 42 a8 2a 3e
       -0.00093861594 0.04424499 0.112576075 0.16665748
0000f0 7e 3d b2 3e 05 86 9c 3e 4f a2 81 3e 6e 45 71 3e
       0.3481254 0.30571 0.25319144 0.23561642
000100 b1 98 82 3e c9 6d 9a 3e 0f b2 b6 3e 8c 7e de 3e
       0.2550712 0.30161884 0.35682723 0.43455923
000110 c3 e3 0b 3f 1b d5 23 3f 1b ae 81 3e 30 ef 45 3e
       0.5464441 0.6399705 0.25328144 0.19329524
000120 8b e6 f5 3d d8 85 ce 3d 55 9e 08 3e 0c 17 43 3e
       0.12006863 0.100841224 0.13341649 0.1905176
000130 66 6d 51 3e 3f a3 47 3e 48 a0 31 3e 5d 7e 31 3e
       0.20451888 0.19495867 0.17346299 0.1733336
000140 8b d9 d4 bb 31 05 f2 bb 8d d2 23 bc e3 31 e0 bc
       -0.0064956597 -0.007385873 -0.00999893 -0.027367538
000150 af 26 fd bc ee 95 1f bd b8 f8 a4 bd e8 eb 54 be
       -0.030902235 -0.038961343 -0.08055252 -0.20793116
000160 09 41 cd be a9 56 0d bf 50 78 59 3e 0f 6c ff 3d
       -0.4008868 -0.5521036 0.21237302 0.124717824
000170 fb 0a 2b 3c ab 9f 4d bd fe 26 8b bd 2c db 49 bd
       0.01043963 -0.0502011 -0.067945465 -0.049281284
000180 69 77 08 bd 71 97 2b bc c3 98 69 3c ec 54 37 3d
       -0.033317003 -0.010473118 0.014257613 0.044758722

Linear_Trend.bias f4 [10]
000000 df d1 70 3d 8f 9e ce 3e 46 be 46 be 56 63 55 bc
       0.0587939 0.40355346 -0.19408521 -0.013024172
000010 de 5d c5 bd bc 41 7b bb 4e 96 9d be 70 6f 6f be
       -0.09637044 -0.0038338741 -0.30778736 -0.23382354
000020 bc ec 27 3e 54 ff 24 3c
       0.16398901 0.010070641

projection.weight f4 [1, 100]
000000 05 c1 7e be 30 80 aa be 9e 17 a3 3e 31 72 97 bd
       -0.24878319 -0.33300924 0.31853956 -0.07394827
000010 4a 98 eb bc e2 19 bc 3c 24 ff 0d 3e b6 cd f3 bc
       -0.02875914 0.02296156 0.1386686 -0.029761177
000020 e1 0c 84 bd 18 3a 4b 3d c2 59 b0 3d 94 1f 23 be
       -0.06447769 0.04961595 0.0861087 -0.15930015
000030 30 a9 30 bf b4 3a c8 3d 80 05 09 3f 35 44 89 bd
       -0.6900816 0.09776822 0.5352402 -0.067024626
000040 40 b6 50 3d 05 49 4f 3d d7 70 14 3e bd a2 0a bd
       0.050955057 0.050606746 0.1449617 -0.033846606
000050 d5 33 e4 bc bc 5c 28 3e 01 7b 0c 3f 8b ad c6 bd
       -0.027856747 0.16441625 0.5487519 -0.097010694
000060 d9 8f d0 be a8 6b 94 bc b4 c6 31 bd 6f 92 c1 bd
       -0.40734747 -0.01811774 -0.04340239 -0.09451758
000070 57 eb 53 be 40 41 2d 3e 73 23 05 be 8e 43 36 3d
       -0.20695244 0.16919422 -0.13001804 0.04449802
000080 8b 58 f0 3e 13 25 d1 bd 9a a3 86 be 55 3c e9 3d
       0.46942553 -0.102121495 -0.26296693 0.113884605
000090 a7 e1 87 bd b9 e4 ce bd 68 0f 8b bd f6 b7 84 3d
       -0.06634837 -0.10102219 -0.06790048 0.064804
0000a0 7a fb df 3e 96 c6 cb 3d 8b 9b 2f bf 25 85 fa 3d
       0.4374655 0.09949987 -0.68596715 0.122324266
0000b0 e6 7d 22 be b6 bb 03 3f 1e 1e 60 3e 70 d6 e5 bc
       -0.15868339 0.514583 0.21886489 -0.028056353
0000c0 ff 3c 36 3e db 05 85 3d b3 49 9e bd 83 55 27 bc
       0.17796706 0.064952575 -0.07728901 -0.010213259
0000d0 1d 44 b0 3e 7b 8a 22 bc 53 2e 80 be 0c 8a c4 3d
       0.34426966 -0.009920712 -0.25035343 0.09596643
0000e0 d1 61 62 bd 34 b8 4d bd 44 21 e7 bd 3b 36 d3 3d
       -0.055269066 -0.050224498 -0.11285642 0.10313078
0000f0 d3 7c 96 be 91 24 21 3e 16 a8 20 3f 0d e2 f4 bd
       -0.29392108 0.15736605 0.6275648 -0.11957178
000100 0f c2 22 bf 2d 50 04 3e 95 50 8a 3d c6 14 40 bd
       -0.6357736 0.1292121 0.06753651 -0.04689481
000110 85 ce 68 be 7e 5d 96 3c a4 c5 69 bd db 53 da 3d
       -0.22735031 0.018355127 -0.05707325 0.106605254
000120 f0 bc 04 3f a6 e0 7e bc b6 1d f4 be 22 d8 23 3e
       0.51850796 -0.01555649 -0.47678918 0.16000417
000130 68 85 8b bd de 5c 09 be 61 08 4a be cd 5a 22 3e
       -0.068125546 -0.13414332 -0.19729759 0.1585495
000140 a1 cd 1d 3e 9d 03 bc 3d 25 18 21 bf 6c 12 f4 3d
       0.15410472 0.09180377 -0.62927467 0.11917576
000150 da c1 b9 3e 67 9d f5 bc 1a 46 cc bc 7a 55 0f bc
       0.3628071 -0.029982282 -0.02493577 -0.008748407
000160 10 17 4a 3e 64 33 22 be 7c f1 18 bb b0 dc 51 bd
       0.1973536 -0.15839916 -0.0023337295 -0.051235855
000170 1b b0 8a 3e b5 a5 5f 3c c8 bb a5 be 51 51 0d 3e
       0.27087483 0.0136503475 -0.32369828 0.13800551
000180 e5 d5 1f bc 42 b6 96 bd e8 9b 8f bd 0d f3 bb 3d
       -0.009755586 -0.07358982 -0.07012159 0.09177218
