checkpoints/all_LSTM_BCE_100epochs_종가_거래대금_거래량볼밴_이등분선_checkpoint.pth (torch, 214264 bytes, 9 tensors)

lstm.weight_ih_l0 f4 [256, 10]
0.03507398 0.00826212 -0.04153975 0.040271685 0.09460977 -0.022459367 0.057475463 -0.0029185389
0.0027200554 0.03361697 0.12099495 -0.018571021 -0.04111414 0.1449024 0.09874246 0.09086649
-0.047842264 0.033971947 0.09112269 -0.06362268 0.03927423 0.015712466 0.00153183 0.10614268
0.017137926 -0.017974745 -0.011329357 -0.027858123 0.07119054 0.14933667 0.09295539 0.06647937
0.05138394 -0.038914666 0.06260894 -0.09588717 0.11024937 -0.014934954 0.072168194 0.121010765
0.09212697 -0.005645365 0.02701721 0.003976662 0.104041666 0.008701338 0.060059264 0.0040512425
0.012664942 0.1237061 0.03192075 -0.03799741 0.16473748 0.020262677 0.1873006 0.14006321
0.13305812 -0.027645875 0.03700626 0.09031029 0.05180684 -0.065343834 0.018629614 0.031746913
0.02688986 -0.10132146 -0.10702556 0.1083589 -0.0038827374 0.091646336 -0.01693745 0.06239575
0.14337642 0.04249099 -0.038062487 -0.004162208 0.07734619 -0.015601605 0.052440595 0.035144515
0.044175733 -0.044997443 -0.020010727 0.043606717 -0.047342483 -0.04297749 -0.059078783 0.056833524
0.091394715 -0.015145913 -0.00094223104 -0.026128558 0.1040913 0.05803019 -0.027430305 -0.009446162
-0.0153932655 -0.048305027 -0.009972979 -0.033206034 0.035973366 0.0973162 0.0862354 -0.07092096
0.14437374 0.050270684 -0.05718031 0.038295154 0.13015819 -0.054253727 0.07691185 0.04470647
0.15406804 0.1028522 0.07174654 -0.016619807 0.071217105 0.035825368 -0.040433124 -0.06427015
0.016495746 -0.049514167 0.09351107 0.1035542 0.01912535 -0.086310126 -0.024594206 -0.013569948
0.037748225 0.16825822 0.15329751 -0.010329691 0.0011249454 0.12972546 0.07633661 0.00030472892
-0.021721892 0.010038859 0.030169347 -0.026561541 -0.02755904 -0.005937653 -0.007438781 -0.0015609004
-0.006559924 0.034786932 0.063262984 0.03474779 -0.0014724195 0.021822304 -0.018520728 0.024659973
0.10365978 0.00062852097 0.031268544 -0.07192033 0.008171593 0.022582153 0.12816659 0.09065422
0.11254201 0.0068412586 0.1315419 0.022266205 0.019352837 0.015799645 0.007895079 -0.025709538
0.2066219 0.14333957 0.13074702 -0.08612311 0.060120665 0.099952735 0.14930426 -0.12907901
0.0123254955 0.046257835 -0.049556546 -0.021021219 0.020756265 0.020696761 0.08028858 0.05984644
0.00011026963 0.0040829508 -0.08508941 -0.017442776 0.0068289177 0.054584693 0.045369055 0.08296659
0.14720482 0.08856728 -0.03644732 0.12808076 0.06713702 -0.051810462 0.103346266 0.02705773
-0.028263155 -0.117623396 0.009548742 -0.014679961 0.15498397 -0.030181145 0.05674685 0.044376403
0.2108892 0.066804476 0.14018731 0.060526196 0.07132626 0.14597382 -0.04812376 0.08576178
-0.1007189 0.061965212 0.029570397 0.1451006 -0.1260162 -0.14479065 -0.12508772 -0.0012694058
-0.13974595 -0.068851404 0.013179315 0.058266122 0.0866387 0.052049085 -0.03048451 -0.008732776
-0.06919904 0.040733807 0.075338036 -0.008876744 -0.04898268 -0.0030429529 0.0031068064 0.12284791
0.160598 0.018491076 0.033873223 0.018371543 0.09715913 -0.0956621 0.050918162 -0.0006167291
-0.04447206 0.11198892 -0.009336368 -0.05044591 0.0058418857 -0.0067351274 0.057550184 -0.006682164
00000000: bca9 0f3d d85d 073c 9625 2abd ecf3 243d
00000010: c4c2 c13d b5fc b7bc 646b 6b3d f544 3fbb
00000020: f542 323b f3b1 093d 33cc f73d 4122 98bc
00000030: 4d67 28bd 4b61 143e 7d39 ca3d 3618 ba3d
00000040: 40f6 43bd 2b26 0b3d 889e ba3d 9c4c 82bd
00000050: 04de 203d 6eb7 803c b0c7 c83a 5561 d93d
00000060: d664 8c3c c63f 93bc c49e 39bc b836 e4bc
00000070: 59cc 913d b6eb 183e 655f be3d 5626 883d
00000080: f777 523d fc64 1fbd 1e39 803d 7e60 c4bd
00000090: 6cca e13d bdb1 74bc ebcc 933d 7ed4 f73d
000000a0: 11ad bc3d c1fc b8bb 3253 dd3c a94e 823b
000000b0: cc13 d53d 0f90 0e3c b400 763d 49c0 843b
000000c0: 9e80 4f3c a059 fd3d 55bf 023d 2ca3 1bbd
000000d0: f1b0 283e eafd a53c bacb 3f3e bb6c 0f3e
000000e0: 6340 083e 9a79 e2bc e093 173d 9af4 b83d
000000f0: 6933 543d fdd2 85bd 229d 983c 0d09 023d
00000100: 2048 dc3c a081 cfbd 3830 dbbd 45eb dd3d
00000110: 8675 7ebb 13b1 bb3d 68c0 8abc b092 7f3d
00000120: 45d1 123e 080b 2e3d 69e7 1bbd 2263 88bb
00000130: ae67 9e3d e09d 7fbc f3cb 563d b2f3 0f3d
00000140: 9df1 343d 3d4f 38bd 89ed a3bc f59c 323d
00000150: 31ea 41bd 2a09 30bd 98fc 71bd 45ca 683d
00000160: 272d bb3d 9026 78bc 0e00 77ba 8f0b d6bc
00000170: d22d d53d 11b1 6d3d 85b5 e0bc 13c4 1abc
00000180: 0934 7cbc 7edb 45bd b565 23bc 0d03 08bd
00000190: cf58 133d b74d c73d 2f9c b03d 023f 91bd
000001a0: b6d6 133e a2e8 4d3d e735 6abd 61db 1c3d
000001b0: 3048 053e 2839 5ebd f683 9d3d 221e 373d
000001c0: 03c4 1d3e 2da4 d23d daef 923d 4326 88bc
000001d0: 46da 913d 9fbd 123d 349d 25bd 12a0 83bd
000001e0: 1622 873c 5ecf 4abd bb82 bf3d 3914 d43d
000001f0: c4ac 9c3c 5dc3 b0bd ca79 c9bc 7d54 5ebc
00000200: e29d 1a3d e24b 2c3e 06fa 1c3e dd3d 29bc
00000210: e772 933a c0d6 043e 5e56 9c3d 06c4 9f39
00000220: 1cf2 b1bc 077a 243c b525 f73c 9797 d9bc
00000230: 7fc3 e1bc a590 c2bb 05c1 f3bb 2097 ccba
00000240: a2f4 d6bb be7c 0e3d 0690 813d b353 0e3d
00000250: 33fe c0ba b0c4 b23c c8b8 97bc b603 ca3c
00000260: 944b d43d 54c3 243a 7213 003d f74a 93bd
00000270: 25e2 053c 35fe b83c 1a3e 033e eba8 b93d
00000280: 6d7c e63d a32c e03b ebb2 063e 9e67 b63c
00000290: d789 9e3c 426e 813c 5d5a 013c cf9c d2bc
000002a0: b194 533e 9cc7 123e 8ce2 053e 5061 b0bd
000002b0: 1641 763d 05b4 cc3d 37e3 183e 4a2d 04be
000002c0: e0f0 493c db78 3d3d cefb 4abd b134 acbc
000002d0: 0b09 aa3c 418c a93c 576e a43d 8a21 753d
000002e0: 8f40 e738 46ca 853b 5b43 aebd 27e4 8ebc
000002f0: 1dc5 df3b 3394 5f3d e7d4 393d 63ea a93d
00000300: dcbc 163e c362 b53d c949 15bd 9a27 033e
00000310: 227f 893d 3537 54bd 35a7 d33d 2ca8 dd3c
00000320: 2288 e7bc 89e4 f0bd 5472 1c3c 3884 70bc
00000330: 1eb4 1e3e 733e f7bc 636f 683d 08c4 353d
00000340: 57f3 573e c9d0 883d 438d 0f3e 51ea 773d
00000350: 8113 923d 297a 153e 6b1d 45bd dfa3 af3d
00000360: b645 cebd 3ccf 7d3d 9e3d f23c 4095 143e
00000370: 640a 01be 0044 14be ff16 00be 3162 a6ba
00000380: 9019 0fbe f701 8dbd 0eee 573c 75a8 6e3d
00000390: a16f b13d 6c31 553d a7ba f9bc eb13 0fbc
000003a0: 3ab8 8dbd 7ed8 263d d44a 9a3d c36f 11bc
000003b0: 10a2 48bd 476c 47bb 909b 4b3b af97 fb3d
000003c0: cd73 243e 997a 973c a6be 0a3d eb7f 963c
000003d0: 5efb c63d 7eea c3bd 908f 503d fdab 21ba
000003e0: 5628 36bd 725a e53d 91f7 18bc 5fa0 4ebd
000003f0: 4a6d bf3b 58b2 dcbb beb9 6b3d 0ef6 dabb

lstm.weight_hh_l0 f4 [256, 64]
0.0025072584 0.028580466 -0.033833854 0.030807944 -0.031728934 -0.024241023 -0.005117449 0.033121668
-0.03774704 0.007381527 -0.04219059 -0.017706694 -0.023221737 -0.030966975 -0.008899643 0.057920806
0.020176401 -0.075969666 0.06976099 0.029579371 -0.0030497992 0.062489253 -0.016535114 0.04076967
0.03879262 -0.020562343 -0.11789438 0.027505113 -0.009038501 0.06560319 -0.03876329 -0.0012979025
0.07269803 -0.05878022 0.044613805 -0.014065272 -0.010063736 0.05133127 -0.06490134 -0.04822056
0.06084201 0.012419282 0.012239212 -0.020623721 0.046755042 -0.019171301 -0.06426237 0.024548879
-0.0417412 -0.038468655 -0.07759677 0.07405938 -0.018448712 0.092957295 -0.0025037976 -0.064077124
0.049179133 -0.024418492 0.066523746 0.04994453 -0.0036541165 0.021584269 -0.03012147 0.079656504
0.0127214715 0.015532713 -0.054182466 0.11908361 -0.06259188 -0.030701049 0.009883437 0.0019899039
-0.011656413 -0.039518993 -0.07678933 -0.07236053 0.013829507 0.00047360026 0.020752834 -0.0055999802
0.03212079 -0.00348445 0.029666686 0.012768592 -0.018055517 0.10054887 -0.02528577 -0.009659656
-0.019615026 -0.020973643 -0.12583053 0.057973795 -0.07777178 -0.049316395 0.00030434752 -0.028383054
0.010013641 -0.035094406 0.01868809 0.017235434 -0.037887964 0.07089302 -0.07482866 -0.08733359
-0.031324744 0.012997584 0.020389335 0.00096006895 0.0059939907 0.00094035326 -0.033665255 0.051709402
-0.061957005 -0.0035394072 -0.015449545 0.060901806 -0.07064754 0.09801213 -0.02153399 -0.07159568
-0.013783238 0.013573487 0.093428336 0.012169712 0.047033593 0.014365211 -0.040556144 0.023450337
0.06282082 -0.04008125 0.0018795334 -0.027175274 0.031407394 0.02940115 0.0010265349 0.09035825
0.018440478 -0.020681934 0.005954536 0.011286747 -0.12544215 -0.0033786406 -0.02798413 -0.0029888665
0.116422035 0.031442255 -0.0024008953 -0.07512459 -0.047846913 0.10011357 0.045274965 0.034832012
-0.029320398 -0.01691812 9.564678e-05 0.099584535 -0.0006748884 0.10355087 0.020537298 -0.07168607
0.1241823 -0.07525056 -0.01508202 -0.038047343 -0.025415763 0.11612047 -0.025520543 -0.0878113
-0.019678097 -0.11686686 -0.082503706 -0.06490213 -0.044158913 -0.09200417 -0.06637851 -0.0012922209
-0.084321216 -0.036631387 -0.11636437 0.054040708 0.0048330706 0.0847816 0.13530633 -0.084983945
0.004376329 0.03823045 0.08798097 0.12586328 0.021170152 0.02524908 -0.063664146 0.014796869
-0.06184903 -0.059618574 -0.07889749 0.02621055 -0.0649779 -0.019006416 0.016788173 -0.06991249
0.019581126 0.0827817 0.058301464 0.024688492 0.0547134 -0.046758607 -0.028184703 0.06526668
0.06381081 -0.057171967 -0.025974978 -0.009106821 -0.013528885 0.006552 -0.033410132 -0.0135508515
-0.012664603 -0.013958491 -0.08533814 0.08872458 0.00859106 -0.035920322 0.040463693 0.013096264
0.07528524 -0.072622456 -0.052451614 0.013294691 -0.13205275 0.0459131 -0.06557471 0.025733473
-0.023371028 -0.06776443 0.013785538 -0.06520701 -0.058730483 -0.028814359 -0.035749324 -0.0031889537
0.054363545 -0.042204484 0.0755276 0.09674363 0.017668897 0.030126603 0.08940256 -0.10480679
-0.0099561475 -0.013747614 -0.029919615 -0.008448551 0.060204852 -0.00042008064 0.071591526 -0.040705692
00000000: d150 243b 9521 ea3c 5e95 0abd f160 fc3c
00000010: 33f6 01bd 1c95 c6bc 46b0 a7bb 96aa 073d
00000020: a49c 1abd bde0 f13b 0ad0 2cbd a10d 91bc
00000030: 833b bebc 74ae fdbc cfcf 11bc 5e3e 6d3d
00000040: fb48 a53c fc95 9bbd dade 8e3d 7050 f23c
00000050: 24df 47bb bbf4 7f3d a674 87bc 19fe 263d
00000060: 03e5 1e3d 5c72 a8bc 9c72 f1bd 6752 e13c
00000070: 3916 14bc f75a 863d 41c6 1ebd 621e aaba
00000080: b4e2 943d 87c3 70bd f7bc 363d 0772 66bc
00000090: 5ee2 24bc bd40 523d feea 84bd ec82 45bd
000000a0: 7935 793d 3f7a 4b3c fa86 483c 14f3 a8bc
000000b0: 3782 3f3d 220d 9dbc fd9b 83bd bb1a c93c
000000c0: d2f8 2abd 4f91 1dbd 0eeb 9ebd 72ac 973d
000000d0: c121 97bc 6560 be3d c116 24bb de3a 83bd
000000e0: 0f70 493d 4a09 c8bc 9a3d 883d a392 4c3d
000000f0: e779 6fbb 7ed1 b03c 4dc1 f6bc f322 a33d
00000100: b86d 503c ec7c 7e3c 6fee 5dbd 1ce2 f33d
00000110: 2c30 80bd c480 fbbc 24ee 213c 0c69 023b
00000120: 8afa 3ebc abde 21bd b943 9dbd c231 94bd
00000130: 2895 623c 8d4d f839 d901 aa3c 0a80 b7bb
00000140: 1791 033d 5f5b 64bb 8d07 f33c 5b33 513c
00000150: 2ae9 93bc 91ec cd3d 1a24 cfbc 8943 1ebc
00000160: b1af a0bc ebd0 abbc b8d9 00be ee75 6d3d
00000170: d046 9fbd fdff 49bd d590 9f39 9483 e8bc
00000180: 4110 243c 27bf 0fbd c417 993c 5331 8d3c
00000190: 6930 1bbd 5c30 913d c53f 99bd f4db b2bd
000001a0: 604e 00bd d2f3 543c 8907 a73c 23ad 7b3a
000001b0: 3d69 c43b 0a82 763a 94e4 09bd 3dcd 533d
000001c0: a1c6 7dbd 66f5 67bb 1720 7dbc 2c74 793d
000001d0: a8af 90bd 95ba c83d 0d68 b0bc c2a0 92bd
000001e0: 17d3 61bc 5563 5e3c 5b57 bf3d 7963 473c
000001f0: 4ca6 403d 105c 6b3c 331e 26bd ec1a c03c
00000200: 34a8 803d 3d2c 24bd ad5a f63a ae9e debc
00000210: 0aa5 003d aeda f03c cc8c 863a bf0d b93d
00000220: 7c10 973c 296d a9bc 451e c33b 0cec 383c
00000230: e873 00be 2f6c 5dbb f93e e5bc dce0 43bb
00000240: ad6e ee3d 98c9 003d 5758 1dbb ecda 99bd
00000250: 20fb 43bd 5808 cd3d 3e72 393d 03ac 0e3d
00000260: 5531 f0bc df97 8abc f995 c838 faf2 cb3d
00000270: feea 30ba 7b12 d43d d63d a83c 25d0 92bd
00000280: 4a53 fe3d f71c 9abd 941a 77bc 88d7 1bbd
00000290: b834 d0bc 92d0 ed3d 7510 d1bc 69d6 b3bd
000002a0: f633 a1bc e457 efbd b4f7 a8bd 68eb 84bd
000002b0: fadf 34bd af6c bcbd 75f1 87bd bd5f a9ba
000002c0: 9ab0 acbd cb0a 16bd 7150 eebd ca59 5d3d
000002d0: bc5e 9e3b faa1 ad3d be8d 0a3e 100c aebd
000002e0: 4f67 8f3b 8897 1c3d 5e2f b43d 4ee2 003e
000002f0: 076d ad3c 29d7 ce3c 5962 82bd 916e 723c
00000300: 6955 7dbd 9b32 74bd 0295 a1bd 82b7 d63c
00000310: 2213 85bd 58b3 9bbc 5a87 893c 482e 8fbd
00000320: 9968 a03c 7489 a93d 84cd 6e3d 853f ca3c
00000330: 281b 603d f485 3fbd 9be3 e6bc 8aaa 853d
00000340: 3eaf 823d 272d 6abd 7ac9 d4bc c734 15bc
00000350: 42a8 5dbc 29b2 d63b 10d9 08bd 6404 5ebc
00000360: 327f 4fbc 28b2 64bc c3c5 aebd 3cb5 b53d
00000370: 84c1 0c3c 3021 13bd 42bd 253d b691 563c
00000380: 262f 9a3d 15bb 94bd 81d7 56bd fad1 593c
00000390: d638 07be 600f 3c3d 094c 86bd 01cf d23c
000003a0: 9974 bfbc 14c8 8abd bddc 613c 418b 85bd
000003b0: 608f 70bd 170c ecbc e26d 12bd c4fd 50bb
000003c0: 4fac 5e3d 9cde 2cbd 37ae 9a3d 8621 c63d
000003d0: 5dbe 903c 11cc f63c b018 b73d f1a4 d6bd
000003e0: 1c1f 23bc ac3d 61bc fb19 f5bc cb6b 0abc
000003f0: 5d99 763d 453e dcb9 949e 923d 03bb 26bd

lstm.bias_ih_l0 f4 [256]
-0.04054318 -0.003857236 -0.0520967 0.012355026 0.09823688 0.12688339 0.048519187 0.03598763
0.15934396 0.0693895 -0.027840637 0.055741757 0.061822597 -0.00453545 -0.02465292 0.02490564
-0.02604084 0.14311264 0.08150654 -0.022444442 -0.0073605827 0.081147686 0.0749167 -0.04872542
-0.056453735 0.12247088 0.12737416 0.032935437 -0.034397468 -0.014031259 -0.05285745 0.06027954
0.05673265 0.022873536 0.07633489 -0.080889314 0.07948434 -0.09129934 -0.05707566 -0.042517748
0.10858065 0.0063793743 0.11821125 -0.085177206 -0.034519367 -0.041482847 -0.08123269 -0.08446219
0.11414015 -0.018425038 0.015559327 0.00010710567 0.106839485 0.10837455 -0.04530202 0.054035634
0.11322699 0.11270639 0.12735426 -0.013621522 0.048788715 -0.041404426 0.124162294 0.12299861
0.075686485 -0.014364786 0.05720957 0.06972301 -0.07108758 0.019441444 0.06413731 -0.020417355
0.16983682 -0.06938308 0.08517539 0.043642454 0.0050154724 0.015776126 0.058580916 0.012967167
0.07679916 0.036692712 0.0026454355 0.11702556 0.08414584 0.09183984 -0.008729928 0.06323274
-0.049394954 0.0034963568 -0.059187844 0.0032094158 -0.0853252 -0.04326107 0.076818004 0.06492845
-0.018434718 -0.046908677 -0.045731064 0.047164008 -0.016437937 0.05935408 0.07629612 0.12459091
-0.044126857 0.07612736 0.101570666 -0.055253647 0.033576705 0.04769095 0.04718626 0.11398565
0.008587367 0.14999393 0.015414255 0.08186057 -0.023772305 -0.042387366 -0.04355059 0.096908495
0.07976109 -0.014291358 0.021344835 0.051926564 -0.05880023 0.112453155 0.041509986 -0.007416966
0.10142933 0.090709105 0.011050519 0.08605081 0.05026411 0.062425923 -0.0029925278 0.12090033
-0.10978385 -0.04901744 -0.09602389 -0.08240322 -0.11231427 -0.09363678 -0.066858575 0.022695785
-0.030046504 -0.07428921 0.12840205 0.11214167 -0.052775383 0.046851706 -0.10951276 -0.047284227
0.10858916 -0.08163458 -0.06269361 0.008269846 -0.07361281 0.033617835 -0.07222688 -0.08134518
-0.05682967 -0.053654928 -0.088085316 -0.029116826 0.060516573 0.011469014 -0.03538917 -0.08253673
0.050473858 -0.07774758 0.020725643 -0.032211702 0.057316978 -0.1108817 -0.06945646 0.06226881
0.0649226 -0.031212727 -0.12873778 -0.08767888 -0.0455349 0.10057126 0.05877653 0.0720251
-0.05818036 -0.087522656 0.041773796 -0.08581219 0.038891364 -0.12145399 -0.06936914 0.028937588
-0.062027384 0.096034214 0.12982573 0.11234378 0.05727737 0.0029268656 -0.012921401 0.10784471
0.14835583 0.043586012 -0.03527992 0.12992029 -0.049363043 0.017555086 0.013005701 0.034447074
0.023256721 -0.0060687545 0.007926503 0.044801 -0.024188682 0.04551424 0.1338492 0.076917395
0.052324925 0.07447581 -0.058582652 0.050752297 0.060575273 0.020510681 -0.038530264 -0.07779013
-0.008760908 -0.03200754 0.107993506 -0.027657403 0.055139553 0.1358595 -0.035318255 0.07071788
-0.051701974 -0.06670109 0.21442543 0.10644171 0.072404765 -0.058259144 -0.0065399655 -0.097127534
-0.043122284 -0.08114362 0.14543451 -0.026379721 0.09009959 0.05638136 -0.069275744 0.083908424
-0.0316608 -0.062104944 0.053270392 0.077722915 0.06451778 -0.01994512 0.08053952 0.073962934
00000000: 9b10 26bd aec9 7cbb 5963 55bd bc6c 4a3c
00000010: 6b30 c93d b8ed 013e 0ebc 463d c467 133d
00000020: 102b 233e 151c 8e3d 0c12 e4bc 7851 643d
00000030: b139 7d3d 1d9e 94bb ecf4 c9bc ea06 cc3c
00000040: 9a53 d5bc 1f8c 123e e7ec a63d 68dd b7bc
00000050: 0b31 f1bb c230 a63d ed6d 993d 4e94 47bd
00000060: 083c 67bd 03d2 fa3d 5f6e 023e 4fe7 063d
00000070: 5ce4 0cbd 5ee3 65bc 0e81 58bd aee7 763d
00000080: 7f60 683d 4861 bb3c 7855 9c3d 4ca9 a5bd
00000090: b0c8 a23d 26fb babd 2bc8 69bd 1727 2ebd
000000a0: 885f de3d 120a d13b bd18 f23d 6371 aebd
000000b0: 2e64 0dbd ebe9 29bd 535d a6bd 83fa acbd
000000c0: 50c2 e93d 1bf0 96bc 8cec 7e3c eb9d e038
000000d0: a9ce da3d 7af3 dd3d 9c8e 39bd 7854 5d3d
000000e0: 8de3 e73d 9cd2 e63d 2869 023e ce2c 5fbc
000000f0: add6 473d b097 29bd cd48 fe3d b2e6 fb3d
00000100: 8401 9b3d 485a 6bbc 9554 6a3d f0ca 8e3d
00000110: 5d96 91bd aa43 9f3c 6c5a 833d 4c42 a7bc
00000120: b4e9 2d3e b718 8ebd 6f70 ae3d 6ec2 323d
00000130: d558 a43b ef3c 813c 8bf2 6f3d 3e74 543c
00000140: e148 9d3d 194b 163d 0b5f 2d3b 19ab ef3d
00000150: a754 ac3d 8716 bc3d f907 0fbc 2b80 813d
00000160: 5d52 4abd 2223 653b f46e 72bd 1055 523b
00000170: fabe aebd 8532 31bd c252 9d3d 35f9 843d
00000180: 6804 97bc 5023 40bd 7f50 3bbd 0c2f 413d
00000190: daa8 86bc 441d 733d 2441 9c3d 8529 ff3d
000001a0: 5dbe 34bd a9e8 9b3d 4804 d03d a651 62bd
000001b0: ba87 093d 9657 433d 6146 413d 4f71 e93d
000001c0: 07b2 0c3c 0298 193e 128c 7c3c 84a6 a73d
000001d0: 23be c2bc 609e 2dbd 1a62 32bd f677 c63d
000001e0: c859 a33d 4d26 6abc 5ddb ae3c f3b0 543d
000001f0: 83d8 70bd d74d e63d 6006 2a3d 050a f3bb
00000200: 2eba cf3d b2c5 b93d 3c0d 353c 683b b03d
00000210: bde1 4d3d 53b2 7f3d 491e 44bb 989a f73d
00000220: 5bd6 e0bd 83c6 48bd 2ca8 c4bd 05c3 a8bd
00000230: 0605 e6bd a4c4 bfbd 26ed 88bd 83ec b93c
00000240: 1624 f6bc f124 98bd d47b 033e 88aa e53d
00000250: 002b 58bd 93e7 3f3d 3a48 e0bd 1bad 41bd
00000260: fe63 de3d 0830 a7bd 8265 80bd 407e 073c
00000270: 50c2 96bd dbb2 093d b0eb 93bd 4d98 a6bd
00000280: 3ac6 68bd 45c5 5bbd 1366 b4bd 6986 eebc
00000290: 3ae0 773d 88e8 3b3c 3cf4 10bd 0409 a9bd
000002a0: adbd 4e3d 203a 9fbd d3c8 a93c 6bf0 03bd
000002b0: 35c5 6a3d f215 e3bd 303f 8ebd 940d 7f3d
000002c0: 24f6 843d d5b1 ffbc d6d3 03be fc90 b3bd
000002d0: ce82 3abd 4ef8 cd3d a9bf 703d e581 933d
000002e0: 874e 6ebd 143f b3bd 001b 2b3d 4dbe afbd
000002f0: 8d4c 1f3d dfbc f8bd 6811 8ebd 850e ed3c
00000300: 6d10 7ebd 96ad c43d 09f1 043e 7f14 e63d
00000310: ad9b 6a3d a8d0 3f3b 49b4 53bc b0dd dc3d
00000320: 97ea 173e 3f87 323d ad81 10bd d309 053e
00000330: e730 4abd afcf 8f3c dd15 553c 6018 0d3d
00000340: e184 be3c 67dc c6bb 2ade 013c 4181 373d
00000350: 5827 c6bc 246d 3a3d c40f 093e de86 9d3d
00000360: a952 563d c686 983d 5df4 6fbd a4e1 4f3d
00000370: c71d 783d 0406 a83c e9d1 1dbd 6f50 9fbd
00000380: e989 0fbc 571a 03bd b32b dd3d c791 e2bc
00000390: 03da 613d c11e 0b3e e0a9 10bd 89d4 903d
000003a0: 73c5 53bd 959a 88bd 5792 5b3e 1cfe d93d
000003b0: f348 943d 24a1 6ebd 354d d6bb cdea c6bd
000003c0: fea0 30bd a02e a6bd c9ec 143e 491a d8bc
000003d0: 2286 b83d 24f0 663d 71e0 8dbd 2ed8 ab3d
000003e0: c1ae 01bd c161 7ebd 0e32 5a3d 312d 9f3d
000003f0: e621 843d f363 a3bc e7f1 a43d e179 973d

lstm.bias_hh_l0 f4 [256]
-0.058934078 -0.019458363 0.10953405 -0.07791074 0.086302295 -0.049384385 -0.05097516 0.0075238403
0.07963504 -0.0076387785 0.047409046 0.087224334 0.010432627 0.04318081 0.056427997 0.030297842
-0.04747925 0.122784235 -0.055083096 0.081268065 0.06076589 -0.049140073 -0.048788108 0.15024866
0.050442398 0.047299653 0.1388127 -0.0073649115 0.03022301 -0.029066913 0.020440454 -0.082841866
0.07713202 0.02465362 0.068499826 0.100016914 -0.034268714 0.040179398 -0.07819001 0.0024943824
-0.092695504 -0.05777791 0.101174645 0.016701762 0.007999867 0.15696646 -0.019001251 -0.05611572
0.094908744 -0.04585391 0.05257336 0.066659 0.04062525 0.013014406 0.116449684 0.003741751
0.016436094 0.08823281 0.11349795 -0.028893944 0.032342676 0.06347862 0.089764684 0.033043046
0.054755166 0.124831975 0.113058515 -0.085493974 0.056412708 -0.04779036 -0.02993331 0.12986825
0.14699017 -0.02437227 -0.06352025 0.0066655935 0.13666989 0.10865418 0.004384225 0.048488855
0.12921163 -0.016536782 0.09150348 -0.0019440508 0.13428052 -0.020589938 0.053105555 -0.03658674
0.05381806 0.1070462 0.083791286 0.073848054 -0.037927978 0.07484273 0.052808277 0.018338969
0.1326466 -0.05847745 -0.03563632 -0.04112745 -0.0045699296 0.0951593 0.053347845 -0.050843827
0.08668578 -0.05571839 0.029601034 -0.10931954 -0.07051941 0.102630384 0.10470904 -0.05484422
0.08999203 0.076910496 0.17430605 -0.033472855 -0.07892194 0.05005605 0.11029003 0.08527547
-0.02834588 0.0144578125 0.026191318 0.09104934 0.024026267 0.025671678 0.015887946 0.12190248
0.059774563 0.053442214 -0.064444564 0.017768575 -0.07677548 0.008205227 0.0927462 0.13100192
0.08617873 0.015284774 -0.09003659 -0.055486247 -0.11830498 0.08511948 0.0123679545 -0.007997486
-0.12630841 -0.05984782 -0.015184927 -0.071296945 0.11115629 0.1456679 -0.044658944 0.073461354
-0.10470536 0.061587926 -0.079824455 0.006434759 0.0022151624 -0.046758927 0.10584749 -0.011694485
0.094921745 0.0064088674 0.05837129 0.12552047 -0.07760747 0.11191033 -0.13701934 -0.11428112
-0.0373254 0.08464687 -0.0979077 -0.08822917 0.030695157 -0.09143358 0.06485115 0.0988027
-0.025901863 -0.0667344 0.029292261 0.0367153 -0.10412707 0.03241622 0.11380034 -0.0981343
0.11760526 0.06354573 -0.075653456 0.11172204 0.025124038 0.031180367 -0.09006375 0.107061885
-0.042299576 0.07248751 0.08549471 0.12883423 0.13340543 0.16168271 -0.03297217 0.0022869455
-0.022103377 -0.06436328 -0.09697415 0.14080285 0.09069393 0.101320714 0.12041431 -0.004550201
-0.007760575 0.08074337 0.056953 0.07758733 0.0041052476 -0.003628557 0.1182588 0.07618995
0.056393903 -0.018055018 -0.04071573 -0.0154533945 0.045181125 0.127455 0.008384788 0.11668161
-0.021144956 0.038193263 -0.04230172 -0.091969185 0.17764534 0.13329583 -0.0068299607 0.06368766
0.12017624 0.11562652 0.052326705 0.0381163 -0.035344582 0.012136727 0.003812283 -0.0277921
0.043579586 0.14719889 0.08587873 0.11407424 -0.07436206 -0.060745187 0.10465386 -0.048599448
-0.021651048 0.060641997 0.10078398 -0.029342176 -0.10864156 0.012305046 0.020713832 0.08821576
00000000: dc64 71bd 2567 9fbc 6353 e03d ab8f 9fbd
00000010: 42bf b03d 4847 4abd 54cb 50bd 8c8a f63b
00000020: b217 a33d b84e fabb fd2f 423d aca2 b23d
00000030: 9ced 2a3c 5cde 303d 0b21 673d 2e33 f83c
00000040: 9a79 42bd 4d76 fb3d d09e 61bd df6f a63d
00000050: a7e5 783d 1a47 49bd 0ad6 47bd c9da 193e
00000060: b09c 4e3d 48bd 413d eb24 0e3e 5b55 f1bb
00000070: 3f96 f73c bc1d eebc bd72 a73c ffa8 a9bd
00000080: 64f7 9d3d 63f6 c93c a349 8c3d abd5 cc3d
00000090: 5a5d 0cbd 2793 243d 1522 a0bd cb78 233b
000000a0: 24d7 bdbd 88a8 6cbd a734 cf3d 22d2 883c
000000b0: e011 033c d1bb 203e 83a8 9bbc 99d9 65bd
000000c0: 845f c23d 4fd1 3bbd 2a57 573d 8484 883d
000000d0: aa66 263d 603a 553c 2c7d ee3d 2a38 753b
000000e0: fda4 863c 67b3 b43d 9d71 e83d feb2 ecbc
000000f0: c179 043d 1401 823d 8cd6 b73d 2558 073d
00000100: f446 603d e8a7 ff3d 398b e73d 7717 afbd
00000110: 0311 673d d3bf 43bd b336 f5bc 2ffc 043e
00000120: 9784 163e 5ba8 c7bc e816 82bd 0d6b da3b
00000130: 31f3 0b3e 1586 de3d 8ba9 8f3b 409c 463d
00000140: 0e50 043e 2578 87bc 2d66 bb3d 85cf feba
00000150: d580 093e 3bac a8bc 3685 593d fadb 15bd
00000160: 5370 5c3d 0a3b db3d c49a ab3d a63d 973d
00000170: 5e5a 1bbd 2547 993d 7e4d 583d 9b3b 963c
00000180: 83d4 073e 0d86 6fbd 64f7 11bd 4275 28bd
00000190: 59bf 95bb e1e2 c23d 4583 5a3d 9e41 50bd
000001a0: 5088 b13d f738 64bd de7d f23c ece2 dfbd
000001b0: 7b6c 90bd e12f d23d b171 d63d 55a4 60bd
000001c0: be4d b83d 4083 9d3d 497d 323e d51a 09bd
000001d0: d3a1 a1bd 9307 4d3d bddf e13d e8a4 ae3d
000001e0: 9e35 e8bc 76e0 6c3c 2d8f d63c 1478 ba3d
000001f0: bcd2 c43c 694d d23c 7027 823c 02a8 f93d
00000200: 2cd6 743d 39e6 5a3d 83fb 83bd 678f 913c
00000210: 763c 9dbd 376f 063c b8f1 bd3d 5e25 063e
00000220: 797e b03d fd6c 7a3c 1b65 b8bd 8c45 63bd
00000230: e249 f2bd 1f53 ae3d f6a2 4a3c e307 03bc
00000240: fe56 01be fd22 75bd 33ca 78bc 2204 92bd
00000250: e9a5 e33d f729 153e 4cec 36bd e872 963d
00000260: c46f d6bd 9f43 7c3d 017b a3bd acda d23b
00000270: 422c 113b 4a86 3fbd 92c6 d83d 3a9a 3fbc
00000280: 5566 c23d 7a01 d23b bc16 6f3d 7088 003e
00000290: aaf0 9ebd 3e31 e53d cc4e 0cbe 380c eabd
000002a0: 85e2 18bd 575b ad3d d583 c8bd 7fb1 b4bd
000002b0: 6974 fb3c 8741 bbbd aed0 843d 1259 ca3d
000002c0: 2530 d4bc 0cac 88bd 53f6 ef3c c862 163d
000002d0: 9340 d5bd dfc6 043d 2710 e93d a3fa c8bd
000002e0: 07db f03d 4424 823d 33f0 9abd 86ce e43d
000002f0: edd0 cd3c f86d ff3c 5873 b8bd 4343 db3d
00000300: 5242 2dbd 5574 943d da17 af3d 1fed 033e
00000310: 6f9b 083e 2790 253e d30d 07bd 94e0 153b
00000320: 2412 b5bc e5d0 83bd 629a c6bd 9f2e 103e
00000330: bdbd b93d 3c81 cf3d c79b f63d da19 95bb
00000340: 6c4c febb c85c a53d 8d47 693d 1be6 9e3d
00000350: 5085 863b 16cd 6dbb ab31 f23d 7a09 9c3d
00000360: 4bfd 663d 1ee8 93bc 8ac5 26bd 3c30 7dbc
00000370: d80f 393d 9083 023e 5a60 093c c5f6 ee3d
00000380: 3038 adbc 8a70 1c3d 9144 2dbd 575a bcbd
00000390: a9e8 353e b47e 083e ddcd dfbb ad6e 823d
000003a0: f61e f63d 99cd ec3d 8754 563d d61f 1c3d
000003b0: 7bc5 10bd 1fd9 463c 7fd7 793b 42ac e3bc
000003c0: 8280 323d 4ebb 163e 30e1 af3d c19f e93d
000003d0: 234b 98bd f2cf 78bd c354 d63d 3710 47bd
000003e0: 8a5d b1bc be63 783d d567 ce3d 015f f0bc
000003f0: 777f debd 1b9b 493c 0eb0 a93c 77aa b43d

lstm.weight_ih_l1 f4 [256, 64]
-0.035269517 0.03937788 -0.041404013 0.062400214 0.0672038 -0.04230514 -0.023356074 0.021455752
-0.043692257 0.014676675 0.034157258 0.0110332 0.019282958 -0.00039858048 0.031414814 0.03597619
-0.06357795 0.004807031 0.061132837 -0.015111247 0.06694386 0.08555827 -0.04251007 0.08903172
0.007282125 0.030226577 -0.110161535 0.026456146 -0.02738268 -0.03262706 0.020146575 0.006012999
0.052689545 -0.002769646 0.026832456 -0.00409052 -0.028978677 -0.00036404142 -0.045789883 -0.029388076
-0.002808565 0.00041518672 0.05714664 -0.040971417 0.020010242 -0.011989415 0.0008627883 0.0059302268
0.004616979 -0.04761533 -0.035384353 -0.03411667 -0.0136097735 -0.018502943 0.07425604 0.024796419
0.046284467 -0.07064125 0.031862326 -0.002176023 0.040904354 -0.019880125 -0.041951448 0.0888939
-0.0052912612 0.0405275 -0.068076 0.0051045287 -0.010283552 -0.0055799866 0.004759685 0.08773128
-0.015757365 0.018516753 -0.022936003 -0.03855824 0.006038639 0.018650189 -0.0024557693 0.0507161
0.014999474 -0.008370547 0.0067285704 0.022141634 0.0011910008 0.054779075 -0.018671146 0.034709077
-0.00290398 -0.036185585 -0.08001515 0.03013348 -0.009414241 0.049231708 -0.02496852 -0.04038253
-0.005861221 -0.03936501 0.02101978 -0.032166548 -0.0132632535 0.040682167 -0.03564795 -0.0047779386
0.016957536 -0.038490392 0.035859775 -0.047077827 0.004566328 0.008546372 -0.03679754 0.060227644
-0.022712085 -0.01081039 -0.046197135 0.019948695 0.005946676 0.072778344 0.07941334 0.019645426
0.01907608 -0.0403824 0.0008321834 0.068190835 0.01896891 0.023059804 -0.046280853 0.019287072
-0.012692042 0.00853107 0.038672112 0.09193538 -0.036792092 -0.013241011 -0.02824379 0.047766432
-0.092908576 0.043570247 -0.06277538 -0.11460667 -0.064599894 -0.035981353 0.022203604 0.08197906
-0.035244137 -0.05668274 0.07475629 0.0033724024 0.02373449 0.022788178 -0.04921235 0.03758319
0.022481713 0.012015642 0.009962408 -0.013737762 -0.0047899224 0.019384464 -0.03369388 -0.03027159
0.040389184 -0.05741447 -0.011376151 -0.026348734 -0.03568484 -0.04045876 -0.07648815 0.043508746
0.004756988 0.014149244 0.017713098 0.0017373854 0.01687471 -0.04008552 -0.022542639 -0.00026490114
0.0135960225 -0.005053228 -0.019550331 -0.019179765 -0.032275137 -0.0475986 -0.045731105 0.043464284
0.06603756 0.0056743417 0.037125647 0.053824425 0.05262474 0.034843534 -0.010570253 -0.01238522
0.022799287 0.03722657 -0.010194682 0.030287512 -0.012490891 0.042585142 0.0125888605 0.04687752
-0.048414506 -0.0027548224 -0.025340276 -0.02140109 -0.027183473 -0.056319617 0.007240438 0.04501945
-0.03941708 -0.024537673 0.033540875 0.01832437 -0.00902623 0.06092797 0.008889149 0.030464556
0.0067778477 0.0008171556 -0.056390096 0.020166384 0.008727738 -0.019251667 -0.02001136 -0.020779852
0.014275726 -0.03178323 0.030024536 0.0044454797 0.025646819 0.052382402 -0.030138925 -0.034685425
-0.008138075 0.015847376 -0.01735126 -0.003667877 0.012096103 -0.0384902 -0.014062449 0.0064097876
0.0030900217 -0.029233353 -0.012968691 0.013498274 -0.026690174 0.030514074 0.05597789 -0.017537888
0.033541445 0.0104152 0.031067418 0.032206494 0.020700367 0.031084843 -0.023940148 0.0538082
00000000: c576 10bd b34a 213d 4197 29bd 5e97 7f3d
00000010: 25a2 893d 2848 2dbd 3d55 bfbc f9c3 af3c
00000020: a7f6 32bd 7076 703c 7be8 0b3d 98c4 343c
00000030: 4bf7 9d3c 91f8 d0b9 d2ac 003d c55b 133d
00000040: 2835 82bd 4c84 9d3b 6d66 7a3d 2a95 77bc
00000050: dd19 893d 2d39 af3d 0a1f 2ebd 4356 b63d
00000060: e49e ee3b ba9d f73c 5f9c e1bd 8fba d83c
00000070: a451 e0bc f4a3 05bd 6e0a a53c b108 c53b
00000080: fed0 573d f382 35bb bdcf db3c c509 86bb
00000090: b164 edbc d0dc beb9 2c8e 3bbd 43bf f0bc
000000a0: e70f 38bb 6bad d939 9812 6a3d a5d1 27bd
000000b0: 85ec a33c 406f 44bc be2c 623a 5952 c23b
000000c0: 074a 973b 4b08 43bd 2fef 10bd ecbd 0bbd
000000d0: 87fb 5ebc 7c93 97bc 8d13 983d dc21 cb3c
000000e0: c894 3d3d 5cac 90bd 1282 023d 9c9b 0ebb
000000f0: 538b 273d a5db a2bc 48d5 2bbd 010e b63d
00000100: 5162 adbb 2a00 263d 6e6b 8bbd e443 a73b
00000110: 587c 28bc 52d8 b6bb 22f7 9b3b 75ac b33d
00000120: 9715 81bc 72b0 973c 49e4 bbbc 3fef 1dbd
00000130: c7df c53b 48c8 983c f9f0 20bb afbb 4f3d
00000140: 5bc0 753c 9e24 09bc 577b dc3b 5f62 b53c
00000150: 5b1b 9c3a 0660 603d 3bf4 98bc 1b2b 0e3d
00000160: b350 3ebb 5637 14bd fcde a3bd 7dda f63c
00000170: 303e 1abc 30a7 493d c88a ccbc 2768 25bd
00000180: 7c0f c0bb 343d 21bd ac31 ac3c 12c1 03bd
00000190: 1e4e 59bc 58a2 263d 9603 12bd 4190 9cbb
000001a0: 88ea 8a3c 1aa8 1dbd b3e1 123d aed4 40bd
000001b0: 23a1 953b 1506 0c3c 04b9 16bd 43b1 763d
000001c0: b20e babc 101e 31bc 3539 3dbd 726b a33c
000001d0: 55dc c23b d00c 953d 76a3 a23d 72ef a03c
000001e0: 7045 9c3c 0468 25bd e226 5a3a a3a7 8b3d
000001f0: b064 9b3c eae7 bc3c fe90 3dbd ecff 9d3c
00000200: 48f2 4fbc e7c5 0b3c a666 1e3d 9e48 bc3d
00000210: 4eb3 16bd d3f0 58bc 855f e7bc bca6 433d
00000220: da46 bebd b776 323d 6190 80bd e7b6 eabd
00000230: f34c 84bd 2f61 13bd 55e4 b53c a3e4 a73d
00000240: 285c 10bd 292c 68bd d319 993d 8603 5d3b
00000250: d56e c23c 46ae ba3c e492 49bd d5f0 193d
00000260: 922b b83c 41dd 443c 5e39 233c 5a14 61bc
00000270: c8f4 9cbb 2bcc 9e3c 9802 0abd 20fc f7bc
00000280: 216f 253d 6f2b 6bbd 0963 3abc 4dd9 d7bc
00000290: 442a 12bd 16b8 25bd d2a5 9cbd 3a36 323d
000002a0: 82e0 9b3b 3bd2 673c 0f1b 913c fbb8 e33a
000002b0: d53c 8a3c b730 24bd 57ab b8bc 6ee2 8ab9
000002c0: dac1 5e3c 8c95 a5bb 0428 a0bc e21e 9dbc
000002d0: ef32 04bd c0f6 42bd 8a50 3bbd 9b07 323d
000002e0: b33e 873d d4ef b93b 1011 183d 0077 5c3d
000002f0: 0a8d 573d 18b8 0e3d db2e 2dbc 61eb 4abc
00000300: 92c5 ba3c e37a 183d 9807 27bc 841d f83c
00000310: 98a6 4cbc c26d 2e3d 8241 4e3c a402 403d
00000320: 4a4e 46bd 408a 34bb 6996 cfbc 5751 afbc
00000330: e0af debc 66af 66bd 3241 ed3b 5166 383d
00000340: ce73 21bd 3b03 c9bc 2862 093d fd1c 963c
00000350: c1e2 13bc 9b8f 793d cba3 113c ce90 f93c
00000360: b518 de3b 6236 563a 4df9 66bd f933 a53c
00000370: c9fe 0e3c acb5 9dbc ddee a3bc 823a aabc
00000380: bce4 693c 222f 02bd 04f6 f53c 63ab 913b
00000390: 4719 d23c ee8e 563d e8e5 f6bc 4e12 0ebd
000003a0: 8f55 05bc 5bd2 813c 3b24 8ebc c460 70bb
000003b0: bc2e 463c e6a7 1dbd 3066 66bc 3209 d23b
000003c0: f681 4a3b c97a efbc a27a 54bc dd27 5d3c
000003d0: 5aa5 dabc a7f8 f93c 1249 653d 9eab 8fbc
000003e0: c162 093d 84a4 2a3c 1981 fe3c f5ea 033d
000003f0: d193 a93c a4a5 fe3c 211e c4bc fd65 5c3d

lstm.weight_hh_l1 f4 [256, 64]
0.052683882 -0.02074269 0.02253752 0.06198243 -0.005809 -0.015211473 -0.05381129 0.08713882
0.07792756 -0.015194544 0.035522476 -0.05645505 0.03044516 0.010210869 0.05540094 -0.00039640532
0.05448844 0.01784265 0.06256471 0.0168261 0.019660644 0.046765164 -0.027877705 -0.070627846
-0.05406838 0.026313623 0.005960582 0.032718122 -0.05971201 0.049503017 -0.07806471 0.046840586
-0.026057452 0.06754162 -0.006765266 0.070779115 0.0006432669 0.028620778 0.09649547 -0.00874411
-0.042835336 -0.034280118 0.053619213 -0.02831296 -0.027124364 -0.044073395 -0.034838993 0.050773542
0.045355644 0.055776194 -0.06863876 -0.033640657 0.019214945 -0.0012076059 -0.058161594 -0.07599415
0.0085291155 -0.095920585 -0.012723095 0.078269325 0.014367676 0.033553295 0.022002475 -0.016071362
0.020803077 -0.042946298 -2.9530624e-05 0.019122988 -0.0030351232 -0.007635403 -0.017926449 0.019029113
0.017422428 0.0005341706 0.008347219 -0.015823297 0.02802835 0.017263075 -0.0064961356 -0.016663944
0.013059432 -0.0041329367 0.011767538 0.051112864 0.021764765 0.007782817 -0.01287551 -0.06440278
0.0130251525 -0.024806386 0.007391266 0.013681306 0.018708358 0.032452237 0.00960113 0.023014644
-0.0031359207 0.0083980085 -0.0005571999 -0.007662766 -0.0046456633 0.0127478335 0.015804516 -0.045741607
-0.022492155 -0.033463813 0.020583948 0.009883975 -0.019433059 0.011588758 -0.015953852 0.004527863
0.021391856 -0.014442196 -0.0037327963 0.004399073 -0.034345575 0.029088262 0.0021431046 -0.012481713
0.024554657 -0.060983 -0.022931578 0.00644435 0.023994911 -0.00037267304 -0.0046234364 -0.0030138998
0.06293312 -0.026008872 0.08014842 0.045901477 0.043467283 -0.0027919877 -0.0005793085 0.08805553
0.01907149 -0.08632393 0.061143897 -0.06484885 -0.021663196 0.012171218 -0.007260917 0.076879725
0.03727457 -0.06598471 0.037392873 -0.061331734 -0.016279133 0.041452855 -0.067149416 -0.015029736
-0.056403227 0.01766582 0.029954035 -0.008908685 -0.0820628 0.052932322 -0.12742673 0.015691126
-0.053247772 0.11198662 0.013771809 0.05974218 0.0033322389 0.02248569 0.09877088 -0.037586424
-0.035895634 -0.10500701 0.03342455 0.06706874 0.024013363 -0.06044601 -0.03494626 0.018011024
0.10091931 -0.025745487 -0.04968759 -0.025096387 0.057472244 -0.03633005 -0.040106427 -0.01284286
0.023376547 -0.026510237 -0.073942505 0.09701814 -0.026668688 0.07953474 0.017892046 -0.040397465
0.020071581 -0.024089374 0.011511717 0.0021115895 0.0023900983 -0.016110301 -0.019282559 0.03171357
-0.0065230164 0.009762555 0.022854306 -0.032632716 0.014572779 0.0055185645 -0.022299802 0.012535692
0.041216146 -0.023780474 -0.00674482 0.05832142 0.008761031 0.022239257 0.00927586 -0.06733433
0.013167489 -0.021739194 0.015594699 0.034951616 -0.008944857 0.028376358 -0.018113049 0.01780987
-0.011894673 0.021636575 0.019735534 0.025782429 5.593766e-05 0.022602456 0.029910186 -0.008425227
-0.016674029 -0.04004771 0.035286926 0.027689792 -0.07465362 0.02335557 -0.014983045 0.060107283
0.045424484 -0.01028263 -0.041551515 0.0142832035 -0.01228813 0.02811016 0.0014768197 -0.013470241
0.0063262456 -0.05435468 -0.015474535 0.02460386 0.020580657 0.011293125 0.012947243 -0.020127404
00000000: 0ecb 573d 93ec a9bc 9ba0 b83c 4ae1 7d3d
00000010: 6d59 bebb 8b39 79bc 3a69 5cbd d675 b23d
00000020: 7c98 9f3d 89f2 78bc 0480 113d 693d 67bd
00000030: 2168 f93c 7d4b 273c 19ec 623d 9fd4 cfb9
00000040: 452f 5f3d c02a 923c ed21 803d e4d6 893c
00000050: 5c0f a13c d48c 3f3d c95f e4bc 55a5 90bd
00000060: ce76 5dbd ab8f d73c fc50 c33b 7003 063d
00000070: 9594 74bd adc3 4a3d 64e0 9fbd eadb 3f3d
00000080: 7076 d5bc 4353 8a3d 2aaf ddbb a4f4 903d
00000090: e9a0 283a 1f76 ea3c 6b9f c53d 7543 0fbc
000000a0: 1b74 2fbd 4f69 0cbd d29f 5b3d 95f0 e7bc
000000b0: ea33 debc 4e86 34bd 55b3 0ebd ebf7 4f3d
000000c0: d7c6 393d 9475 643d 7a92 8cbd c9ca 09bd
000000d0: a968 9d3c 8848 9eba da3a 6ebd d2a2 9bbd
000000e0: b4bd 0b3c 0372 c4bd 8774 50bc ab4b a03d
000000f0: 6766 6b3c 2e6f 093d 893e b43c 17a8 83bc
00000100: 376b aa3c 75e8 2fbd 88b8 f7b7 d0a7 9c3c
00000110: ebe8 46bb 6732 fabb 7dda 92bc f1e2 9b3c
00000120: 7bb9 8e3c 9507 0c3a c6c2 083c dc9f 81bc
00000130: b69b e53c 4b6b 8d3c 89dd d4bb d382 88bc
00000140: 3af7 553c 966d 87bb a2cc 403c b95b 513d
00000150: 054c b23c 0007 ff3b cef3 52bc 9be5 83bd
00000160: 7367 553c c336 cbbc 6f32 f23b 8e27 603c
00000170: 4542 993c a3ec 043d 0f4e 1d3c 3589 bc3c
00000180: 0584 4dbb cd97 093c 0d11 12ba f117 fbbb
00000190: a63a 98bb 4adc 503c 7978 813c 8d5b 3bbd
000001a0: 7841 b8bc 5a11 09bd ab9f a83c 65f0 213c
000001b0: 1432 9fbc c6de 3d3c a7b1 82bc 785e 943b
000001c0: f93d af3c f69e 6cbc eea1 74bb 1926 903b
000001d0: f2ad 0cbd 824a ee3c 5473 0c3b 1980 4cbc
000001e0: d926 c93c 4fc9 79bd 01db bbbc 202b d33b
000001f0: fa90 c43c 5463 c3b9 3280 97bb d984 45bb
00000200: 14e3 803d 8f10 d5bc db24 a43d 3003 3c3d
00000210: c00a 323d c8f9 36bb bcdc 17ba 7556 b43d
00000220: d03b 9c3c 9aca b0bd 0672 7a3d 79cf 84bd
00000230: 0477 b1bc ca69 473c fdec edbb 1e73 9d3d
00000240: 38ad 183d fe22 87bd 4529 193d fc36 7bbd
00000250: d15b 85bc 78ca 293d a285 89bd 483f 76bc
00000260: 1207 67bd e9b7 903c 2a62 f53c bcf5 11bc
00000270: 8b10 a8bd 90cf 583d 277c 02be ad8a 803c
00000280: 561a 5abd 3e59 e53d 27a3 613c 37b4 743d
00000290: b161 5a3b e933 b83c 6348 ca3d 39f4 19bd
000002a0: 4d07 13bd ea0d d7bd 2ee8 083d 565b 893d
000002b0: acb7 c43c 3c96 77bd cf23 0fbd db8b 933c
000002c0: c8ae ce3d 33e8 d2bc 3785 4bbd f096 cdbc
000002d0: 0468 6b3d d2ce 14bd a346 24bd dc6a 52bc
000002e0: 2c80 bf3c ff2b d9bc 2b6f 97bd 72b1 c63d
000002f0: 4b78 dabc 1ce3 a23d 5792 923c d077 25bd
00000300: 286d a43c 1457 c5bc a49b 3c3c 9862 0a3b
00000310: 32a3 1c3b c0f9 83bc 75f6 9dbc 17e6 013d
00000320: 07bf d5bb 20f3 1f3c f438 bb3c e2a9 05bd
00000330: aac2 6e3c 13d5 b43b 13ae b6bc 8162 4d3c
00000340: 43d2 283d 45cf c2bc a703 ddbb 71e2 6e3d
00000350: 6d8a 0f3c 1a2f b63c c7f9 173c 95e6 89bd
00000360: 74bc 573c 6516 b2bc e980 7f3c 6d29 0f3d
00000370: 738d 12bc 8975 e83c d161 94bc 01e6 913c
00000380: e0e1 42bc 303f b13c 6aac a13c ac35 d33c
00000390: 9b9e 6a38 c928 b93c 3506 f53c f709 0abc
000003a0: f997 88bc 1109 24bd 0689 103d b4d5 e23c
000003b0: ffe3 98bd 2e54 bf3c 727b 75bc 0e33 763d
000003c0: 060f 3a3d 7a78 28bc ec31 2abd 1904 6a3c
000003d0: 2754 49bc 4747 e63c d991 c13a 49b2 5cbc
000003e0: 654c cf3b 03a3 5ebd e788 7dbc 098e c93c
000003f0: c498 a83c cd06 393c ac20 543c 3ae2 a4bc

lstm.bias_ih_l1 f4 [256]
0.05539325 0.0062956847 0.10686288 -0.0056146476 -0.03937178 0.029436301 -0.06263767 0.048313037
-0.03227341 0.10727267 0.0700348 0.068830185 0.084542416 -0.0044727833 0.007218795 0.008073804
0.020349326 -0.075104274 0.098151535 0.20199631 0.03976327 0.120676756 -0.021516057 0.01797207
0.041981075 0.056156874 -0.057548188 0.042624146 0.029849883 0.021045145 0.02138741 -0.062752105
0.06891827 0.14120357 0.10945859 -0.042514138 -0.055105936 0.02542331 0.05159811 0.018946884
-0.06913975 0.09700949 0.07272581 0.091051064 0.03979291 -0.026969653 -0.05908729 0.12942678
0.077012606 0.10429573 0.082252555 0.17779464 -0.021202845 0.12703769 0.061618693 0.037151776
0.083116114 0.07611569 0.07427351 -0.043757547 0.031132415 0.0828434 0.065394655 0.017230345
0.09334821 -0.002694569 0.0067871073 0.010595557 0.058116924 0.0023028762 0.06495763 0.102365255
0.041200638 -0.06887403 0.11211899 0.034830946 0.118447736 -0.008825479 -0.05658018 0.12786968
0.08284382 -0.024542784 -0.02304103 0.20053065 -0.051792733 -0.022031197 0.0800684 -0.005069586
0.08118932 0.030422306 0.02445465 0.04248212 -0.069950886 -0.0723881 0.16553101 -0.040099427
0.098674536 0.083948016 -0.100363076 -0.015475594 0.011407022 -0.004486517 0.08957382 -0.032790788
-0.017783692 0.006775909 -0.069654524 0.100296244 0.07871658 0.06596903 -0.07301596 0.114041336
-0.0339904 -0.04409094 0.111272976 0.059439808 0.0733791 0.025913639 0.124928206 0.036378708
0.03150439 -0.040529877 0.11519142 0.09910697 -0.048022956 0.0067014964 -0.07393008 0.038424492
0.13991 0.026856082 0.07692297 -0.014266077 -0.042511452 -0.0010338692 -0.11194592 0.011820638
0.08583676 -0.067578815 0.15556577 0.07005039 -0.002999206 0.110671885 0.10025208 0.030944034
0.07838236 0.070850275 -0.0802963 -0.050217453 0.02790086 0.09246037 -0.02495389 0.03963852
0.058827356 -0.035422504 -0.084265426 0.12534018 -0.078428224 0.14694518 -0.10546149 0.09682901
-0.07306053 0.032138124 0.043187093 0.14294231 0.015665598 -0.09204059 0.10226893 0.016091932
0.025012087 0.03132442 0.028304918 0.12488932 -0.020119587 0.074233964 0.057942286 0.14118806
0.052799653 0.01450627 -0.070350446 0.07533149 -0.09872901 0.03898758 -0.026700145 0.0776038
-0.026137006 -0.06455067 -0.029653005 0.06809377 0.007301968 0.14461616 -0.05388411 0.059107292
0.012191267 -0.048746523 0.028158613 0.043743808 -0.01718264 -0.05027502 0.04471007 0.07729922
0.11547453 -0.039296612 0.14038943 0.0077451067 0.06403884 0.06853665 -0.0400394 0.12680356
0.10488125 -0.07601395 0.03698374 0.20247069 0.055678252 -0.007333342 0.02656853 0.05799129
-0.041037373 -0.04754331 0.06468931 0.12650901 0.08302173 0.06880023 0.10926993 0.08266957
0.02196508 0.044065382 -0.06699109 0.023782032 -0.010827218 -0.07672881 0.0011956233 0.08771404
-0.07283263 0.10703492 0.11312379 -0.00059879257 0.11788402 -0.039024312 0.020012118 0.022345547
0.037901122 0.107680105 0.10644805 0.1232869 0.055417623 0.18266506 0.008719852 0.015429674
0.11080602 0.05857293 0.001626538 0.057054307 0.0010365306 0.026709879 0.06441293 0.089221835
00000000: 08e4 623d 084c ce3b edda da3d 14fb b7bb
00000010: 4e44 21bd 6624 f13c 2e48 80bd e4e3 453d
00000020: 2031 04bd c6b1 db3d 686e 8f3d d7f6 8c3d
00000030: 9324 ad3d 6d90 92bb a48b ec3b fd47 043c
00000040: a1b3 a63c 45d0 99bd ac03 c93d 1fd8 4e3e
00000050: d0de 223d 6025 f73d 7142 b0bc 2a3a 933c
00000060: 59f4 2b3d c004 663d a6b7 6bbd a896 2e3d
00000070: be87 f43c de66 ac3c a634 af3c 2d84 80bd
00000080: 0625 8d3d ab97 103e d32b e03d 4e23 2ebd
00000090: c3b6 61bd 8c44 d03c 8a58 533d 7f36 9b3c
000000a0: 2499 8dbd e9ac c63d 45f1 943d fb78 ba3d
000000b0: e4fd 223d 76ef dcbc 8405 72bd 7488 043e
000000c0: c9b8 9d3d 0099 d53d 0774 a83d cc0f 363e
000000d0: 97b1 adbc 2b16 023e e263 7c3d 762c 183d
000000e0: c838 aa3d 8be2 9b3d b61c 983d 1d3b 33bd
000000f0: 6809 ff3c cda9 a93d a2ed 853d a726 8d3c
00000100: 592d bf3d 5e97 30bb 6266 de3b fd98 2d3c
00000110: 030c 6e3d daeb 163b 8208 853d e0a4 d13d
00000120: 00c2 283d d40d 8dbd a49e e53d e5aa 0e3d
00000130: ba94 f23d be98 10bc 9ec0 67bd 45f0 023e
00000140: 05aa a93d f30d c9bc 8bc0 bcbc e857 4d3e
00000150: 9e24 54bd c57a b4bc e7fa a33d c51e a6bb
00000160: 9646 a63d 3338 f93c 1e55 c83c bb01 2e3d
00000170: 6942 8fbd 3640 94bd f680 293e 4c3f 24bd
00000180: e015 ca3d f0ec ab3d 288b cdbd 598d 7dbc
00000190: 85e4 3a3c a203 93bb 7b72 b73d a24f 06bd
000001a0: 1baf 91bc 7208 de3b 08a7 8ebd 1e68 cd3d
000001b0: 2936 a13d c51a 873d 6489 95bd 818e e93d
000001c0: 8539 0bbd b498 34bd 16e3 e33d 2877 733d
000001d0: c847 963d d748 d43c 5cda ff3d d701 153d
000001e0: bf0a 013d a802 26bd 7be9 eb3d 98f8 ca3d
000001f0: b8b3 44bd 3a98 db3b a768 97bd 0063 1d3d
00000200: 9144 0f3e 4901 dc3c ca89 9d3d 44bc 69bc
00000210: 7d20 2ebd e582 87ba e743 e5bd 59ab 413c
00000220: 2fcb af3d c366 8abd a24c 1f3e 9476 8f3d
00000230: 548e 44bb f1a7 e23d f650 cd3d 587e fd3c
00000240: ee86 a03d f319 913d 6372 a4bd d1b0 4dbd
00000250: 5890 e43c dd5b bd3d 1a6c ccbc 005c 223d
00000260: f4f4 703d 3017 11bd 5a93 acbd 2d59 003e
00000270: fa9e a0bd cc78 163e 32fc d7bd 4a4e c63d
00000280: c2a0 95bd 44a3 033d f3e4 303d 785f 123e
00000290: 2455 803c c77f bcbd 5f72 d13d 3ad3 833c
000002a0: 26e6 cc3c 094e 003d b7df e73c f9c5 ff3d
000002b0: d5d1 a4bc fa07 983d e454 6d3d 9a93 103e
000002c0: 7344 583d b5ab 6d3c e513 90bd 6547 9a3d
000002d0: 6f32 cabd 71b1 1f3d 43ba dabc beee 9e3d
000002e0: 461d d6bc 2433 84bd dcea f2bc bf74 8b3d
000002f0: 5945 ef3b 4216 143e 96b5 5cbd 7d1a 723d
00000300: e1bd 473c 6faa 47bd e4ac e63c b52c 333d
00000310: 9cc2 8cbc 2eed 4dbd e821 373d 0e4f 9e3d
00000320: e97d ec3d 7cf5 20bd 3fc2 0f3e aaca fd3b
00000330: cc26 833d f15c 8c3d 5b00 24bd cbd8 013e
00000340: fbcb d63d 34ad 9bbd 437c 173d 7a54 4f3e
00000350: e10e 643d 884c f0bb 3fa6 d93c 4688 6d3d
00000360: ce16 28bd c6bc 42bd d47b 843d 948b 013e
00000370: 4c07 aa3d 23e7 8c3d eac8 df3d aa4e a93d
00000380: 1df0 b33c e77d 343d a032 89bd 89d2 c23c
00000390: a564 31bc ff23 9dbd 76b6 9c3a 6ba3 b33d
000003a0: 4629 95bd 2035 db3d 72ad e73d 4af8 1cba
000003b0: 2d6d f13d f5d7 1fbd 74f0 a33c 020e b73c
000003c0: 353e 1b3d 6387 dc3d 6f01 da3d d87d fc3d
000003d0: 97fd 623d 8d0c 3b3e b6dd 0e3c becc 7c3c
000003e0: 44ee e23d 2bea 6f3d 8f31 d53a c7b1 693d
000003f0: 32dc 873a adce da3c edea 833d f0b9 b63d
