checkpoints/all_LinearFlatten_Focal_100epochs_종가_거래대금_거래량볼밴_이등분선_checkpoint.pth (torch, 27984 bytes, 3 tensors)

fc1.weight f4 [64, 100]
00000000: db15 513a 20ee 9439 757e e539 c266 4439
00000010: 2273 ba39 8aec 07ba c8ca b7b9 5dd1 e1b8
00000020: dc4f 7539 fc34 c439 198d 9d3a 5a07 f738
00000030: c8cb 203a 4566 be39 a9f6 2a3a 2c62 e6b9
00000040: 5088 ceb9 3908 58ba e33e aa39 b40b f339
00000050: f9ae 073a 5d40 a4b8 ecc6 8c3a 0eca 8038
00000060: 319d 0d3a a88c e2b9 4433 ecb9 00bc 40ba
00000070: a222 5639 b8ce ac39 2400 6f3a f4d4 1eb9
00000080: c26d 003a 2932 90b8 f42b 5a3a 88ef 0aba
00000090: 8862 44ba 806d bdb9 a594 0eb9 76f6 3eb7
000000a0: 3d3b 443a ec4e fd38 dec2 393a 63d3 5239
000000b0: efa1 193a fcda feb9 dc03 0dba e121 87b9
000000c0: a001 e1b8 1e8f 9337 95f4 953a 53a2 d6b9
000000d0: bd99 fb39 d590 4e38 80a0 333a f571 0aba
000000e0: 238d 22ba c5a5 1bba bf56 08ba c595 bcb9
000000f0: 77e4 873a fb73 7aba 716f 923a d7a9 8339
00000100: 4d7f 103a a3b4 2bba 7d14 4eba 7ef9 38ba
00000110: 814b 49ba 9d07 1bba a4d1 6f3a ad42 073a
00000120: c9a3 3c3a 571b d838 68b0 4b3a 9c6e 0aba
00000130: 37a6 21ba 77a3 1bb9 de4b 47ba 2955 18ba
00000140: 5b1b 593a e604 1bb9 b866 6b3a 07fb e938
00000150: 2b7e 5c3a f259 0eba 5736 13ba 6b7f 34b8
00000160: 6ea0 7cba 0cdc 4eba 3aaf 3139 7856 3839
00000170: d80f 353a 2e79 0db7 e501 5c39 7006 feb9
00000180: 07a8 c0b9 5dfa f138 1cc0 abba f705 97ba
00000190: ff08 82b5 5933 8636 6550 0ab6 9841 05b6
000001a0: 8ac0 66b5 7bd5 1db5 0144 1d36 d71c aa34
000001b0: 38be 8a34 df94 b334 aee0 b735 8beb 9a36
000001c0: bd64 9ab5 21d9 6ab5 2b51 3234 8317 2535
000001d0: 3cdc 4336 189f 64b5 0da6 4d35 1762 6235
000001e0: 43b7 2835 e04c 6736 e78a 8735 350b 64b3
000001f0: 010b db35 a910 9235 e61b 3536 fde7 aab5
00000200: d498 7d35 fe65 8535 b363 ec35 04a5 0f36
00000210: d8ba ec34 6d8b 2a35 7e7f db35 b7e5 d435
00000220: 9b32 4336 ca02 bb35 d0c3 4f35 e627 6735
00000230: dd24 2a36 e931 7436 939b c635 e807 cf35
00000240: 5623 3236 f21f 2936 3844 9336 3ccd 7c34
00000250: ec1f 9b35 9a33 aa35 dbbd 1f36 b437 74b5
00000260: 5135 0236 4356 5e35 eded 5d36 f3be 3d36
00000270: b8c6 9236 1473 10b5 8bc8 9035 4597 b435
00000280: e3cc 0a36 7bf2 4cb5 3c36 1336 8c21 a835
00000290: d70d 2836 aa09 6b36 f939 a136 c8ea 25b5
000002a0: d67c b735 c95e db35 426d 3536 411b 6d36
000002b0: ef4b 9535 acdd d635 26e0 1636 ef89 9436
000002c0: de72 c436 123d a135 78e0 f135 e070 0b36
000002d0: 85ba 9836 d387 4a36 0189 0536 9ed8 5736
000002e0: c13e 8436 27de a636 c761 e836 3e24 9535
000002f0: 06a2 0536 da8e 1636 30e1 9a36 4116 7836
00000300: 94db 8436 11e9 7d36 c1e0 9c36 76b1 c436
00000310: 76e0 1137 4524 44b4 6692 0036 1acf 0f36
00000320: b4e9 8a3b e39c 23bb 6dc2 94ba 29f4 d43a
00000330: d1ff 193c 4c0f c7bc 6796 b7bc b4b9 bf37
00000340: 6962 03ba fd04 17bb 4824 943b 0ea2 babb
00000350: f89b 46bb 7015 ad3a 0703 0b3c e365 acbc
00000360: 906e a4bc 6ca1 19bb 9fbc 90ba 59ea 40bb
00000370: 22b3 f53b 39d8 53bb d1af a8ba a32c 6f3b
00000380: 00a7 273c 92e7 95bc 5dd5 82bc e4f3 8fbb
00000390: 5520 f639 eb9c b6ba 3375 8f3b 32a3 9cbb
000003a0: 5302 8b3a 35ca a13b cba7 263c e896 64bc
000003b0: e7d7 33bc 385b 98bb 67d3 313a a0a4 9aba
000003c0: 876e 573b 74c9 87bb 5c17 abba 1724 8f3b
000003d0: a6bc 2b3c f985 32bc 8a28 bbbb 66d4 8939
000003e0: 1fa0 d53a cdd2 79b9 40ea a73b 9ea8 56bc
000003f0: d1f8 73bb 0f9c 803a b63b 0f3c 63d6 1abc
0.0007975974 0.00028406177 0.00043772502 0.00018730297 0.00035562465 -0.00051850884 -0.00035055564 -0.00010767833
0.0002339477 0.0003742351 0.00120202 0.00011779247 0.00061338814 0.0003631582 0.00065217406 -0.00043942162
-0.00039392943 -0.00082409714 0.0003247178 0.0004635729 0.0005175914 -7.832118e-05 0.0010740436 6.141151e-05
0.00054021465 -0.00043210876 -0.00045051624 -0.0007352233 0.00020421532 0.00032960414 0.00091171474 -0.00015147385
0.00048991677 -6.875798e-05 0.00083225896 -0.0005299975 -0.0007491489 -0.00036130473 -0.0001359755 -1.1382266e-05
0.0007485634 0.000120786804 0.00070862274 0.00020105908 0.0005860617 -0.0004860981 -0.0005379298 -0.00025774448
-0.00010729139 1.759041e-05 0.0011440689 -0.00040938202 0.00047988995 4.9249113e-05 0.00068522245 -0.0005281263
-0.00062008406 -0.00059374823 -0.00052009145 -0.0003596974 0.001036777 -0.00095540256 0.0011172128 0.00025112808
0.00055121334 -0.00065500493 -0.00078613294 -0.000705622 -0.00076787925 -0.0005913915 0.00091483654 0.0005159777
0.0007196037 0.00010304775 0.0007770122 -0.00052807643 -0.00061664305 -0.00014842847 -0.00076025527 -0.00058110297
0.00082819693 -0.00014783777 0.0008979845 0.00011157063 0.00084111345 -0.0005430273 -0.0005615702 -4.303401e-05
-0.0009636943 -0.0007891066 0.00016945312 0.0001757982 0.0006906963 -8.432469e-06 0.00020981541 -0.00048451452
-0.00036746284 0.00011538409 -0.0013103518 -0.0011522163 -9.688373e-07 3.999489e-06 -2.0610398e-06 -1.9856725e-06
-8.596186e-07 -5.879771e-07 2.3434407e-06 3.168595e-07 2.5842905e-07 3.3449666e-07 1.3699953e-06 4.6169785e-06
-1.1503213e-06 -8.7487757e-07 1.660707e-07 6.1501504e-07 2.9185458e-06 -8.516813e-07 7.6610087e-07 8.43343e-07
6.285156e-07 3.446643e-06 1.009871e-06 -5.309558e-08 1.6319974e-06 1.0882696e-06 2.698734e-06 -1.2733504e-06
9.447224e-07 9.938956e-07 1.7612387e-06 2.1404712e-06 4.4094372e-07 6.3532826e-07 1.6353877e-06 1.5862087e-06
2.908672e-06 1.3933397e-06 7.7398454e-07 8.6112266e-07 2.5353431e-06 3.6387885e-06 1.4797428e-06 1.5425003e-06
2.6544635e-06 2.5201557e-06 4.388883e-06 2.3543993e-07 1.155769e-06 1.2681005e-06 2.3803357e-06 -9.097814e-07
1.9402544e-06 8.282697e-07 3.3070057e-06 2.8274342e-06 4.374273e-06 -5.381164e-07 1.0787202e-06 1.345507e-06
2.0682862e-06 -7.634878e-07 2.1936276e-06 1.2526739e-06 2.5042007e-06 3.5023354e-06 4.804923e-06 -6.180894e-07
1.3670895e-06 1.6344358e-06 2.7034698e-06 3.5331616e-06 1.1123465e-06 1.6008757e-06 2.2482213e-06 4.4268013e-06
5.8546275e-06 1.2013209e-06 1.8021228e-06 2.0778316e-06 4.5516667e-06 3.0179406e-06 1.9898291e-06 3.2163584e-06
3.941212e-06 4.9730475e-06 6.9255216e-06 1.1111913e-06 1.9912854e-06 2.2434892e-06 4.615773e-06 3.6967833e-06
3.959469e-06 3.78356e-06 4.675327e-06 5.8619144e-06 8.694935e-06 -1.8267117e-07 1.9158701e-06 2.142921e-06
0.0042392854 -0.0024965338 -0.0011349447 0.0016247082 0.00939937 -0.024299286 -0.022410585 2.2855449e-05
-0.00050119177 -0.0023043745 0.0045209266 -0.005695588 -0.0030305367 0.0013205241 0.0084846085 -0.021044677
-0.020072252 -0.0023442162 -0.0011042542 -0.0029436557 0.007498161 -0.0032324924 -0.001286978 0.0036495111
0.010232687 -0.018298898 -0.01597088 -0.0043930877 0.00046944866 -0.0013932263 0.004377985 -0.0047801966
0.0010605551 0.004937435 0.010171841 -0.0139519945 -0.010976768 -0.004649546 0.00067835156 -0.001179833
0.0032872276 -0.004143888 -0.0013053226 0.004368316 0.010481989 -0.010896199 -0.0057116197 0.00026288925
0.001629833 -0.0002382502 0.0051243603 -0.013101725 -0.0037227164 0.0009812134 0.008742264 -0.009450528

fc1.bias f4 [64]
00000000: af57 df3a e973 7435 8315 c8bc 8ab2 edbc
00000010: 18fb b4b8 ce48 b5bd c70f 6c3c d9eb c63d
00000020: 7061 83bd 9b8e fc3d d131 e03d c95e a73d
00000030: ed0e 85bd f1af e1bb d78f 81bd b300 0abc
00000040: c82f 8ebd 4595 6fbb c415 41bc da7b c2bd
00000050: b61f a1bd d984 5e3d 858c c63d 5b43 6f3d
00000060: 6099 04b8 064b 88bc 14e9 92bd 5d88 cabd
00000070: 9497 89bd e427 1cbd d203 afbd 0060 b93d
00000080: 9486 203c 7948 a9bd 890a 213b 9f48 92bd
00000090: 7244 9e3d a437 7dbd aca6 bdbd 70af ce3d
000000a0: 479e 903d 607e 023e e7e6 5f3d 9f80 92bc
000000b0: a5f8 c1bd 904b 0e3e e796 73bb 8693 953d
000000c0: f0b7 0c3e dce5 4bbb b20c 873b dcb7 85bd
000000d0: 9922 82bd 3648 d237 94f5 853d 2e92 ecb9
000000e0: f4c3 a8bd ce1a 9ebd f80c efbc dd29 b33c
000000f0: 66ea 013e f437 81ba 96d8 253d 91f9 60bb
0.0017039682 9.1065755e-07 -0.02442432 -0.029015798 -8.629839e-05 -0.08851777 0.0144080585 0.09712953
-0.06415069 0.12331887 0.10947002 0.08172376 -0.064969875 -0.006887429 -0.063262634 -0.008423018
-0.06942707 -0.0036557477 -0.0117849745 -0.09496279 -0.078673765 0.054325912 0.09694771 0.058413845
-3.1614094e-05 -0.016637336 -0.071733624 -0.098892905 -0.06718364 -0.03812398 -0.085456505 0.09051514
0.009797711 -0.08265776 0.002457293 -0.071427576 0.07727899 -0.06182064 -0.09260306 0.10092056
0.07061439 0.1274352 0.054663565 -0.017883597 -0.09471253 0.13896012 -0.0037168802 0.073035285
0.13742042 -0.0031112349 0.0041213864 -0.06529209 -0.06354255 2.5067577e-05 0.06540981 -0.0004512234
-0.082405 -0.07719956 -0.029180989 0.021870548 0.12687072 -0.0009858594 0.040489756 -0.003432844

fc2.weight f4 [1, 64]
00000000: 3c87 9ab9 1259 f9b4 2a5e 0cbc 94c3 f53c
00000010: 1b6c 71b5 405c 8dbd f626 943c 6fad 5b3d
00000020: 4b03 0dbd a524 0d3d 27ad 563d 9308 1c3d
00000030: 04b3 2dbd 241d 02b9 800f 2bbd 1778 21bd
00000040: 7477 e6bc fb2d 983a 9047 75bb 6403 11bd
00000050: 4dbd 3abd 0f1b 263d 1775 5f3d e22f e13c
00000060: 5288 dab6 2028 c03a 5d1c d7bc 9ea2 41bd
00000070: 34f3 29bd 0157 68bc af45 36bd 67e9 3c3d
00000080: c463 e93a 89a9 14bd 2437 6f3c 3b82 1fbd
00000090: 2548 813d 8fde adbc 163a 7cbd dc80 443d
000000a0: e986 1c3d 5c3d 943d a0c5 183d 2bc4 d1bc
000000b0: 1b85 0dbd 6718 973d be8b 4bba df04 443d
000000c0: fe1f 9a3d 8f69 093a 9126 beb9 3624 84bd
000000d0: 41c8 f7bc 1247 1937 07b1 553d f488 9ab7
000000e0: 357c e7bc 9c65 73bd d7a7 76bb 9fdf 393d
000000f0: e634 963d 8120 913a 4006 413c 7a4c 04bb
-0.00029473926 -4.644467e-07 -0.008567372 0.030000485 -8.993681e-07 -0.06902361 0.018084984 0.053632196
-0.03442697 0.034458775 0.052411225 0.038094115 -0.04240705 -0.00012408622 -0.04176283 -0.039421167
-0.028133132 0.0011610383 -0.0037426688 -0.035403624 -0.045590688 0.04055315 0.054555025 0.027488653
-6.512776e-06 0.0014660396 -0.026258642 -0.047274224 -0.041491702 -0.0141809 -0.04450005 0.046121027
0.0017806222 -0.036294494 0.014600549 -0.038942557 0.063125886 -0.021224288 -0.061578833 0.047974452
0.038214598 0.07238266 0.037297845 -0.025606235 -0.034550767 0.07377701 -0.00077646587 0.047856208
0.07525633 0.0005241865 -0.00036268358 -0.06452219 -0.030246856 9.136058e-06 0.05217078 -1.8422004e-05
-0.028257469 -0.059423074 -0.0037636661 0.045379277 0.07334308 0.0011072309 0.011781275 -0.0020187185
