checkpoints/all_Linear_BCE_100epochs_종가_거래대금_거래량볼밴_이등분선_checkpoint.pth (torch, 4944 bytes, 3 tensors)

fc1.weight f4 [64, 10]
-0.07526389 -0.058720533 -0.22474587 -0.042225298 0.09915569 -0.1320319 0.02203181 -0.02571266
-0.18769783 -0.12487404 0.07108322 -0.13513619 -0.10569653 0.10586675 0.062438957 0.085863
-0.068760246 -0.009425214 0.030459445 -0.10481748 -0.05443852 0.022771891 -0.053381253 0.08852253
-0.008865131 0.0016766398 -0.05553011 -0.08483534 -0.015225602 0.023439076 0.043995548 0.11329303
0.009208439 -0.2513087 -0.06823958 -0.26659858 0.17952056 -0.21743253 0.014720455 0.15721822
0.30440626 0.12915854 0.05500236 -0.048722304 0.27660385 0.08248431 0.28040758 0.10635806
-0.11937525 0.154531 -0.08440445 -0.15231907 0.12110169 -0.057554092 0.16476232 0.14328006
0.15798081 0.056513913 -0.012133822 0.05524157 0.12064487 -0.2531603 0.0035437592 -0.03199671
-0.07861272 -0.13679467 -0.28579432 -0.057304136 -0.22846246 0.025870657 -0.12839828 0.036697008
0.16688816 -0.061391883 -0.15944996 -0.020322382 0.13121402 -0.07593385 0.009887303 -0.03779471
0.12978418 -0.0195532 -0.029846806 0.08339118 -0.049343612 -0.034808747 0.014649487 -0.0911449
0.05514843 -0.20806445 -0.14726096 -0.100391604 0.13743131 -0.047521234 -0.23494615 -0.004550008
-0.10158038 -0.18552986 -0.19873628 -0.21379258 0.0056218687 0.16939747 0.08959208 -0.21813168
0.21446985 0.060564157 -0.22202212 0.09472249 0.1501906 -0.20847513 -0.013177571 -0.017829627
0.062473875 -0.021604594 -0.0117406 -0.050764136 0.06904397 0.039053515 -0.04270615 -0.0651278
0.0055204486 -0.012595141 0.0121497065 0.019030675 -5.971941e-05 0.0029925492 0.003984048 -0.009045808
-0.005749199 0.008025901 0.1119622 0.032934707 -0.19565357 0.056078173 -0.041820377 0.0053184717
-0.13948533 0.08998479 -0.13993974 -0.25851864 -0.063326076 -0.06872451 -0.033535805 0.001604781
-0.06226626 0.21067607 0.17548198 0.19996576 -0.079496965 -0.04387607 -0.016751565 0.18686219
0.12930335 0.008180947 0.06018314 -0.053039487 0.0928458 0.1842844 0.18970434 0.10935726
-0.0031015922 0.048479408 0.03614882 -0.22384956 -0.24760175 0.0058602095 -0.12994114 -0.14078751
0.043275636 -0.07217564 0.16367495 -0.21574622 0.026330423 0.068043426 0.15210024 -0.23725256
0.13244948 0.022560133 -0.23152469 -0.16262147 -0.0047545373 0.21267307 0.11590532 0.12830463
0.020661917 0.13797568 -0.06734475 -0.13398361 -0.009414603 0.07895155 -0.025160618 0.054086942
0.19096142 0.10039964 -0.1096087 0.21518373 0.18391824 -0.16460818 0.15281516 -0.063435204
-0.07003245 0.09358079 -0.03070782 -0.049845845 0.21587102 0.11017757 0.23258752 -0.084759794
0.28523642 0.027855935 0.20839046 0.13028012 0.033042476 0.23714644 -0.14448641 0.23158512
-0.1564775 0.26779833 0.053239018 0.24549021 -0.16592391 -0.16647615 -0.13448036 -0.0075026588
-0.1865307 -0.030659173 0.089415334 -0.10422688 -0.009174699 -0.06308157 -0.044969082 -0.046875007
-0.091865554 -0.030666526 0.08605591 -0.056244954 -0.05770914 0.011873972 0.009793078 0.08433335
0.15944114 0.10351769 -0.06341374 -0.0990079 -0.018118579 -0.2363446 -0.024429016 -0.09134021
-0.28499344 0.05355087 -0.25756556 -0.09830787 -0.106097564 -0.2552723 -0.058843058 0.10057373
00000000: f423 9abd f184 70bd c823 66be 6ff4 2cbd
00000010: 2312 cb3d 5f33 07be 0e7c b43c 5ba3 d2bc
00000020: dc33 40be f6bd ffbd 1494 913d 2461 0abe
00000030: 6c77 d8bd abd0 d83d febf 7f3d f1d8 af3d
00000040: 2cd2 8cbd 366c 1abc 1686 f93c 8caa d6bd
00000050: edfa 5ebd 1e8c ba3c 4da6 5abd 4d4b b53d
00000060: 0e3f 11bc b2c2 db3a 8a73 63bd 27be adbd
00000070: ce74 79bc 4e03 c03c ad34 343d 2d06 e83d
00000080: fede 163c 89ab 80be 31c1 8bbd 9c7f 88be
00000090: 3dd4 373e a2a6 5ebe 102e 713c d0fd 203e
000000a0: 23db 9b3e 2342 043e 284a 613d 0a91 47bd
000000b0: 059f 8d3e 89ed a83d 9591 8f3e 41d2 d93d
000000c0: 037b f4bd 603d 1e3e 3edc acbd 88f9 1bbe
000000d0: 2a04 f83d d7bd 6bbd 74b7 283e 02b8 123e
000000e0: b9c5 213e 227b 673d f0cc 46bc fc44 623d
000000f0: a814 f73d 3a9e 81be 6a3e 683b fb0e 03bd
00000100: b5ff a0bd e713 0cbe a253 92be beb7 6abd
00000110: 10f2 69be b3ee d33c d77a 03be 9a4f 163d
00000120: bbe4 2a3e 0e76 7bbd da46 23be 207b a6bc
00000130: f85c 063e 3583 9bbd 5bfe 213c a0ce 1abd
00000140: 25e6 043e 082e a0bc 4a81 f4bc ffc8 aa3d
00000150: 871c 4abd 9e93 0ebd 6704 703c 2daa babd
00000160: 52e3 613d d90e 55be 94cb 16be 1d9a cdbd
00000170: cbba 0c3e a0a5 42bd b995 70be 3c18 95bb
00000180: 6009 d0bd 8afb 3dbe 8681 4bbe 71ec 5abe
00000190: a737 b83b 8876 2d3e 0d7c b73d e95d 5fbe
000001a0: fc9d 5b3e 1f12 783d c459 63be ddfd c13d
000001b0: 91cb 193e 817a 55be bde6 57bc 700f 92bc
000001c0: 9be4 7f3d 1efc b0bc a55b 40bc 0eee 4fbd
000001d0: ed66 8d3d 94f6 1f3d a5ec 2ebd b961 85bd
000001e0: e1e4 b43b da5b 4ebc 900f 473c 38e6 9b3c
000001f0: 3a7b 7ab8 a51e 443b 9e8c 823b de34 14bc
00000200: c763 bcbb 127f 033c 704c e53d 8be6 063d
00000210: 6959 48be 3ab2 653d d84b 2bbd 9346 ae3b
00000220: 3ed5 0ebe f249 b83d 5d4c 0fbe 8e5c 84be
00000230: 1ab1 81bd 70bf 8cbd d75c 09bd 8457 d23a
00000240: e80a 7fbd 78bb 573e 8cb1 333e d3c3 4c3e
00000250: 4ecf a2bd 65b7 33bd 943a 89bc cd58 3f3e
00000260: 1968 043e 6109 063c 9982 763d ef3f 59bd
00000270: f025 be3d 0db5 3c3e db41 423e b3f6 df3d
00000280: 1544 4bbb 5892 463d c910 143d d238 65be
00000290: 508b 7dbe 0007 c03b 4a0f 05be 9a2a 10be
000002a0: cb41 313d d2d0 93bd 689a 273e 94ec 5cbe
000002b0: e6b2 d73c 5a5a 8b3d 2ac0 1b3e 56f2 72be
000002c0: d6a0 073e 07d0 b83c cf14 6dbe 3e86 26be
000002d0: f3cb 9bbb f8c6 593e c55f ed3d 4a62 033e
000002e0: 2e43 a93c 7f49 0d3e 0bec 89bd 0033 09be
000002f0: b53f 1abc 5ab1 a13d a41d cebc 458a 5d3d
00000300: 648b 433e 549e cd3d 877a e0bd 2059 5c3e
00000310: 1055 3c3e 0c8f 28be 947b 1c3e 51ea 81bd
00000320: 2c6d 8fbd 49a7 bf3d f78e fbbc 282b 4cbd
00000330: 4b0d 5d3e c7a4 e13d 6c2b 6e3e 8b96 adbd
00000340: 820a 923e 2132 e43c 4f64 553e 2768 053e
00000350: 8c57 073d 84d6 723e 3ff4 13be a624 6d3e
00000360: a33b 20be dd1c 893e 2811 5a3d c961 7b3e
00000370: f5e7 29be b978 2abe 38b5 09be ddd8 f5bb
00000380: e701 3fbe f228 fbbc 631f b73d e774 d5bd
00000390: 7a51 16bc e930 81bd 8031 38bd 0200 40bd
000003a0: 0224 bcbd 5e38 fbbc 153e b03d 1c61 66bd
000003b0: 6b60 6cbd 0c8b 423c 2573 203c f7b6 ac3d
000003c0: 8a44 233e 1501 d43d 10df 81bd a7c4 cabd
000003d0: 6a6d 94bc 5204 72be 5c1f c8bc 9310 bbbd
000003e0: a9ea 91be 2858 5b3d a2df 83be a355 c9bd
000003f0: ae49 d9bd 0db3 82be 6b05 71bd 9af9 cd3d

fc1.bias f4 [64]
0.14365524 -0.006754138 -0.20427781 0.3113045 -0.30359626 -0.36634237 0.28176185 0.2993087
-0.2469676 0.21306102 -0.27346098 0.20995043 -0.0038496547 0.31706733 -0.1990721 -0.23050135
0.21556255 0.115566656 -0.3031088 -0.07701973 -0.2538753 -0.2406436 0.11308759 0.19004081
0.15032132 0.35282487 0.17336555 0.17308514 0.24460907 0.03955302 0.12762627 0.25314793
-0.041252233 0.018077109 0.27034852 -0.17756662 0.32318774 0.236829 -0.114513956 0.25778526
0.086090215 -0.12634008 -0.33665845 0.15705681 -0.19938372 -0.2837149 0.027888611 0.008911331
-0.29203948 -0.08145992 0.33472228 -0.14825746 0.20091636 0.22767986 -0.17726454 0.33899242
-0.14075646 0.17149097 0.17634468 -0.21005777 0.2617755 0.21548295 -0.23574094 -0.011215354
00000000: 5c1a 133e d151 ddbb 342e 51be 4e63 9f3e
00000010: f870 9bbe 3a91 bbbe 1743 903e fd3e 993e
00000020: 13e5 7cbe ab2c 5a3e 1403 8cbe 3ffd 563e
00000030: 7d4a 7cbb a656 a23e 8ed9 4bbe 8c08 6cbe
00000040: 6ebc 5c3e 36ae ec3d 1431 9bbe 85bc 9dbd
00000050: f1fb 81be 476b 76be 779a e73d 0f9a 423e
00000060: d5ed 193e 76a5 b43e bd86 313e 3b3d 313e
00000070: cd7a 7a3e 5902 223d 76b0 023e 9b9c 813e
00000080: 1af8 28bd 7216 943c 1f6b 8a3e 06d4 35be
00000090: dd78 a53e 4d83 723e 4b86 eabd 6efc 833e
000000a0: 1150 b03d 4b5f 01be 7f5e acbe 80d3 203e
000000b0: 3f2b 4cbe 1443 91be a876 e43c d500 123c
000000c0: 3386 95be 75d4 a6bd b860 ab3e ced0 17be
000000d0: 05bd 4d3e e924 693e d684 35be 6a90 ad3e
000000e0: 7622 10be 549b 2f3e b393 343e 6219 57be
000000f0: 7007 863e 90a7 5c3e 1366 71be 9bc0 37bc

fc2.weight f4 [1, 64]
-0.10978454 0.009996204 0.08517786 -0.13485987 0.16112821 0.071859986 -0.15668403 -0.14367369
0.10743424 -0.14101045 0.13815211 -0.045073453 0.0020524184 -0.14967793 0.12862752 0.0560036
-0.08999267 -0.11754234 0.11195913 0.08317388 0.08085329 0.21285905 -0.048722584 -0.03789332
-0.12141687 -0.08833951 -0.04401068 -0.05531261 -0.17209615 -0.019428547 -0.108487375 -0.111755356
0.03489436 -0.014391046 -0.14212766 0.13446389 -0.09806912 -0.062169936 0.031492762 -0.16976424
-0.0697541 0.13578667 0.1089065 -0.09458762 0.11649818 0.105117455 -0.025491081 -0.0017612493
0.13783577 0.09589507 -0.08801122 0.10494423 -0.12351171 -0.110293075 0.11835915 -0.11934438
0.06492163 -0.14470838 -0.13680203 0.07037841 -0.10773606 -0.12805414 0.11448895 0.0009979032
00000000: b8d6 e0bd 1ec7 233c bb71 ae3d b518 0abe
00000010: cbfe 243e 542b 933d c771 20be 321f 13be
00000020: 7c06 dc3d 0b65 10be bf77 0d3e f19e 38bd
00000030: de81 063b 2c45 19be efb6 033e 0864 653d
00000040: 144e b8bd 0aba f0bd d44a e53d 1157 aa3d
00000050: 6996 a53d b9f7 593e 5591 47bd 0736 1bbd
00000060: 68a9 f8bd 58eb b4bd 8b44 34bd 7a8f 62bd
00000070: f939 30be 9e28 9fbc a12e debd fedf e4bd
00000080: 63ed 0e3d 6cc8 6bbc ea89 11be e7b0 093e
00000090: 76d8 c8bd e7a5 7ebd 8efe 003d add6 2dbe
000000a0: 3ddb 8ebd a90b 0b3e 5f0a df3d 27b7 c1bd
000000b0: 9996 ee3d d247 d73d acd2 d0bc b8d9 e6ba
000000c0: d224 0d3e a264 c43d 3a3f b4bd 00ed d63d
000000d0: b5f3 fcbd 56e1 e1bd 4866 f23d d46a f4bd
000000e0: a2f5 843d 6f2e 14be d515 0cbe 8e22 903d
000000f0: b9a4 dcbd a020 03be 2f79 ea3d 13cc 823a
