checkpoints/all_NontransformerModel_BCE_100epochs_종가_거래대금_거래량볼밴_주가볼밴_이등분선_checkpoint.pth (torch, 276353 bytes, 70 tensors)

enc_embedding.value_embedding.tokenConv.weight f4 [4, 13, 3]
0	0xbd0b2c26	-0.03397765
1	0xbdd94111	-0.106081136
2	0x3bf6397d	0.0075141774
3	0x3d05536c	0.03255026
4	0xbd005d5c	-0.031339034
5	0x3d5b809b	0.053589445
6	0xbe4996df	-0.19686459
7	0xbcb4ca7b	-0.022069206
8	0x3e9c1929	0.30487946
9	0xbdd0eb26	-0.10201101
10	0xbee9e667	-0.45683596
11	0xbe98c906	-0.2984087
12	0xbdec714a	-0.11545046
13	0x3e4faddb	0.20281164
14	0xbe4dc9b4	-0.20096475
15	0xbe801509	-0.2501605
16	0x3d4c88ed	0.04993527
17	0x3e1e5837	0.15463339
18	0x3e456967	0.19278489
19	0xbe10b56c	-0.14131707
20	0x3da8d207	0.082431845
21	0xbca939ed	-0.020657504
22	0xbe8dd6ed	-0.27703038
23	0xbe1fee35	-0.15618213
24	0x3d708d58	0.058728546
25	0xbece2338	-0.40261245
26	0x3d55a81b	0.05216227
27	0xbe90aad2	-0.28255326
28	0xbdb24402	-0.08704378
29	0x3e29c2a6	0.16578159
30	0x3aef3529	0.0018250096
31	0x3e3b8936	0.1831406
32	0x3eb5372a	0.3539365
33	0xbe46292d	-0.19351645
34	0xbd62fbda	-0.055415966
35	0xbddb2401	-0.107002266
36	0x3e1308dd	0.1435885
37	0x3cebf60a	0.028803844
38	0x3ebb54c8	0.3658812
39	0x3da1354b	0.07871493
40	0x3e7dfb35	0.24802859
41	0xbd149502	-0.036274917
42	0x3d3353ad	0.04378097
43	0x3dd13bde	0.10216497
44	0x39f026ac	0.0004580518
45	0x3e108d75	0.14116462
46	0xbf093c09	-0.5360723
47	0x3e863d58	0.26218677
48	0x3d9e16db	0.07719203
49	0x3dff2b01	0.12459374
50	0xbd202061	-0.03909338
51	0x3e0df01b	0.13861124
52	0xbd80194e	-0.062548265
53	0x3d6937c5	0.05693795
54	0x3db2c761	0.08729435
55	0x3e88db07	0.26729605
56	0x3da1df27	0.07903891
57	0xbd34ca72	-0.04413838
58	0xbe812d98	-0.25230098
59	0x3eb97fb5	0.36230245
60	0xbe965e0b	-0.29368624
61	0x3e2aa787	0.16665469
62	0x3bdc909d	0.0067311064
63	0x3c97383e	0.018459436
64	0x3c9fce3b	0.019507518
65	0xbdf08895	-0.11744801
66	0xbd8c67a4	-0.068557054
67	0xbe5a078a	-0.21291938
68	0x3ed6e3dc	0.41970718
69	0xbe15f913	-0.14645796
70	0xbe6600b2	-0.22461203
71	0x3e873637	0.2640855
72	0xbc51d07b	-0.012806053
73	0x3eea2166	0.45728606
74	0xbecf7669	-0.40520027
75	0x3eb304b8	0.34964538
76	0xbd8ad4f2	-0.06778897
77	0xbd00a642	-0.031408556
78	0x3dfd1ef8	0.123594224
79	0x3e5efbf1	0.21775796
80	0xbd85cb02	-0.06532861
81	0xbdf49c57	-0.11943882
82	0xbdbce423	-0.09223201
83	0x3e9514b1	0.2911735
84	0xbd7bde74	-0.061491445
85	0xbec449d8	-0.38337588
86	0x3eb96aa4	0.36214173
87	0x3e80718e	0.25086635
88	0x3d70dcd9	0.058804367
89	0xbd6b3087	-0.057419326
90	0x3e20df18	0.15710104
91	0xbe5dd3d9	-0.21662845
92	0xbe65d173	-0.2244318
93	0x3e11b6a7	0.14229833
94	0xbe9abbc7	-0.30221388
95	0xbe3caeaf	-0.18426012
96	0xbe8808a6	-0.26569098
97	0x3e4aca11	0.19803645
98	0x3e3719f8	0.17881
99	0x3ec08a27	0.37605402
100	0x3b8c51b5	0.004282201
101	0xbd9fdadd	-0.07805417
102	0xbde901b1	-0.11377276
103	0x3bcf1449	0.006319557
104	0x3ca4bff7	0.020111067
105	0x3e1d7653	0.15377168
106	0x3dbcf0fa	0.0922565
107	0x3e25c5e0	0.16188765
108	0x3bd5f836	0.006529833
109	0x3b3c7c20	0.0028760508
110	0xbeb36fe3	-0.350463
111	0x3e4ccde0	0.2000041
112	0xbef94bdb	-0.48690686
113	0xbe488034	-0.19580156
114	0xbdce00f3	-0.10058775
115	0x3f06968f	0.52573484
116	0xbe1c0cce	-0.1523926
117	0xbe10de9f	-0.14147423
118	0xbe7895ec	-0.2427594
119	0xbe6fbf81	-0.23412897
120	0xbe63b50b	-0.22237031
121	0xbecfc5c7	-0.4058058
122	0xbde25e73	-0.11053171
123	0x3e6a8068	0.22900546
124	0xbd053930	-0.03252524
125	0x3e91cca4	0.2847644
126	0x3e1fe98b	0.15616433
127	0xbeb21781	-0.34783557
128	0x3d2b7171	0.041856233
129	0x3dbd7686	0.09251122
130	0xbe6e96bb	-0.23299687
131	0x3e2015a6	0.15633258
132	0x3de3eeaa	0.11129506
133	0xba774f09	-0.00094340794
134	0x3ea3fa6d	0.32026997
135	0x3d85d9cd	0.06535683
136	0x3a9816d5	0.0011603484
137	0xbeadb4b1	-0.3392692
138	0x3d999810	0.07499707
139	0xbe97d7d1	-0.29656842
140	0x3e397445	0.1811076
141	0x3deffe0d	0.11718378
142	0xbecfd9c3	-0.40595827
143	0xbe9c66cf	-0.30547187
144	0x3d84ad89	0.06478412
145	0xbdb1d363	-0.08682897
146	0xbe4f6f0a	-0.20257202
147	0xbe6397d8	-0.22225893
148	0x3de1c464	0.11023787
149	0xbed4a63d	-0.4153308
150	0x3e4278f8	0.18991458
151	0x3d98e9b1	0.07466448
152	0xbe0d1d73	-0.13780765
153	0xbcba8e0e	-0.022772815
154	0xbd12f334	-0.035876468
155	0x3df4d051	0.11953796

enc_embedding.position_embedding.pe f4 [1, 5000, 4]
0	0x00000000	0.0
1	0x3f800000	1.0
2	0x00000000	0.0
3	0x3f800000	1.0
4	0x3f576aa4	0.84147096
5	0x3f0a5141	0.54030234
6	0x3c23d657	0.009999833
7	0x3f7ffcb9	0.99995
8	0x3f68c7b7	0.9092974
9	0xbed51133	-0.41614684
10	0x3ca3d43e	0.019998666
11	0x3f7ff2e5	0.9998
12	0x3e1081c3	0.14112
13	0xbf7d7026	-0.9899925
14	0x3cf5b91f	0.0299955
15	0x3f7fe283	0.99955004
16	0xbf41bdcf	-0.7568025
17	0xbf275530	-0.6536436
18	0x3d23cbdb	0.039989334
19	0x3f7fcb94	0.9992001
20	0xbf757c10	-0.9589243
21	0x3e913c2c	0.2836622
22	0x3d4cb6f4	0.049979165
23	0x3f7fae19	0.99875027
24	0xbe8f0f8c	-0.2794155
25	0x3f75cdb8	0.96017027
26	0x3d759cd1	0.059964005
27	0x3f7f8a12	0.99820054
28	0x3f283046	0.6569866
29	0x3f40ffbd	0.75390226
30	0x3d8f3e32	0.06994285
31	0x3f7f5f81	0.997551
32	0x3f7d4695	0.98935825
33	0xbe14fdf6	-0.14550003
34	0x3da3aa50	0.07991469
35	0x3f7f2e65	0.9968017
36	0x3ed30132	0.4121185
37	0xbf693fd5	-0.91113025
38	0x3db8123e	0.089878544
39	0x3f7ef6c2	0.9959527
40	0xbf0b44f8	-0.5440211
41	0xbf56cd64	-0.8390715
42	0x3dcc7576	0.099833414
43	0x3f7eb898	0.9950042
44	0xbf7fff5c	-0.9999902
45	0x3b910572	0.004425698
46	0x3de0d372	0.1097783
47	0x3f7e73e8	0.9939561
48	0xbf095cd8	-0.53657293
49	0x3f5806d0	0.84385395
50	0x3df52bac	0.119712204
51	0x3f7e28b5	0.99280864
52	0x3ed72022	0.42016703
53	0x3f684e6f	0.9074468
54	0x3e04bed0	0.12963414
55	0x3f7dd700	0.9915619
56	0x3f7d9872	0.9906074
57	0x3e0c04d7	0.13673721
58	0x3e0ee464	0.13954312
59	0x3f7d7ecc	0.990216
60	0x3f267944	0.65028787
61	0xbf427ae8	-0.7596879
62	0x3e19064f	0.14943813
63	0x3f7d201a	0.9887711
64	0xbe936810	-0.2879033
65	0xbf75292c	-0.9576595
66	0x3e232450	0.15931821
67	0x3f7cbaed	0.98722726
68	0xbf761e25	-0.96139747
69	0xbe8ce236	-0.27516335
70	0x3e2d3e23	0.16918235
71	0x3f7c4f49	0.9855848
72	0xbf4040b3	-0.75098723
73	0x3f290a84	0.6603167
74	0x3e375387	0.17902957
75	0x3f7bdd2e	0.9838437
76	0x3e197969	0.1498772
77	0x3f7d1bbf	0.9887046
78	0x3e41643a	0.1888589
79	0x3f7b64a1	0.9820042
80	0x3f69b6c8	0.9129453
81	0x3ed0f022	0.40808207
82	0x3e4b6ff8	0.19866931
83	0x3f7ae5a5	0.9800666
84	0x3f562f10	0.8366556
85	0xbf0c37fc	-0.54772925
86	0x3e557683	0.2084599
87	0x3f7a603c	0.9780309
88	0xbc110515	-0.008851309
89	0xbf7ffd6f	-0.99996084
90	0x3e5f7796	0.21822962
91	0x3f79d46a	0.97589743
92	0xbf58a1e6	-0.8462204
93	0xbf0867bf	-0.53283304
94	0x3e6972f0	0.22797751
95	0x3f794234	0.9736664
96	0xbf67d3fc	-0.9055784
97	0x3ed92dfe	0.42417902
98	0x3e736851	0.23770262
99	0x3f78a99b	0.971338
100	0xbe078738	-0.13235176
101	0x3f7dbf78	0.99120283
102	0x3e7d5777	0.24740396
103	0x3f780aa5	0.9689124
104	0x3f433708	0.76255846
105	0x3f259c81	0.6469193
106	0x3e83a010	0.25708055
107	0x3f776556	0.96639
108	0x3f74d50e	0.95637596
109	0xbe959338	-0.29213881
110	0x3e889105	0.2667314
111	0x3f76b9b1	0.9637709
112	0x3e8ab42a	0.2709058
113	0xbf766d57	-0.9626059
114	0x3e8d7e7d	0.27635565
115	0x3f7607bb	0.96105546
116	0xbf29e3e9	-0.6636339
117	0xbf3f80b3	-0.74805754
118	0x3e926854	0.2859522
119	0x3f754f79	0.9582439
120	0xbf7cefa4	-0.9880316
121	0x3e1df418	0.15425146
122	0x3e974e6c	0.2955202
123	0x3f7490ef	0.9553365
124	0xbecede06	-0.40403765
125	0x3f6a2c8e	0.91474235
126	0x3e9c30a5	0.30505863
127	0x3f73cc22	0.95233357
128	0x3f0d2a4d	0.5514267
129	0x3f558fa9	0.83422333
130	0x3ea10ede	0.31456655
131	0x3f730118	0.94923544
132	0x3f7ffa39	0.99991184
133	0xbc5986b7	-0.013276747
134	0x3ea5e8f7	0.324043
135	0x3f722fd5	0.94604236
136	0x3f0771f7	0.5290827
137	0xbf593be7	-0.8485703
138	0x3eaabed2	0.3334871
139	0x3f71585f	0.9427547
140	0xbedb3ac2	-0.42818266
141	0xbf67585f	-0.9036922
142	0x3eaf904d	0.3428978
143	0x3f707abb	0.9393727
144	0xbf7de538	-0.99177885
145	0xbe0308ea	-0.12796369
146	0x3eb45d49	0.3522742
147	0x3f6f96ef	0.9358968
148	0xbf24beea	-0.6435381
149	0x3f43f22d	0.76541406
150	0x3eb925a9	0.36161545
151	0x3f6ead01	0.93232733
152	0x3e97bd9f	0.29636857
153	0x3f747fb5	0.95507365
154	0x3ebde94a	0.37092048
155	0x3f6dbcf7	0.9286646
156	0x3f76bb4b	0.96379536
157	0x3e88856c	0.26664293
158	0x3ec2a80e	0.3801884
159	0x3f6cc6d7	0.92490906
160	0x3f3ebfbc	0.74511313
161	0xbf2abc74	-0.66693807
162	0x3ec761d7	0.38941833
163	0x3f6bcaa7	0.921061
164	0xbe226dfb	-0.15862267
165	0xbf7cc244	-0.98733926
166	0x3ecc1686	0.39860934
167	0x3f6ac86e	0.9171208
168	0xbf6aa128	-0.91652155
169	0xbecccae0	-0.3999853
170	0x3ed0c5fa	0.40776044
171	0x3f69c032	0.9130889
172	0xbf54ef30	-0.8317747
173	0x3f0e1be8	0.5551133
174	0x3ed57016	0.41687077
175	0x3f68b1fb	0.90896577
176	0x3c9103a1	0.017701926
177	0x3f7ff5bb	0.9998433
178	0x3eda14bd	0.42593947
179	0x3f679dce	0.90475166
180	0x3f59d4d0	0.8509035
181	0x3f067b81	0.525322
182	0x3edeb3cd	0.43496552
183	0x3f6683b4	0.90044713
184	0x3f66db9a	0.90178835
185	0xbedd466e	-0.43217796
186	0x3ee34d2a	0.4439481
187	0x3f6563b2	0.8960525
188	0x3dfd13e8	0.123573124
189	0xbf7e09b2	-0.99233544
190	0x3ee7e0b6	0.45288628
191	0x3f643dd2	0.8915683
192	0xbf44ac56	-0.76825464
193	0xbf23e080	-0.64014435
194	0x3eec6e52	0.46177918
195	0x3f631219	0.8869949
196	0xbf742922	-0.95375264
197	0x3e99e744	0.30059254
198	0x3ef0f5e0	0.47062588
199	0x3f61e091	0.88233286
200	0xbe8655ff	-0.26237485
201	0x3f770804	0.96496606
202	0x3ef57744	0.47942555
203	0x3f60a940	0.87758255
204	0x3f2b9424	0.6702292
205	0x3f3dfdd1	0.7421542
206	0x3ef9f25e	0.48817724
207	0x3f5f6c2f	0.8727445
208	0x3f7c93a0	0.9866276
209	0xbe26e70e	-0.16299078
210	0x3efe6712	0.4968801
211	0x3f5e2966	0.8678192
212	0x3ecab6b4	0.39592516
213	0xbf6b1495	-0.9182828
214	0x3f016aa2	0.50553334
215	0x3f5ce0ed	0.8628071
216	0xbf0f0ccd	-0.5587891
217	0xbf544da6	-0.8293098
218	0x3f039e6a	0.51413596
219	0x3f5b92cc	0.8577087
220	0xbf7feff4	-0.99975514
221	0x3cb5432c	0.022126757
222	0x3f05ced5	0.52268726
223	0x3f5a3f0c	0.8525245
224	0xbf05845e	-0.521551
225	0x3f5a6ca2	0.8532201
226	0x3f07fbd2	0.5311862
227	0x3f58e5b6	0.8472551
228	0x3edf50fd	0.43616477
229	0x3f665dac	0.8998668
230	0x3f0a2553	0.539632
231	0x3f5786d3	0.841901
232	0x3f7e2ce7	0.99287266
233	0x3df414b7	0.119180135
234	0x3f0c4b4c	0.54802394
235	0x3f56226b	0.8364627
236	0x3f230143	0.636738
237	0xbf456583	-0.7710802
238	0x3f0e6dad	0.556361
239	0x3f54b887	0.83094066
240	0xbe9c1023	-0.3048106
241	0xbf73d156	-0.95241296
242	0x3f108c68	0.5646424
243	0x3f534932	0.8253356
244	0xbf77537f	-0.9661178
245	0xbe8425e6	-0.25810164
246	0x3f12a771	0.57286745
247	0x3f51d474	0.819648
248	0xbf3d3af2	-0.7391807
249	0x3f2c6af7	0.67350715
250	0x3f14beb8	0.58103514
251	0x3f505a57	0.8138785
252	0x3e2b5f4b	0.1673557
253	0x3f7c63b8	0.9858966
254	0x3f16d231	0.58914477
255	0x3f4edae4	0.8080275

enc_embedding.temporal_embedding.minute_embed.emb.weight f4 [4, 4]
0	0x00000000	0.0
1	0x3f800000	1.0
2	0x00000000	0.0
3	0x3f800000	1.0
4	0x3f576aa4	0.84147096
5	0x3f0a5141	0.54030234
6	0x3c23d657	0.009999833
7	0x3f7ffcb9	0.99995
8	0x3f68c7b7	0.9092974
9	0xbed51133	-0.41614684
10	0x3ca3d43e	0.019998666
11	0x3f7ff2e5	0.9998
12	0x3e1081c3	0.14112
13	0xbf7d7026	-0.9899925
14	0x3cf5b91f	0.0299955
15	0x3f7fe283	0.99955004

enc_embedding.temporal_embedding.hour_embed.emb.weight f4 [24, 4]
0	0x00000000	0.0
1	0x3f800000	1.0
2	0x00000000	0.0
3	0x3f800000	1.0
4	0x3f576aa4	0.84147096
5	0x3f0a5141	0.54030234
6	0x3c23d657	0.009999833
7	0x3f7ffcb9	0.99995
8	0x3f68c7b7	0.9092974
9	0xbed51133	-0.41614684
10	0x3ca3d43e	0.019998666
11	0x3f7ff2e5	0.9998
12	0x3e1081c3	0.14112
13	0xbf7d7026	-0.9899925
14	0x3cf5b91f	0.0299955
15	0x3f7fe283	0.99955004
16	0xbf41bdcf	-0.7568025
17	0xbf275530	-0.6536436
18	0x3d23cbdb	0.039989334
19	0x3f7fcb94	0.9992001
20	0xbf757c10	-0.9589243
21	0x3e913c2c	0.2836622
22	0x3d4cb6f4	0.049979165
23	0x3f7fae19	0.99875027
24	0xbe8f0f8c	-0.2794155
25	0x3f75cdb8	0.96017027
26	0x3d759cd1	0.059964005
27	0x3f7f8a12	0.99820054
28	0x3f283046	0.6569866
29	0x3f40ffbd	0.75390226
30	0x3d8f3e32	0.06994285
31	0x3f7f5f81	0.997551
32	0x3f7d4695	0.98935825
33	0xbe14fdf6	-0.14550003
34	0x3da3aa50	0.07991469
35	0x3f7f2e65	0.9968017
36	0x3ed30132	0.4121185
37	0xbf693fd5	-0.91113025
38	0x3db8123e	0.089878544
39	0x3f7ef6c2	0.9959527
40	0xbf0b44f8	-0.5440211
41	0xbf56cd64	-0.8390715
42	0x3dcc7576	0.099833414
43	0x3f7eb898	0.9950042
44	0xbf7fff5c	-0.9999902
45	0x3b910572	0.004425698
46	0x3de0d372	0.1097783
47	0x3f7e73e8	0.9939561
48	0xbf095cd8	-0.53657293
49	0x3f5806d0	0.84385395
50	0x3df52bac	0.119712204
51	0x3f7e28b5	0.99280864
52	0x3ed72022	0.42016703
53	0x3f684e6f	0.9074468
54	0x3e04bed0	0.12963414
55	0x3f7dd700	0.9915619
56	0x3f7d9872	0.9906074
57	0x3e0c04d7	0.13673721
58	0x3e0ee464	0.13954312
59	0x3f7d7ecc	0.990216
60	0x3f267944	0.65028787
61	0xbf427ae8	-0.7596879
62	0x3e19064f	0.14943813
63	0x3f7d201a	0.9887711
64	0xbe936810	-0.2879033
65	0xbf75292c	-0.9576595
66	0x3e232450	0.15931821
67	0x3f7cbaed	0.98722726
68	0xbf761e25	-0.96139747
69	0xbe8ce236	-0.27516335
70	0x3e2d3e23	0.16918235
71	0x3f7c4f49	0.9855848
72	0xbf4040b3	-0.75098723
73	0x3f290a84	0.6603167
74	0x3e375387	0.17902957
75	0x3f7bdd2e	0.9838437
76	0x3e197969	0.1498772
77	0x3f7d1bbf	0.9887046
78	0x3e41643a	0.1888589
79	0x3f7b64a1	0.9820042
80	0x3f69b6c8	0.9129453
81	0x3ed0f022	0.40808207
82	0x3e4b6ff8	0.19866931
83	0x3f7ae5a5	0.9800666
84	0x3f562f10	0.8366556
85	0xbf0c37fc	-0.54772925
86	0x3e557683	0.2084599
87	0x3f7a603c	0.9780309
88	0xbc110515	-0.008851309
89	0xbf7ffd6f	-0.99996084
90	0x3e5f7796	0.21822962
91	0x3f79d46a	0.97589743
92	0xbf58a1e6	-0.8462204
93	0xbf0867bf	-0.53283304
94	0x3e6972f0	0.22797751
95	0x3f794234	0.9736664

enc_embedding.temporal_embedding.weekday_embed.emb.weight f4 [7, 4]
0	0x00000000	0.0
1	0x3f800000	1.0
2	0x00000000	0.0
3	0x3f800000	1.0
4	0x3f576aa4	0.84147096
5	0x3f0a5141	0.54030234
6	0x3c23d657	0.009999833
7	0x3f7ffcb9	0.99995
8	0x3f68c7b7	0.9092974
9	0xbed51133	-0.41614684
10	0x3ca3d43e	0.019998666
11	0x3f7ff2e5	0.9998
12	0x3e1081c3	0.14112
13	0xbf7d7026	-0.9899925
14	0x3cf5b91f	0.0299955
15	0x3f7fe283	0.99955004
16	0xbf41bdcf	-0.7568025
17	0xbf275530	-0.6536436
18	0x3d23cbdb	0.039989334
19	0x3f7fcb94	0.9992001
20	0xbf757c10	-0.9589243
21	0x3e913c2c	0.2836622
22	0x3d4cb6f4	0.049979165
23	0x3f7fae19	0.99875027
24	0xbe8f0f8c	-0.2794155
25	0x3f75cdb8	0.96017027
26	0x3d759cd1	0.059964005
27	0x3f7f8a12	0.99820054

enc_embedding.temporal_embedding.day_embed.emb.weight f4 [32, 4]
0	0x00000000	0.0
1	0x3f800000	1.0
2	0x00000000	0.0
3	0x3f800000	1.0
4	0x3f576aa4	0.84147096
5	0x3f0a5141	0.54030234
6	0x3c23d657	0.009999833
7	0x3f7ffcb9	0.99995
8	0x3f68c7b7	0.9092974
9	0xbed51133	-0.41614684
10	0x3ca3d43e	0.019998666
11	0x3f7ff2e5	0.9998
12	0x3e1081c3	0.14112
13	0xbf7d7026	-0.9899925
14	0x3cf5b91f	0.0299955
15	0x3f7fe283	0.99955004
16	0xbf41bdcf	-0.7568025
17	0xbf275530	-0.6536436
18	0x3d23cbdb	0.039989334
19	0x3f7fcb94	0.9992001
20	0xbf757c10	-0.9589243
21	0x3e913c2c	0.2836622
22	0x3d4cb6f4	0.049979165
23	0x3f7fae19	0.99875027
24	0xbe8f0f8c	-0.2794155
25	0x3f75cdb8	0.96017027
26	0x3d759cd1	0.059964005
27	0x3f7f8a12	0.99820054
28	0x3f283046	0.6569866
29	0x3f40ffbd	0.75390226
30	0x3d8f3e32	0.06994285
31	0x3f7f5f81	0.997551
32	0x3f7d4695	0.98935825
33	0xbe14fdf6	-0.14550003
34	0x3da3aa50	0.07991469
35	0x3f7f2e65	0.9968017
36	0x3ed30132	0.4121185
37	0xbf693fd5	-0.91113025
38	0x3db8123e	0.089878544
39	0x3f7ef6c2	0.9959527
40	0xbf0b44f8	-0.5440211
41	0xbf56cd64	-0.8390715
42	0x3dcc7576	0.099833414
43	0x3f7eb898	0.9950042
44	0xbf7fff5c	-0.9999902
45	0x3b910572	0.004425698
46	0x3de0d372	0.1097783
47	0x3f7e73e8	0.9939561
48	0xbf095cd8	-0.53657293
49	0x3f5806d0	0.84385395
50	0x3df52bac	0.119712204
51	0x3f7e28b5	0.99280864
52	0x3ed72022	0.42016703
53	0x3f684e6f	0.9074468
54	0x3e04bed0	0.12963414
55	0x3f7dd700	0.9915619
56	0x3f7d9872	0.9906074
57	0x3e0c04d7	0.13673721
58	0x3e0ee464	0.13954312
59	0x3f7d7ecc	0.990216
60	0x3f267944	0.65028787
61	0xbf427ae8	-0.7596879
62	0x3e19064f	0.14943813
63	0x3f7d201a	0.9887711
64	0xbe936810	-0.2879033
65	0xbf75292c	-0.9576595
66	0x3e232450	0.15931821
67	0x3f7cbaed	0.98722726
68	0xbf761e25	-0.96139747
69	0xbe8ce236	-0.27516335
70	0x3e2d3e23	0.16918235
71	0x3f7c4f49	0.9855848
72	0xbf4040b3	-0.75098723
73	0x3f290a84	0.6603167
74	0x3e375387	0.17902957
75	0x3f7bdd2e	0.9838437
76	0x3e197969	0.1498772
77	0x3f7d1bbf	0.9887046
78	0x3e41643a	0.1888589
79	0x3f7b64a1	0.9820042
80	0x3f69b6c8	0.9129453
81	0x3ed0f022	0.40808207
82	0x3e4b6ff8	0.19866931
83	0x3f7ae5a5	0.9800666
84	0x3f562f10	0.8366556
85	0xbf0c37fc	-0.54772925
86	0x3e557683	0.2084599
87	0x3f7a603c	0.9780309
88	0xbc110515	-0.008851309
89	0xbf7ffd6f	-0.99996084
90	0x3e5f7796	0.21822962
91	0x3f79d46a	0.97589743
92	0xbf58a1e6	-0.8462204
93	0xbf0867bf	-0.53283304
94	0x3e6972f0	0.22797751
95	0x3f794234	0.9736664
96	0xbf67d3fc	-0.9055784
97	0x3ed92dfe	0.42417902
98	0x3e736851	0.23770262
99	0x3f78a99b	0.971338
100	0xbe078738	-0.13235176
101	0x3f7dbf78	0.99120283
102	0x3e7d5777	0.24740396
103	0x3f780aa5	0.9689124
104	0x3f433708	0.76255846
105	0x3f259c81	0.6469193
106	0x3e83a010	0.25708055
107	0x3f776556	0.96639
108	0x3f74d50e	0.95637596
109	0xbe959338	-0.29213881
110	0x3e889105	0.2667314
111	0x3f76b9b1	0.9637709
112	0x3e8ab42a	0.2709058
113	0xbf766d57	-0.9626059
114	0x3e8d7e7d	0.27635565
115	0x3f7607bb	0.96105546
116	0xbf29e3e9	-0.6636339
117	0xbf3f80b3	-0.74805754
118	0x3e926854	0.2859522
119	0x3f754f79	0.9582439
120	0xbf7cefa4	-0.9880316
121	0x3e1df418	0.15425146
122	0x3e974e6c	0.2955202
123	0x3f7490ef	0.9553365
124	0xbecede06	-0.40403765
125	0x3f6a2c8e	0.91474235
126	0x3e9c30a5	0.30505863
127	0x3f73cc22	0.95233357

enc_embedding.temporal_embedding.month_embed.emb.weight f4 [13, 4]
0	0x00000000	0.0
1	0x3f800000	1.0
2	0x00000000	0.0
3	0x3f800000	1.0
4	0x3f576aa4	0.84147096
5	0x3f0a5141	0.54030234
6	0x3c23d657	0.009999833
7	0x3f7ffcb9	0.99995
8	0x3f68c7b7	0.9092974
9	0xbed51133	-0.41614684
10	0x3ca3d43e	0.019998666
11	0x3f7ff2e5	0.9998
12	0x3e1081c3	0.14112
13	0xbf7d7026	-0.9899925
14	0x3cf5b91f	0.0299955
15	0x3f7fe283	0.99955004
16	0xbf41bdcf	-0.7568025
17	0xbf275530	-0.6536436
18	0x3d23cbdb	0.039989334
19	0x3f7fcb94	0.9992001
20	0xbf757c10	-0.9589243
21	0x3e913c2c	0.2836622
22	0x3d4cb6f4	0.049979165
23	0x3f7fae19	0.99875027
24	0xbe8f0f8c	-0.2794155
25	0x3f75cdb8	0.96017027
26	0x3d759cd1	0.059964005
27	0x3f7f8a12	0.99820054
28	0x3f283046	0.6569866
29	0x3f40ffbd	0.75390226
30	0x3d8f3e32	0.06994285
31	0x3f7f5f81	0.997551
32	0x3f7d4695	0.98935825
33	0xbe14fdf6	-0.14550003
34	0x3da3aa50	0.07991469
35	0x3f7f2e65	0.9968017
36	0x3ed30132	0.4121185
37	0xbf693fd5	-0.91113025
38	0x3db8123e	0.089878544
39	0x3f7ef6c2	0.9959527
40	0xbf0b44f8	-0.5440211
41	0xbf56cd64	-0.8390715
42	0x3dcc7576	0.099833414
43	0x3f7eb898	0.9950042
44	0xbf7fff5c	-0.9999902
45	0x3b910572	0.004425698
46	0x3de0d372	0.1097783
47	0x3f7e73e8	0.9939561
48	0xbf095cd8	-0.53657293
49	0x3f5806d0	0.84385395
50	0x3df52bac	0.119712204
51	0x3f7e28b5	0.99280864

encoder.attn_layers.0.attention.query_projection.weight f4 [4, 4]
0	0x3e400bd6	0.18754515
1	0x3e41031d	0.18848844
2	0xbd2081ad	-0.03918617
3	0x3e32a439	0.17445458
4	0xbcd7207c	-0.026260607
5	0x3d86a4b4	0.065743834
6	0xbd278c68	-0.040905386
7	0xbcd53868	-0.026027873
8	0xbd98cff3	-0.07461538
9	0xbdacf806	-0.08445744
10	0x3ca3c129	0.019989567
11	0xbc26e5d7	-0.010186634
12	0xbd551774	-0.05202432
13	0x3f26ae23	0.6510946
14	0x3e483b23	0.19553809
15	0x3a91ef17	0.0011133876

encoder.attn_layers.0.attention.query_projection.bias f4 [4]
0	0x3e9a6c8e	0.30160946
1	0x3c1603a0	0.009156138
2	0xbe062ff7	-0.13104235
3	0x3ea07d45	0.31345573

encoder.attn_layers.0.attention.key_projection.weight f4 [4, 4]
0	0x3e609259	0.21930827
1	0xbe3ce17e	-0.18445393
2	0xbd58eb36	-0.05295869
3	0xbedaa79f	-0.4270601
4	0x3e0631b0	0.13104892
5	0x3dfa29ae	0.12214981
6	0x3b4e7020	0.0031499937
7	0xbd41c619	-0.04730806
8	0x3e3c0467	0.18361054
9	0xbc504ee6	-0.012714123
10	0x3c49d493	0.012318748
11	0x3cf94524	0.030428477
12	0x3e93b337	0.28847668
13	0x3f071c2c	0.5277736
14	0xbe4dde75	-0.20104392
15	0xbea222b5	-0.31667104

encoder.attn_layers.0.attention.key_projection.bias f4 [4]
0	0x36059033	1.990248e-06
1	0x336fbb5c	5.5816926e-08
2	0x33948642	6.9162084e-08
3	0x34ff056a	4.750139e-07

encoder.attn_layers.0.attention.value_projection.weight f4 [4, 4]
0	0x3dea805e	0.11450265
1	0xbd89464b	-0.067028604
2	0xbd91719d	-0.07101748
3	0xbf142f4c	-0.5788467
4	0xbe9b339c	-0.30312812
5	0x3eb924da	0.36160928
6	0xbdcac105	-0.09900097
7	0xbf063543	-0.5242502
8	0xbe279519	-0.1636547
9	0x3bbe29b8	0.005803313
10	0xbe7fa413	-0.24964933
11	0xbdebc5a1	-0.11512304
12	0x3e564700	0.20925522
13	0x3ede3e58	0.4340694
14	0xbde0755b	-0.10959884
15	0xbe7375e9	-0.23775448

encoder.attn_layers.0.attention.value_projection.bias f4 [4]
0	0xbeab8de3	-0.33506688
1	0xbe71f4eb	-0.23628585
2	0xbea08eeb	-0.31359038
3	0xbc6e9491	-0.014561788

encoder.attn_layers.0.attention.out_projection.weight f4 [4, 4]
0	0x3dc722be	0.097234234
1	0xbe0fee1a	-0.14055672
2	0xbe5764ba	-0.21034518
3	0xbf0251a0	-0.509058
4	0x3e593bf1	0.21214272
5	0x3c4e22da	0.012581551
6	0x3d5b2e64	0.05351104
7	0x3e807433	0.25088653
8	0x3f07bc8c	0.53022075
9	0x3eeed9c1	0.46650508
10	0x3e9d4739	0.307184
11	0xbe94c73f	-0.29058263
12	0xbeb95324	-0.36196244
13	0xbeba4ea8	-0.36388135
14	0x3e13716c	0.14398736
15	0xbe42d8f0	-0.19028068

encoder.attn_layers.0.attention.out_projection.bias f4 [4]
0	0x3eacd2a8	0.33754468
1	0x3d22d776	0.03975626
2	0x3e8c6545	0.27421013
3	0x3b97b8bc	0.0046301764

encoder.attn_layers.0.conv1.weight f4 [16, 4, 1]
0	0xbe8ad2e0	-0.2711401
1	0x3eb26be2	0.34847933
2	0xbdbd7454	-0.092507035
3	0xbe662ce7	-0.22478066
4	0x3e8a3dbd	0.27000228
5	0xbe9cbd65	-0.30613247
6	0x3e34fad9	0.17673816
7	0xbd90e332	-0.07074584
8	0xbd88e5e3	-0.066844724
9	0xbeadfcaa	-0.3398183
10	0xbc832490	-0.016008645
11	0x3d9ba226	0.07599287
12	0x3d4aa280	0.04947138
13	0x3e62a6eb	0.22133987
14	0x3dc7d0a4	0.09756592
15	0xbee05a38	-0.4381883
16	0xbe4649bd	-0.19364066
17	0xbcdc983b	-0.026928058
18	0xbd6005ef	-0.05469316
19	0xbe55080f	-0.20803855
20	0x3e8446bf	0.25835225
21	0xbd83e44d	-0.06440029
22	0xbdebd594	-0.11515346
23	0xbe9a697f	-0.30158612
24	0x3e9322e5	0.2873756
25	0x3ba1c3ab	0.0049366555
26	0x3e346fbd	0.1762075
27	0x3ea6f6dc	0.32610214
28	0xbe4e8c3d	-0.20170684
29	0xbe24d3ae	-0.16096374
30	0x3e5768d4	0.21036083
31	0x3e308d4f	0.17241405
32	0xbd9938ec	-0.0748156
33	0xbe0ac457	-0.1355146
34	0x3e8f5b65	0.27999416
35	0xbf07b17d	-0.530052
36	0xbe5d2981	-0.21597864
37	0x3c2e29f5	0.0106301205
38	0x3d8d0790	0.06886208
39	0x3ea6d9c4	0.32588017
40	0xbdf48804	-0.119400054
41	0xbd7758c9	-0.060387406
42	0x3e614b14	0.22001296
43	0xbee2f95f	-0.4433088
44	0xbd277d91	-0.040891234
45	0xbe62ef75	-0.22161658
46	0x3e590e04	0.21196753
47	0x3dfb9195	0.12283627
48	0x3e9174fb	0.28409562
49	0xbe98deaa	-0.2985738
50	0x3e7e7b1e	0.24851653
51	0xbd730f0f	-0.059340533
52	0xbe1f5e5e	-0.15563342
53	0xbed11f2e	-0.408441
54	0x3d5d61ed	0.054048467
55	0x3c24b245	0.010052268
56	0xbd10de69	-0.035368357
57	0x3e33be75	0.17553122
58	0x3df2f5fc	0.11863324
59	0xbebbc387	-0.36672613
60	0xbd87b13e	-0.06625603
61	0xbd3459dc	-0.04403101
62	0xbce8aab7	-0.028401716
63	0xbe18cddd	-0.1492228

encoder.attn_layers.0.conv1.bias f4 [16]
0	0xbe82872b	-0.2549375
1	0xbec29d6f	-0.38010737
2	0xbdd02039	-0.10162396
3	0x3eaca8e8	0.33722615
4	0x3dfa8dbe	0.122340664
5	0x3e9f2fca	0.31091148
6	0xbe4a3d18	-0.19749868
7	0xbdf9fb9e	-0.12206195
8	0xbcda1c7b	-0.026624909
9	0x3e80aaeb	0.251304
10	0x3e4a0775	0.19729407
11	0xbc97fa6f	-0.018552033
12	0xbd527509	-0.051381145
13	0x3df4e2ce	0.11957322
14	0x3c6a6724	0.014306817
15	0x3df28696	0.118420765

encoder.attn_layers.0.conv2.weight f4 [4, 16, 1]
0	0xbe31b8b0	-0.17355609
1	0x3d9c01b1	0.0761751
2	0x3e8b5df4	0.27220118
3	0xbe565ef0	-0.20934653
4	0xbe0684b3	-0.13136558
5	0xbe686bd6	-0.22697386
6	0x3e1badc2	0.15203002
7	0x3d8dcf4c	0.06924304
8	0xbe571c94	-0.21006995
9	0x3a4e1cfd	0.0007862596
10	0xbe79fcc2	-0.24412826
11	0xbda898c6	-0.08232264
12	0xbd291f4f	-0.041289624
13	0x3e578458	0.21046579
14	0xbe6562cc	-0.2240097
15	0x3c14e875	0.009088625
16	0xbb683595	-0.0035432328
17	0xba82b4ca	-0.0009972092
18	0xbdf6bceb	-0.12047752
19	0x3c930490	0.017946512
20	0x3e1ef081	0.15521432
21	0xbd83c593	-0.06434169
22	0xbe876f78	-0.2645223
23	0xbdfeffc4	-0.12451127
24	0x3dcb947d	0.09940431
25	0xbdadb32a	-0.084814385
26	0xbd96b9ce	-0.07359658
27	0xbe5be419	-0.21473731
28	0x3b6fbceb	0.003658111
29	0xbd9d518c	-0.076815695
30	0xbd8fe2f9	-0.070257135
31	0x3ca6e241	0.020371558
32	0xbd3e063f	-0.046392675
33	0x3e3b018a	0.18262306
34	0xbe58336f	-0.2111337
35	0x3e2f5cc9	0.17125238
36	0xbd05c356	-0.03265699
37	0xbc6f568a	-0.014608035
38	0xbd9299a6	-0.07158212
39	0xbea21622	-0.3165751
40	0x3d7c33b5	0.06157275
41	0xbe26563b	-0.16243832
42	0xbd9554b8	-0.072915494
43	0xbe5f4931	-0.21805264
44	0x3d64a531	0.0558216
45	0x3d0ee6ef	0.034888204
46	0x3e1db37a	0.15400496
47	0x3dc605cc	0.096690744
48	0xbdaafbcb	-0.08348807
49	0xbc8008c2	-0.015629176
50	0x3da7dc67	0.08196335
51	0x3dd41395	0.103552975
52	0x3ca28796	0.019840043
53	0x3da219fe	0.07915114
54	0xbdddbe05	-0.10827259
55	0x3cc042a8	0.023469284
56	0xbdd01ea2	-0.10162093
57	0xbe031e15	-0.12804444
58	0xbdda6368	-0.106634915
59	0x3e05a6a8	0.13051856
60	0xbd71a6d2	-0.058996983
61	0x3e5e9a98	0.2173866
62	0x3cf6d231	0.030129524
63	0x3dbee6a5	0.09321336

encoder.attn_layers.0.conv2.bias f4 [4]
0	0x3ded25d1	0.115794785
1	0x3d1aadc5	0.037763376
2	0xbddcfb43	-0.10790112
3	0xbe45c1a3	-0.19312148

encoder.attn_layers.0.norm1.weight f4 [4]
0	0x3f4ee10d	0.8081215
1	0x3f919554	1.1373696
2	0x3f5c7930	0.8612242
3	0x3f7caac9	0.986981

encoder.attn_layers.0.norm1.bias f4 [4]
0	0xbd9891fb	-0.074497186
1	0x3e10a6b4	0.14126092
2	0xbb8542db	-0.0040668077
3	0xbbf2ae99	-0.0074060676

encoder.attn_layers.0.norm2.weight f4 [4]
0	0x3f6e939b	0.9319398
1	0x3f86f5d7	1.0543774
2	0x3f615ae0	0.8802929
3	0x3f7f46d4	0.9971745

encoder.attn_layers.0.norm2.bias f4 [4]
0	0xbd4ada88	-0.049524814
1	0x3c87379d	0.01650601
2	0x3d40b719	0.047049616
3	0xbd8a063c	-0.0673947

encoder.attn_layers.1.attention.query_projection.weight f4 [4, 4]
0	0xbe3d6a3f	-0.18497561
1	0x3c3c6f9a	0.011501217
2	0x3c70d012	0.014698045
3	0xbdd9dc3b	-0.10637709
4	0x34a123e7	3.001471e-07
5	0xb3f2c4cc	-1.13048e-07
6	0xb4ab64e7	-3.1924648e-07
7	0x3490dae7	2.6981363e-07
8	0xbd9b547c	-0.075844735
9	0x3e3bcbd1	0.18339469
10	0x3e4867f5	0.19570906
11	0xbdabe3e9	-0.0839308
12	0xbaf5f747	-0.0018765711
13	0x3deb3369	0.11484415
14	0xbd724b3b	-0.059153777
15	0x3c4cc440	0.0124979615

encoder.attn_layers.1.attention.query_projection.bias f4 [4]
0	0x3dbaa514	0.091135174
1	0x30e848f0	1.6900952e-09
2	0xbe61960f	-0.22029899
3	0x3df44e70	0.11929023

encoder.attn_layers.1.attention.key_projection.weight f4 [4, 4]
0	0x3d5c9568	0.053853422
1	0x3c9a1412	0.018808398
2	0xbe410b49	-0.18851961
3	0xbe09e523	-0.13466315
4	0xb304c92c	-3.091661e-08
5	0x34be2368	3.541602e-07
6	0x36d03b3f	6.20578e-06
7	0xb354122c	-4.9376624e-08
8	0x3e36ab24	0.17838722
9	0xbc1c17ca	-0.009527156
10	0xbe3e86a2	-0.18606046
11	0x3ea5de08	0.3239596
12	0xbc79b833	-0.01524167
13	0xbe5707c1	-0.20999052
14	0xbd7648d3	-0.060128044
15	0xbccdd362	-0.02512521

encoder.attn_layers.1.attention.key_projection.bias f4 [4]
0	0xb4e251d0	-4.2155307e-07
1	0xa99e8087	-7.0389055e-14
2	0xb3f5885c	-1.1433505e-07
3	0x34d96b15	4.0497312e-07

encoder.attn_layers.1.attention.value_projection.weight f4 [4, 4]
0	0x3ea3772a	0.31926852
1	0xbdb4b081	-0.08822728
2	0xbeade31a	-0.33962327
3	0x3f042396	0.516168
4	0x3d6e6819	0.058204744
5	0x3cde3b31	0.027127834
6	0x3e29eb61	0.16593696
7	0x3d080c53	0.03321488
8	0xbd5ea65e	-0.05435788
9	0x3f1ab6de	0.60435283
10	0xbeb9b28e	-0.3626904
11	0xbeb3fda9	-0.35154465
12	0x3e1ddddc	0.15416664
13	0x3e900324	0.28127396
14	0xbe93c614	-0.2886206
15	0x3f0b8cbe	0.5451163

encoder.attn_layers.1.attention.value_projection.bias f4 [4]
0	0x3ea9e105	0.3317949
1	0xbe767ff8	-0.24072254
2	0x3ed938bb	0.42426094
3	0x3ecc00f6	0.39844483

encoder.attn_layers.1.attention.out_projection.weight f4 [4, 4]
0	0x3e233799	0.15939178
1	0x3dbbaa71	0.091633685
2	0xbe8dcf45	-0.27697197
3	0x3ea3e5e8	0.32011342
4	0x3e86189c	0.2619065
5	0x3e3ac097	0.1823753
6	0xbef92fb7	-0.48669216
7	0xbe89233f	-0.26784703
8	0xbee52056	-0.44751233
9	0x3d1699b1	0.036767665
10	0x3e0a10f6	0.13483033
11	0xbe56a8d7	-0.20962845
12	0xbe5c5d40	-0.21519947
13	0x3e82e4e0	0.25565243
14	0x3ee10165	0.43946376
15	0x3ebf053f	0.3730869

encoder.attn_layers.1.attention.out_projection.bias f4 [4]
0	0xbe08374c	-0.13302344
1	0x3e9294b8	0.28629088
2	0x3e368769	0.17825092
3	0x3e11eaff	0.142498

encoder.attn_layers.1.conv1.weight f4 [16, 4, 1]
0	0xbc59d208	-0.013294704
1	0xbd9774ab	-0.073952995
2	0xbd662a37	-0.056192603
3	0x3e194885	0.1496907
4	0xbe12935c	-0.14314026
5	0xbc8e7d46	-0.01739372
6	0xbe1bc25f	-0.15210865
7	0x3c594600	0.013261318
8	0xbdce025a	-0.10059042
9	0xbc4a4069	-0.012344458
10	0xbd558cf2	-0.05213637
11	0xbec8159f	-0.39078996
12	0xbe606155	-0.21912129
13	0xbdd4ae52	-0.103848115
14	0xbe9e24c6	-0.3088743
15	0xbeaa4b03	-0.33260354
16	0x3e646d20	0.22307253
17	0xbe84053b	-0.2578524
18	0x3e7ba3b0	0.2457416
19	0x3dada503	0.08478739
20	0xbcdd941d	-0.027048165
21	0xbd289c46	-0.04116466
22	0xbcfd59d1	-0.030926617
23	0x3dcebe1f	0.100948565
24	0x3e071648	0.13192093
25	0xbe9d4934	-0.30719912
26	0xbdd2b0ec	-0.102876514
27	0x3db5303e	0.08847092
28	0x3e360856	0.17776617
29	0xbd5f7119	-0.054551218
30	0x3e69f181	0.22846033
31	0xbde8d59b	-0.11368867
32	0x3e0e5106	0.13898095
33	0xbeb35965	-0.3502914
34	0x3d6ae370	0.057345808
35	0x3e16f7b1	0.14742924
36	0xbe424f13	-0.18975477
37	0xbe5c3b67	-0.21507035
38	0xbcbf11e8	-0.023323968
39	0x3dc91a92	0.09819521
40	0x3d5c71db	0.05381952
41	0xbe8b73c5	-0.27236763
42	0x3e2cfe47	0.16893874
43	0x3e8b22f2	0.271751
44	0xbc33430a	-0.010941276
45	0x3e316502	0.17323688
46	0xbdcd12f4	-0.10013381
47	0xbdb45943	-0.08806088
48	0xbeb16fc9	-0.34655598
49	0x3bcf2bdf	0.0063223685
50	0x3ec0f87f	0.37689587
51	0x3dd88a82	0.10573293
52	0x3e93f66d	0.28898945
53	0xbea65d3f	-0.32493016
54	0x3e02aa2b	0.12760226
55	0xbd97168e	-0.07377349
56	0x3d3f4902	0.046700485
57	0x3eda99ec	0.42695558
58	0xbe3a99c3	-0.18222718
59	0x3e86c2f0	0.263206
60	0x3e31c271	0.1735933
61	0x3eb5c695	0.3550307
62	0xbe32f4d6	-0.1747621
63	0x3e3dac6a	0.18522802

encoder.attn_layers.1.conv1.bias f4 [16]
0	0x3daa02de	0.08301328
1	0xbe79de6c	-0.24401253
2	0x3ca3caec	0.019994222
3	0x3e5ed29f	0.21760033
4	0x3e333029	0.1749884
5	0xbdf5b9ee	-0.11998354
6	0xbe0579f4	-0.13034803
7	0xbe8bcd76	-0.27305192
8	0x3e984a6f	0.29744288
9	0x3e70b237	0.23505484
10	0xbe12ad56	-0.14323935
11	0xbd8d6cba	-0.069055036
12	0xbe5292e8	-0.20563853
13	0x3e9b1a50	0.30293512
14	0x3dd97bb3	0.10619297
15	0x3e3ff938	0.18747413

encoder.attn_layers.1.conv2.weight f4 [4, 16, 1]
0	0xbbf8b3ec	-0.0075898077
1	0xbdd0fea2	-0.10204817
2	0xbe886b78	-0.26644492
3	0xbe3d4369	-0.18482746
4	0x3e1e8515	0.15480454
5	0x3d38f4d0	0.045155346
6	0x3cf271c7	0.029595269
7	0xbce46a38	-0.02788268
8	0x3e73a5f3	0.23793773
9	0x3e54d24c	0.20783347
10	0x3e5aa129	0.2135054
11	0x3cd78406	0.02630807
12	0xbd8a86b5	-0.067639746
13	0xbd837160	-0.06418109
14	0xbe0053e8	-0.12532008
15	0xbe1ff561	-0.15620948
16	0x3c9d81f0	0.019226998
17	0x3e06367c	0.13106722
18	0x3c74c177	0.014938704
19	0xbe14c323	-0.14527564
20	0xbd04ce2a	-0.032423176
21	0xbd750477	-0.05981871
22	0xbe3bdb0b	-0.18345277
23	0x3dd58092	0.104249135
24	0x3ddc86c0	0.10767889
25	0x3d8efd0d	0.06981859
26	0x3e126b40	0.14298725
27	0x3d34a0b2	0.044098563
28	0xbe04dfed	-0.12976046
29	0xbdac8762	-0.0842426
30	0x3dc4e78f	0.09614479
31	0x3c8ff5ff	0.017573355
32	0xbdb716aa	-0.0893987
33	0x3da91b35	0.082571425
34	0x3d61c898	0.05512294
35	0xbcff91a2	-0.031197373
36	0x3dbd933a	0.09256597
37	0x3c327f40	0.010894597
38	0xbe014e45	-0.12627514
39	0xbd593fa6	-0.053039216
40	0x3d6aa91b	0.057290178
41	0x3d265ed0	0.040617764
42	0xbda6f5aa	-0.081523255
43	0x3c1369fc	0.008997437
44	0x3df1d6a1	0.11808515
45	0xbe2b692f	-0.16739343
46	0x3d6034d1	0.05473787
47	0x3d371bee	0.04470437
48	0x3ac28adf	0.0014842412
49	0x3da4ac2b	0.08040651
50	0xbcd9978f	-0.026561527
51	0xbe281185	-0.16412933
52	0x3e45572d	0.19271536
53	0xbc013dc1	-0.007888258
54	0xbcc5ae37	-0.024130924
55	0xbdfddd8a	-0.12395771
56	0x3e4fd413	0.20295744
57	0xbd465b9d	-0.048427213
58	0x3d4729b7	0.048623767
59	0xbd06f0c0	-0.03294444
60	0xbe44f122	-0.1923261
61	0x3d2940a3	0.041321408
62	0xbe21e928	-0.15811598
63	0x3be3e7c2	0.006955118

encoder.attn_layers.1.conv2.bias f4 [4]
0	0x3cef261c	0.029192977
1	0x3da1c74a	0.078993395
2	0x3d27f161	0.04100168
3	0xbded96bd	-0.11601017

encoder.attn_layers.1.norm1.weight f4 [4]
0	0x3f76f7a2	0.9647161
1	0x3f7e6a5a	0.9938103
2	0x3f766c06	0.9625858
3	0x3f4ebb06	0.80754125

encoder.attn_layers.1.norm1.bias f4 [4]
0	0xbbd199c2	-0.006396503
1	0xbd1ca92a	-0.038247265
2	0x3d3f25a9	0.046666775
3	0xbd1af2bf	-0.037829157

encoder.attn_layers.1.norm2.weight f4 [4]
0	0x3f7bde3a	0.98385966
1	0x3f876684	1.057816
2	0x3f77ffd6	0.9687475
3	0x3f467bae	0.7753247

encoder.attn_layers.1.norm2.bias f4 [4]
0	0x3d41bb3d	0.047297705
1	0xbe17e141	-0.14832021
2	0x3c72e814	0.01482584
3	0x3c52f79e	0.012876419

encoder.attn_layers.2.attention.query_projection.weight f4 [4, 4]
0	0x3c223af5	0.009901752
1	0x3b813456	0.0039430065
2	0xbc995089	-0.01871516
3	0x3b56555d	0.003270469
4	0x3e7a6b86	0.2445508
5	0xbeaec5c2	-0.34135252
6	0xbd34f49c	-0.04417859
7	0xbdb51f53	-0.08843865
8	0x3dfc53b9	0.12320656
9	0xbe6e352e	-0.23262474
10	0xbbf966bf	-0.0076111252
11	0xbe8c1461	-0.27359298
12	0xbd6ef6f1	-0.05834097
13	0xbc54f097	-0.012996814
14	0xbd5fa29f	-0.054598447
15	0xbe52cee2	-0.20586732

encoder.attn_layers.2.attention.query_projection.bias f4 [4]
0	0x3c7a260c	0.01526786
1	0xb98a0979	-0.0002632847
2	0x3e644d14	0.22295028
3	0xbe4851ee	-0.19562504

encoder.attn_layers.2.attention.key_projection.weight f4 [4, 4]
0	0xbb84452c	-0.0040365662
1	0x3c22d41b	0.009938265
2	0x3ce8633e	0.028367635
3	0xbbd09ef7	-0.0063666063
4	0x3e2460df	0.16052578
5	0xbd60e46b	-0.054905336
6	0x3e8e4059	0.27783468
7	0xbe9c7bf6	-0.30563325
8	0xbc2b4778	-0.010454051
9	0xbe7fae95	-0.24968942
10	0x3c5223b4	0.012825895
11	0x3d0bb779	0.03411052
12	0xbd3bbfb9	-0.045837138
13	0x3e872a6c	0.26399553
14	0x3d342712	0.043982573
15	0xbde85c9b	-0.11345788

encoder.attn_layers.2.attention.key_projection.bias f4 [4]
0	0x2f8a6ace	2.5177943e-10
1	0x3281885e	1.507959e-08
2	0xb35cedcc	-5.1439017e-08
3	0x33185478	3.546708e-08

encoder.attn_layers.2.attention.value_projection.weight f4 [4, 4]
0	0x3e997303	0.2997056
1	0xbd2ddd4f	-0.042447384
2	0xbe1b8a67	-0.15189515
3	0xbd015874	-0.031578496
4	0x3ed70387	0.4199488
5	0xbe6ee5f5	-0.23329909
6	0xbdf49e32	-0.11944236
7	0xbdb3ac00	-0.08773041
8	0x3e76edc3	0.24114136
9	0xbd742696	-0.05960711
10	0x3f064781	0.52452856
11	0xbbd86c33	-0.006604695
12	0xbf09b7a6	-0.5379585
13	0x3eba94d2	0.36441666
14	0x3d903595	0.0704147
15	0x3d6b0ef0	0.057387292

encoder.attn_layers.2.attention.value_projection.bias f4 [4]
0	0x3c58ba84	0.013228063
1	0xbeb26746	-0.34844416
2	0xbe998c1d	-0.2998971
3	0xbdf4b307	-0.11948209

encoder.attn_layers.2.attention.out_projection.weight f4 [4, 4]
0	0xbe9fa779	-0.3118246
1	0xbd85199d	-0.06499026
2	0xbeeec793	-0.46636638
3	0xbe8b042b	-0.27151617
4	0x3d2a891a	0.041634656
5	0x3eb868dd	0.36017504
6	0xbe5adcad	-0.21373244
7	0xbe831c58	-0.25607562
8	0xbe66203b	-0.22473232
9	0xbed266c5	-0.41094032
10	0x3e26b4d4	0.16279918
11	0x3ee17be9	0.44039848
12	0xbdecf3d0	-0.11569941
13	0x3c9b7b6b	0.018979749
14	0xbe879ae8	-0.26485372
15	0xbe897a89	-0.268513

encoder.attn_layers.2.attention.out_projection.bias f4 [4]
0	0xbe5e0c52	-0.21684387
1	0xbdc9acf5	-0.09847442
2	0x3e35344c	0.17695731
3	0xbe2e52ed	-0.17023821

encoder.attn_layers.2.conv1.weight f4 [16, 4, 1]
0	0x3dd004ff	0.10157203
1	0x3e9fc422	0.31204325
2	0x3e2849e6	0.1643444
3	0x3e7f8c55	0.24955876
4	0xbe76e4f4	-0.24110776
5	0xbecd182c	-0.40057504
6	0x3e143e21	0.14476825
7	0x3e780a01	0.24222566
8	0xbe88bae0	-0.26705074
9	0xbe1a6d23	-0.15080695
10	0x3db986ca	0.09058912
11	0xbd68ff7c	-0.056884274
12	0x3e96721b	0.2938393
13	0xbc8a9a34	-0.016919233
14	0x3d8b0eae	0.06789909
15	0xbd8b7c66	-0.068108365
16	0x3ded6700	0.11591911
17	0x3eccab67	0.3997452
18	0xbebdfe1d	-0.37107936
19	0x3e90bfcc	0.2827133
20	0xbdd6209e	-0.1045544
21	0xbeaee311	-0.34157613
22	0x3e45b532	0.19307402
23	0x3dbfb383	0.09360411
24	0x3ec29f4c	0.3801216
25	0xbed90f31	-0.42394403
26	0xbe21bf48	-0.15795624
27	0xbdb3739d	-0.08762286
28	0x3e06163d	0.1309442
29	0xbe2c0c54	-0.16801578
30	0x3d77fccb	0.060543817
31	0x3ea2b593	0.31779155
32	0x3ebe4ee0	0.37169552
33	0xbef990c2	-0.48743254
34	0xbd4dc05f	-0.050232287
35	0x3e72582c	0.23666447
36	0xbd467b67	-0.04845753
37	0x3e9805d9	0.2969196
38	0xbeae300d	-0.34021035
39	0xbdb4098d	-0.08790884
40	0x3d2ff974	0.042962506
41	0x3f00e37d	0.5034712
42	0x3e2e0c95	0.16996987
43	0x3d63f70e	0.05565553
44	0x3e46d3e9	0.19416775
45	0xbe13290a	-0.14371124
46	0xbdb316c0	-0.087445736
47	0x3dcc9967	0.09990197
48	0xbd131f5d	-0.035918582
49	0x3b6f2c74	0.0036495002
50	0xbda4a42f	-0.08039128
51	0x3b3914ba	0.0028241114
52	0x3e9e7b70	0.3095355
53	0xbe50aa51	-0.2037747
54	0x3da08841	0.07838488
55	0x3e8d500c	0.27600133
56	0x3de27f45	0.11059431
57	0x3d07a5ed	0.033117224
58	0x3eb39f7c	0.35082614
59	0xbe42d764	-0.19027478
60	0x3df0b11c	0.11752531
61	0xbef2b9b7	-0.47407314
62	0xbe2d9a95	-0.169535
63	0x3d7172ed	0.058947492

encoder.attn_layers.2.conv1.bias f4 [16]
0	0x3e154237	0.1457604
1	0x3e756fc6	0.2396842
2	0xbdae488a	-0.085099295
3	0xbe4e1303	-0.2012444
4	0xbe09b814	-0.13449126
5	0xbd8f2309	-0.06989104
6	0xbe634e59	-0.22197856
7	0x3ea81ace	0.3283295
8	0xbe5bc413	-0.21461515
9	0xbe0a8fdd	-0.13531442
10	0x3e8a86de	0.2705602
11	0xbe8d78c6	-0.27631205
12	0xbe064efd	-0.13116069
13	0xbd527f8f	-0.05139118
14	0x3e728404	0.23683172
15	0xbebbb019	-0.3665779

encoder.attn_layers.2.conv2.weight f4 [4, 16, 1]
0	0xbd0771ab	-0.033067387
1	0x3e13e4dd	0.14442773
2	0xbba76c4e	-0.0051093465
3	0xbe399d9d	-0.18126531
4	0x3d2a6d3f	0.04160809
5	0x3e4f2375	0.2022837
6	0x3e29abe7	0.16569482
7	0x3e4b7bea	0.19871488
8	0x3dfbd000	0.12295532
9	0xbde615b5	-0.11234609
10	0xbddcd717	-0.10783213
11	0xbdf64f27	-0.12026816
12	0xbdf94203	-0.12170794
13	0x3e6c8596	0.23097834
14	0x3c9de2a3	0.019273108
15	0x3d8ab891	0.067734845
16	0xbd3755b0	-0.044759452
17	0x3e175689	0.14779104
18	0x3dc21def	0.09478366
19	0xbceea5f0	-0.02913186
20	0x3e8ad258	0.27113605
21	0x3e071441	0.1319132
22	0x3a92a5b2	0.0011188297
23	0x3da2d3de	0.07950567
24	0xbe1174e7	-0.14204751
25	0x3e4d9ff6	0.20080552
26	0x3dd3863d	0.10328338
27	0xbe47c025	-0.19506891
28	0xbda1ba5d	-0.07896874
29	0xbce89e4c	-0.028395794
30	0xbdc82a92	-0.09773745
31	0xbe35264a	-0.17690387
32	0x3df3a00b	0.1189576
33	0xbdbbe6d3	-0.091748856
34	0xbd315e1e	-0.043302648
35	0xbddf8fec	-0.10916123
36	0x3e312414	0.17298919
37	0xbd4163e9	-0.047214422
38	0xbc8073bc	-0.015680186
39	0xb984f93e	-0.00025362702
40	0xbe94f48b	-0.2909282
41	0x3c58d542	0.013234438
42	0xbe1333f8	-0.14375293
43	0xbdf61d0b	-0.12017258
44	0xbdb180c7	-0.086671405
45	0x3d1ead4c	0.038739488
46	0x3dcd92f8	0.10037798
47	0xbe8d1972	-0.27558476
48	0xbe33222d	-0.17493506
49	0xbdea9330	-0.11453855
50	0xbe4dc831	-0.20095898
51	0x3e098554	0.13429767
52	0xbe6be0ef	-0.23035024
53	0xbd358c93	-0.044323515
54	0x3ea5d8a4	0.32391846
55	0x3cdab908	0.026699558
56	0x3ea15aae	0.31514496
57	0xbe3dbca3	-0.1852899
58	0x3c9841cf	0.018586067
59	0x3d96b9ed	0.07359681
60	0xbd5d6a62	-0.054056533
61	0x3b8b3726	0.0042485176
62	0xbdc987e8	-0.09840375
63	0x3e07b20e	0.13251516

encoder.attn_layers.2.conv2.bias f4 [4]
0	0xbdcfa353	-0.101385735
1	0xbde7a0eb	-0.113099895
2	0x3e14715f	0.14496373
3	0x3d49ff7c	0.049315915

encoder.attn_layers.2.norm1.weight f4 [4]
0	0x3f6690f4	0.9006493
1	0x3f8d5815	1.1042506
2	0x3f71d454	0.9446461
3	0x3f58e8ba	0.8473011

encoder.attn_layers.2.norm1.bias f4 [4]
0	0x3c10dd32	0.0088418
1	0xbd9aa857	-0.075516395
2	0x3d0676b1	0.032828037
3	0xbc7d9546	-0.015477484

encoder.attn_layers.2.norm2.weight f4 [4]
0	0x3f620776	0.88292634
1	0x3f83446a	1.0255253
2	0x3f728ddf	0.9474773
3	0x3f5fad1c	0.8737352

encoder.attn_layers.2.norm2.bias f4 [4]
0	0x3cd4b1dc	0.025963716
1	0xbd7adafa	-0.06124399
2	0x3c5891c5	0.013218348
3	0x3c8338bb	0.016018262

encoder.norm.weight f4 [4]
0	0x3f6cadd7	0.9245276
1	0x3fd6ba70	1.6775646
2	0x3f829685	1.0202185
3	0x3f705abf	0.9388847

encoder.norm.bias f4 [4]
0	0x3d4f1f45	0.05056693
1	0x3f79c656	0.9756826
2	0xbd12051a	-0.035649396
3	0xbdfa8683	-0.12232687

projection.weight f4 [1, 40]
0	0x3c91a562	0.017779056
1	0xbf4c3eb5	-0.79783183
2	0x3deaada6	0.11458902
3	0x3e936654	0.28789008
4	0xbe30bf76	-0.17260537
5	0xbed96550	-0.42460108
6	0x3e05b259	0.13056315
7	0x3eacd9fd	0.33760062
8	0xbe230a4c	-0.15921897
9	0x3f37a254	0.7173207
10	0x3e65198a	0.22373024
11	0x3edf03b5	0.43557516
12	0xbe0aa683	-0.13540082
13	0x3f389bfa	0.72113
14	0x3dbd7317	0.09250467
15	0x3e5c01f0	0.21485114
16	0xbde7e7f2	-0.11323537
17	0x3ea65292	0.3248487
18	0x3c468138	0.012115769
19	0x3e335bea	0.17515531
20	0xbcb427df	-0.021991668
21	0xbf30647b	-0.6890332
22	0x3dfa7388	0.12229067
23	0x3ea2ea75	0.31819502
24	0xbd9e6f81	-0.077361114
25	0xbf4b9c58	-0.79535437
26	0x3dca2bfa	0.09871669
27	0x3e497bfe	0.19676206
28	0xbcf37225	-0.029717514
29	0xbf29be0d	-0.6630562
30	0x3e6f3b4d	0.23362465
31	0x3eb26c37	0.34848186
32	0xbd82cbf7	-0.063865595
33	0x3ed435f5	0.41447416
34	0x3e50100c	0.20318621
35	0x3ec87d89	0.39158276
36	0xbd2911dd	-0.0412768
37	0x3f675bbd	0.90374357
38	0x3e53e3ca	0.20692363
39	0x3ea06ccf	0.31333014

tau_learner.series_conv.weight f4 [1, 10, 3]
0	0x316b0e3d	3.4205094e-09
1	0x3491786d	2.7095976e-07
2	0xb5103891	-5.3726495e-07
3	0x319312e4	4.2804107e-09
4	0x32337644	1.0446062e-08
5	0x360ad9f1	2.069046e-06
6	0xb1aa7712	-4.961188e-09
7	0x33d0d1ec	9.723939e-08
8	0xb4deeb7c	-4.152206e-07
9	0xafd45718	-3.862446e-10
10	0xb3c1ab4e	-9.018423e-08
11	0x36d4d087	6.342368e-06
12	0x30cb5c19	1.479637e-09
13	0x3403e11d	1.2282221e-07
14	0x368fb993	4.283336e-06
15	0x31baad14	5.432989e-09
16	0x3455baf8	1.990519e-07
17	0x36222dfd	2.416665e-06
18	0xb092b331	-1.0673827e-09
19	0x33bd39ee	8.811536e-08
20	0xb6ba98e5	-5.5610312e-06
21	0x2e2b7c7b	3.899146e-11
22	0xb3fdb9a7	-1.18150005e-07
23	0x36e49099	6.811763e-06
24	0xb1812946	-3.7590864e-09
25	0x31d42e43	6.1752714e-09
26	0x36ca4756	6.0283737e-06
27	0x31792d59	3.6260046e-09
28	0xb20faabd	-8.362517e-09
29	0x365f971c	3.3317547e-06

tau_learner.backbone.0.weight f4 [128, 26]
0	0x803da31b	-5.660476e-39
1	0x002129d4	3.045576e-39
2	0x00084cf8	7.62295e-40
3	0x8026d01d	-3.564406e-39
4	0x800660c3	-5.85725e-40
5	0x803a3291	-5.344599e-39
6	0x001b3ba1	2.500949e-39
7	0x00311942	4.509e-39
8	0x80090bad	-8.30708e-40
9	0x002eb0b7	4.287826e-39
10	0x0036c143	5.028446e-39
11	0x0010b4b2	1.534189e-39
12	0x80041683	-3.75418e-40
13	0x0025954f	3.451475e-39
14	0x80295c2c	-3.79832e-39
15	0x8005cf42	-5.33528e-40
16	0x8010a901	-1.529995e-39
17	0x001555a1	1.959263e-39
18	0x00032d7b	2.91822e-40
19	0x0013a21f	1.803033e-39
20	0x801dedbd	-2.748514e-39
21	0x8184f056	-4.8834007e-38
22	0x00048990	4.1669e-40
23	0x01705bc6	4.4146882e-38
24	0x00c11b30	1.7734004e-38
25	0x801c58e5	-2.603283e-39
26	0x800a85e6	-9.66389e-40
27	0x800e62ae	-1.321097e-39
28	0x0009b2b9	8.90633e-40
29	0x8042a9a1	-6.121994e-39
30	0x803eb40c	-5.75839e-39
31	0x8039bce3	-5.302383e-39
32	0x80024f34	-2.12084e-40
33	0x0026012e	3.490172e-39
34	0x80192728	-2.309934e-39
35	0x0005935e	5.12043e-40
36	0x000899fe	7.89926e-40
37	0x8030f92b	-4.497488e-39
38	0x0001d902	1.69683e-40
39	0x001e5c8c	2.788264e-39
40	0x0023f5f9	3.302481e-39
41	0x80350f20	-4.872707e-39
42	0x801f3076	-2.864285e-39
43	0x8014037c	-1.83796e-39
44	0x8018e609	-2.286573e-39
45	0x80387be1	-5.187227e-39
46	0x8014b733	-1.90243e-39
47	0x000f4459	1.402051e-39
48	0x802754dd	-3.612028e-39
49	0x8040c486	-5.947971e-39
50	0x0001514d	1.21001e-40
51	0x001dd485	2.739467e-39
52	0x0023dd5a	3.293648e-39
53	0x000ace5a	9.9238e-40
54	0x00321001	4.597516e-39
55	0x8006add8	-6.13376e-40
56	0x8082bd8a	-1.2006608e-38
57	0x8103dbac	-2.4218507e-38
58	0x803f28b2	-5.800235e-39
59	0x0008ca73	8.07309e-40
60	0x0015f9d1	2.018163e-39
61	0x00007ab1	4.4013e-41
62	0x000bbde1	1.078306e-39
63	0x001456b1	1.867809e-39
64	0x80252ab4	-3.413232e-39
65	0x001e8269	2.801847e-39
66	0x800b5812	-1.041784e-39
67	0x80050fc8	-4.64839e-40
68	0x00274823	3.607462e-39
69	0x802a2f84	-3.874136e-39
70	0x8027d1cc	-3.656845e-39
71	0x000c9365	1.154901e-39
72	0x802521a2	-3.409979e-39
73	0x803ba197	-5.476262e-39
74	0x82303e91	-1.2948394e-37
75	0x002f2d5c	4.33254e-39
76	0x800211e6	-1.90092e-40
77	0x802175dc	-3.072851e-39
78	0x803dd43f	-5.678105e-39
79	0x0000f4fa	8.7881e-41
80	0x00055945	4.91201e-40
81	0x00327807	4.634833e-39
82	0x803b47a3	-5.443993e-39
83	0x0007b108	7.06355e-40
84	0x801421e6	-1.84887e-39
85	0x002f80ac	4.362427e-39
86	0x00388a18	5.192326e-39
87	0x004480b4	6.290984e-39
88	0x800d9a04	-1.249112e-39
89	0x80011646	-9.9826e-41
90	0x00369e73	5.015958e-39
91	0x8019fecc	-2.387291e-39
92	0x8023683d	-3.251636e-39
93	0x001d0b72	2.667335e-39
94	0x8015816c	-1.974973e-39
95	0x801a8ac6	-2.437505e-39
96	0x0009a1e7	8.84599e-40
97	0x00049dc0	4.23932e-40
98	0x8020f900	-3.02806e-39
99	0x803f80e5	-5.831875e-39
100	0x80129396	-1.705983e-39
101	0x800a7524	-9.60377e-40
102	0x000fea5c	1.461605e-39
103	0x0007e34c	7.24387e-40
104	0x803ac322	-5.396459e-39
105	0x80197870	-2.339092e-39
106	0x8013b298	-1.808942e-39
107	0x001a8a63	2.437367e-39
108	0x8015e0fd	-2.009256e-39
109	0x8044bbae	-6.31214e-39
110	0x004afa8d	6.885707e-39
111	0x801ed9ee	-2.833243e-39
112	0x8017c8eb	-2.184292e-39
113	0x800188da	-1.40929e-40
114	0x80066ad6	-5.89338e-40
115	0x800c0dd2	-1.106984e-39
116	0x80032c7b	-2.91463e-40
117	0x00104999	1.49577e-39
118	0x0025ad73	3.460135e-39
119	0x801bad7a	-2.54179e-39
120	0x00326d97	4.631088e-39
121	0x8000caff	-7.2821e-41
122	0x80246328	-3.341648e-39
123	0x003b004f	5.418405e-39
124	0x001d103e	2.669056e-39
125	0x001dfa03	2.752917e-39
126	0x80198d6f	-2.346624e-39
127	0x001fa8fc	2.90752e-39
128	0x802cfb9f	-4.131026e-39
129	0x8022cb05	-3.195237e-39
130	0x04930632	3.4565223e-36
131	0x867a4079	-4.706714e-35
132	0x0442bb20	2.2890514e-36
133	0x03ae9758	1.0261548e-36
134	0x855c6d06	-1.0364375e-35
135	0x863e4a3a	-3.578956e-35
136	0x04ac8e94	4.0567943e-36
137	0x84ea045d	-5.5017143e-36
138	0x850e69de	-6.696253e-36
139	0x030177d0	3.804723e-37
140	0x85a72766	-1.5719077e-35
141	0x83f6fc28	-1.4516473e-36
142	0x8627890e	-3.15099e-35
143	0x8c195b58	-1.1814179e-31
144	0x8c1b613a	-1.1970024e-31
145	0x8bf6a67a	-9.500624e-32
146	0x8c196507	-1.1817093e-31
147	0x0be0496a	8.639212e-32
148	0x8b5c735b	-4.2457243e-32
149	0x8c186744	-1.174073e-31
150	0x8d37082a	-5.6401056e-31
151	0x0c0c0f76	1.078986e-31
152	0x0c0c9b96	1.0832028e-31
153	0x8b9f3b06	-6.133338e-32
154	0x8b6329c8	-4.3750042e-32
155	0x8bc166ea	-7.4495744e-32
156	0x01930766	5.400989e-38
157	0x83ccc9b0	-1.2036348e-36
158	0x822636bf	-1.2211465e-37
159	0x83eb99bd	-1.3847355e-36
160	0x830463f5	-3.890606e-37
161	0x831953da	-4.5058916e-37
162	0x804426c7	-6.258724e-39
163	0x84128214	-1.7221946e-36
164	0x84cfc3d8	-4.884532e-36
165	0x8490f976	-3.408333e-36
166	0x83949886	-8.733676e-37
167	0x83c068f2	-1.130884e-36
168	0x835be1d8	-6.461757e-37
169	0x89f87422	-5.981304e-33
170	0x899e6be7	-3.8138587e-33
171	0x898401d4	-3.1779563e-33
172	0x893a8745	-2.2452539e-33
173	0x89a18078	-3.888015e-33
174	0x89412d14	-2.3252726e-33
175	0x891eea12	-1.9128618e-33
176	0x8950dde9	-2.5141431e-33
177	0x87ab23e7	-2.5750322e-34
178	0x887a4503	-7.531276e-34
179	0x896ba37b	-2.8363964e-33
180	0x892b33f6	-2.0607808e-33
181	0x89eb49e0	-5.6643664e-33
182	0x0039e17f	5.315516e-39
183	0x8039dfb0	-5.314867e-39
184	0x800b76b6	-1.052776e-39
185	0x801fbcea	-2.91467e-39
186	0x8003865f	-3.2371e-40
187	0x80146d6b	-1.875962e-39
188	0x00484c6f	6.639575e-39
189	0x802db4e7	-4.197493e-39
190	0x8037bbd4	-5.118332e-39
191	0x8015b2c4	-1.992674e-39
192	0x800270b0	-2.24096e-40
193	0x0007f815	7.31844e-40
194	0x802e1d51	-4.23495e-39
195	0x802881c0	-3.719965e-39
196	0x8028827c	-3.720229e-39
197	0x8009c0df	-8.95709e-40
198	0x00087863	7.7787e-40
199	0x8024e72e	-3.38901e-39
200	0x00201193	2.94504e-39
201	0x000a1bd9	9.28345e-40
202	0x802e8f30	-4.275799e-39
203	0x001cc3e2	2.641663e-39
204	0x8006ff4e	-6.42599e-40
205	0x0001874c	1.40371e-40
206	0x0040d18f	5.952647e-39
207	0x80894f55	-1.2609922e-38
208	0x00276d10	3.620709e-39
209	0x0009fa4e	9.16312e-40
210	0x000e9fd2	1.34303e-39
211	0x00087aaa	7.78688e-40
212	0x0002df29	2.63726e-40
213	0x80318ff6	-4.551583e-39
214	0x800fd89d	-1.455239e-39
215	0x802991b9	-3.817531e-39
216	0x002c54ff	4.071253e-39
217	0x0036ca65	5.031722e-39
218	0x001a4de2	2.415662e-39
219	0x801bcbce	-2.55267e-39
220	0x800904c5	-8.2823e-40
221	0x0000aceb	6.2031e-41
222	0x8025886c	-3.446852e-39
223	0x002216c2	3.130571e-39
224	0x0001913f	1.4394e-40
225	0x001bf8e5	2.568845e-39
226	0x001623e5	2.033257e-39
227	0x8024a8e7	-3.366669e-39
228	0x80314c3f	-4.527291e-39
229	0x002b4ca8	3.976425e-39
230	0x80212b65	-3.046138e-39
231	0x002d6adf	4.170935e-39
232	0x80071127	-6.49002e-40
233	0x0004a3c2	4.26087e-40
234	0x000dc476	1.264338e-39
235	0x800ba28b	-1.0685e-39
236	0x002652e8	3.51949e-39
237	0x00164e16	2.048393e-39
238	0x003f2c23	5.80147e-39
239	0x800cdef0	-1.182001e-39
240	0x80343ed8	-4.79799e-39
241	0x800699b0	-6.06146e-40
242	0x8048f2c5	-6.699245e-39
243	0x001986cf	2.344248e-39
244	0x800a9e11	-9.75059e-40
245	0x803bfbbb	-5.508598e-39
246	0x0049f8ce	6.793246e-39
247	0x801f03a0	-2.848201e-39
248	0x0035aed5	4.929999e-39
249	0x002f9ecb	4.373233e-39
250	0x00333c29	4.705192e-39
251	0x8037910d	-5.102987e-39
252	0x0003360c	2.94895e-40
253	0x801ecbe1	-2.828203e-39
254	0x80296634	-3.801919e-39
255	0x003ee5a4	5.77618e-39

tau_learner.backbone.0.bias f4 [128]
0	0x801281d2	-1.69961e-39
1	0x8040a717	-5.937412e-39
2	0x80158bca	-1.978692e-39
3	0x8040c90c	-5.949594e-39
4	0x803c3b7e	-5.531472e-39
5	0x8e5fbad3	-2.7576825e-30
6	0x0ddc41a8	1.3574353e-30
7	0x8025d6c8	-3.474962e-39
8	0x801cfd08	-2.662164e-39
9	0x8016c6aa	-2.091648e-39
10	0x8024b24d	-3.37004e-39
11	0x801c82c9	-2.618311e-39
12	0x801c23a6	-2.584182e-39
13	0x02726646	1.7808703e-37
14	0x00181563	2.211724e-39
15	0x8003054f	-2.77411e-40
16	0x8017ae61	-2.174772e-39
17	0x009affc4	1.4234418e-38
18	0x803338f1	-4.704037e-39
19	0x8000b5f2	-6.527e-41
20	0x80080789	-7.37387e-40
21	0x005edd76	8.711982e-39
22	0x800becfe	-1.095207e-39
23	0x802b912f	-4.001008e-39
24	0x8041ea86	-6.053438e-39
25	0x004d5ba9	7.104215e-39
26	0x80251fc1	-3.409305e-39
27	0x97d2d79c	-1.3625359e-24
28	0x80435b82	-6.185805e-39
29	0x8009994a	-8.81509e-40
30	0x804bbef8	-6.956169e-39
31	0x8029d991	-3.843303e-39
32	0x803c2069	-5.521756e-39
33	0x80110bf7	-1.565496e-39
34	0x804568ef	-6.374292e-39
35	0x800a416f	-9.41828e-40
36	0x8005075c	-4.61818e-40
37	0x8032ce93	-4.66588e-39
38	0x80021655	-1.91682e-40
39	0x043db8f7	2.2301775e-36
40	0x8f28f3ad	-8.32997e-30
41	0x8002f3c8	-2.71123e-40
42	0x803abf90	-5.395178e-39
43	0x801c9b79	-2.627167e-39
44	0x800b50fe	-1.039245e-39
45	0x802a20d8	-3.868873e-39
46	0x00052a65	4.74386e-40
47	0x8389fa0f	-8.109547e-37
48	0x841211bb	-1.7170359e-36
49	0x802b61b6	-3.983978e-39
50	0x80282e4c	-3.690028e-39
51	0x8921b72f	-1.9465803e-33
52	0x800996eb	-8.80659e-40
53	0x8008f8e3	-8.23968e-40
54	0x831991ce	-4.5130034e-37
55	0x00d5bfb6	1.9629734e-38
56	0x840f1fd9	-1.6824193e-36
57	0x8021ff43	-3.122142e-39
58	0x800e232a	-1.298311e-39
59	0x9fc06bee	-8.149372e-20
60	0x87b963b4	-2.7894306e-34
61	0x803766e0	-5.087857e-39
62	0x000e6600	1.322288e-39
63	0x83ed27fc	-1.3938788e-36
64	0x801e27d5	-2.769354e-39
65	0x8010bf99	-1.5381e-39
66	0x80282325	-3.686027e-39
67	0x8448b845	-2.35945e-36
68	0x02ddf272	3.2612188e-37
69	0x87bb19ad	-2.8151724e-34
70	0x8009f7a3	-9.15355e-40
71	0x806efbf7	-1.0192293e-38
72	0x8030e74a	-4.491075e-39
73	0x802f9f04	-4.373312e-39
74	0x8049f435	-6.791596e-39
75	0x9fd37104	-8.9548945e-20
76	0x80193cd6	-2.317711e-39
77	0x801b240d	-2.492491e-39
78	0x804660f2	-6.463262e-39
79	0x803068bc	-4.445675e-39
80	0x8000ac0e	-6.1722e-41
81	0x803247d2	-4.617539e-39
82	0x802abc5f	-3.924666e-39
83	0x80415d97	-6.002881e-39
84	0x80427bb9	-6.105526e-39
85	0x80199244	-2.348358e-39
86	0x801d125d	-2.669817e-39
87	0x8048dcbe	-6.691343e-39
88	0x804050d3	-5.906466e-39
89	0x800bbdc0	-1.07826e-39
90	0x801c4d53	-2.599133e-39
91	0x800b9e9e	-1.067092e-39
92	0x803dafaa	-5.664982e-39
93	0x04722340	2.846315e-36
94	0xacb70824	-5.2020766e-12
95	0x802166ce	-3.067451e-39
96	0x8049003e	-6.704078e-39
97	0x8033e62d	-4.766182e-39
98	0x8b331863	-3.4492493e-32
99	0x801cd4d4	-2.647742e-39
100	0x8001160b	-9.9743e-41
101	0x8026647d	-3.525797e-39
102	0x801cebd3	-2.655992e-39
103	0x000284b1	2.31272e-40
104	0x801fc2b0	-2.916741e-39
105	0x93fd7878	-6.398497e-27
106	0x80055ec4	-4.93173e-40
107	0x0fc241fc	1.9155293e-29
108	0x804aebe9	-6.880455e-39
109	0x800fb59b	-1.44268e-39
110	0x8da4b8b6	-1.0151748e-30
111	0x802c49e0	-4.067263e-39
112	0x9da2da12	-4.3106522e-21
113	0x80162c9a	-2.036381e-39
114	0x01cb76a5	7.474067e-38
115	0x044c2bbf	2.4000172e-36
116	0x801e47d2	-2.780829e-39
117	0x800da9eb	-1.254817e-39
118	0x800fb1d8	-1.441331e-39
119	0x8e776e4d	-3.0498208e-30
120	0x80286da7	-3.712756e-39
121	0x00031887	2.84305e-40
122	0x8006a5e4	-6.10523e-40
123	0x801d6318	-2.698778e-39
124	0xa78a801b	-3.8441587e-15
125	0x802eed77	-4.309619e-39
126	0x803690a8	-5.01101e-39
127	0x801c240f	-2.584329e-39
