checkpoints/all_DlinearIndividual_BCE_100epochs_종가_거래대금_거래량볼밴_이등분선_checkpoint.pth (torch, 21656 bytes, 41 tensors)

Linear_Seasonal.0.weight f4 [10, 10]
000000 a3 3d 80 ba 43 17 ba 39 2c 3f 66 3a 2e 99 98 38
       -0.0009783994 0.00035494016 0.0008783217 7.276457e-05
000010 4a 43 99 ba 2c b3 06 3b f1 8d 70 ba 15 3a 79 ba
       -0.0011693027 0.0020553572 -0.00091764244 -0.0009507251
000020 b1 b7 df 3a fd aa 71 ba 30 ed b7 ba e8 ad f1 38
       0.0017068294 -0.00092188996 -0.0014032479 0.00011524168
000030 da 4f d9 3a d1 2a e9 b8 f1 04 62 ba 93 22 80 3a
       0.0016579584 -0.00011118281 -0.0008621952 0.0009775929
000040 42 60 45 3a 27 4b 32 bb b8 77 03 3b aa 04 43 ba
       0.0007529297 -0.0027205439 0.0020060372 -0.00074393547
000050 10 45 16 bb 05 c0 97 39 a5 dc 14 3b d8 a4 e4 b8
       -0.0022929348 0.0002894403 0.0022714522 -0.00010902592
000060 6d bd e5 ba 37 be 0d 3b 57 a1 11 3a 6a df 80 bb
       -0.0017527767 0.002162827 0.00055553525 -0.003932883
000070 f0 d9 5f 3b fc 06 b4 ba c5 9e f6 ba 74 bd 66 39
       0.0034157 -0.0013734992 -0.0018815628 0.00022005086
000080 f5 65 f0 3a 8e e7 d7 b8 e9 70 bc ba e0 8b ee 3a
       0.0018340932 -0.00010295129 -0.0014376912 0.0018199645
000090 b6 89 c1 39 01 8d 47 bb 6c d7 2f 3b 2c 9c 83 ba
       0.0003691443 -0.0030449035 0.0026831282 -0.001004105
0000a0 fb 60 d3 ba ec 76 45 39 3e fe d8 3a cc 0b 52 b9
       -0.0016126925 0.00018831686 0.0016555262 -0.00020031555
0000b0 09 d0 87 ba 4d b8 c0 3a bc 71 f5 39 ea 4d 40 bb
       -0.0010361682 0.0014703363 0.0004681478 -0.0029343315
0000c0 21 4c 1d 3b b4 dd 80 ba d3 ee 11 bb 85 92 89 39
       0.0024001675 -0.0009831698 -0.0022267594 0.00026239842
0000d0 7c f6 29 3b cd 3d 55 b8 17 e2 f8 ba ce 8d 03 3b
       0.002593427 -5.0840714e-05 -0.0018988278 0.0020073536
0000e0 8e ee 28 3a 55 1a 7f bb e4 89 57 3b 0e 29 a6 ba
       0.0006444239 -0.0038925607 0.0032888586 -0.001267703
0000f0 d6 4e 14 3b 14 6e 95 b9 54 aa 16 bb 18 df e6 38
       0.0022629998 -0.0002850151 -0.0022989707 0.00011008809
000100 3e 54 df 3a 8c 39 06 bb b2 b0 32 ba 7d 88 84 3b
       0.0017038656 -0.0020481078 -0.0006816491 0.004044591
000110 67 7d 60 bb 88 65 b5 3a 92 23 0f bb 3c db 8b 39
       -0.0034254433 0.0013839463 -0.002184127 0.00026675488
000120 cc 3e 0b 3b 14 56 52 b8 ce c9 de ba 7d 00 03 3b
       0.0021247147 -5.0148068e-05 -0.0016997398 0.0019989305
000130 31 e0 10 3a 57 65 71 bb 37 ae 51 3b d4 3f a4 ba
       0.0005526571 -0.0036834085 0.003199471 -0.0012531229
000140 17 05 d3 ba 64 a9 3c 39 ab c1 ca 3a d4 b4 b3 36
       -0.0016099539 0.0001799218 0.0015469095 5.355667e-06
000150 20 b9 a4 ba 51 e0 b5 3a 14 7c f7 39 32 dd 2e bb
       -0.0012567379 0.0013876056 0.00047203957 -0.0026682136
000160 3b 9a 16 3b 3d 6f 5e ba a7 ad 94 ba 4e 33 82 38
       0.0022980112 -0.0008485204 -0.0011343256 6.208439e-05
000170 38 ae b0 3a d1 f5 d2 b8 47 8d 18 ba bb 61 16 3a
       0.0013479656 -0.00010059367 -0.0005819392 0.0005736609
000180 14 14 5e 3a e0 0c 1c bb 48 e3 ce 3a d6 c4 0f ba
       0.000847162 -0.0023811385 0.0015784288 -0.0005484348

Linear_Seasonal.0.bias f4 [10]
000000 55 17 64 ba 1a 56 7d 3b 41 e3 4e 3b 7d cc 11 3b
       -0.00087009865 0.0038656057 0.003156856 0.0022247129
000010 11 ee 58 3b 38 e1 60 3b 11 96 7a bb 42 10 4d 3b
       0.0033100883 0.0034313928 -0.003823642 0.0031290208
000020 f4 82 4d 3b 2d ba 80 3b
       0.0031358572 0.003928444

Linear_Seasonal.1.weight f4 [10, 10]
000000 ff ce 49 3a d5 a1 b7 39 4c a7 ae b8 dc bd ef 39
       0.00076983863 0.00035025054 -8.328128e-05 0.0004572709
000010 ab 8a 5c bb 6b de 3f 3b 49 b1 32 b9 42 a9 4b bb
       -0.0033651988 0.0029276859 -0.00017041447 -0.0031076227
000020 07 8b 01 3b 98 fd 91 b9 4a 6c 0d ba 9e 95 41 ba
       0.0019766705 -0.00027845497 -0.00053948595 -0.00073846604
000030 f8 10 43 3b 8f b5 45 bb ba 8b f8 39 3c 20 8f 3a
       0.0029764753 -0.0030168032 0.0004740635 0.0010919641
000040 2e 23 a7 39 39 0e 21 ba ee f9 e2 39 de 55 a3 ba
       0.00031878933 -0.0006143782 0.0004329229 -0.0012461504
000050 63 01 33 bb 6e f0 8a bb 32 9f 83 3c 24 f5 83 bc
       -0.002731406 -0.0042400872 0.016067121 -0.016108103
000060 ea 38 58 3b f4 71 8a 3b 44 41 17 3b c6 f1 4d bb
       0.0032992908 0.00422501 0.0023079673 -0.0031424626
000070 97 ec 39 3b ad 08 ea bb 6c 3b 5a 3b 3c 71 53 3b
       0.0028369778 -0.0071421475 0.0033299578 0.0032263538
000080 7f 93 7e bc d0 08 83 3c 16 4b f2 ba d1 2b dd bb
       -0.0155380955 0.015995413 -0.0018485512 -0.006749608
000090 74 8c 08 bb 49 27 6b 3b cb 8b d4 ba 06 1c c5 3b
       -0.002083567 0.003588157 -0.0016215978 0.0060153035
0000a0 05 01 4b 3c bc 18 b4 3b fc fa 30 bd e7 d1 4f 3d
       0.01239038 0.0054961126 -0.043208107 0.050737288
0000b0 b9 e2 0f bc 84 3c ca bc 92 25 66 bb d8 ef 14 3c
       -0.008782082 -0.02468706 -0.0035117608 0.009090386
0000c0 a0 a5 7b 39 01 d6 32 3c d4 22 9f 3c e3 67 f0 b9
       0.00023998925 0.01091528 0.019425787 -0.0004585377
0000d0 8d 91 d2 bc 56 5a 24 bd c3 46 de bc 60 66 5c 3d
       -0.02570417 -0.040125214 -0.027133351 0.05380857
0000e0 0a f2 87 3d 99 5b 30 3d 96 24 f7 3d 81 d4 6f be
       0.06637962 0.043056104 0.12067525 -0.23420908
0000f0 5a f7 21 38 c2 70 5b 38 5c d9 64 b9 ed fc 74 39
       3.8615755e-05 5.2318683e-05 -0.00021824747 0.00023363876
000100 d5 31 4b b8 20 94 f3 b8 b9 d1 44 b7 5d a1 8d 38
       -4.844538e-05 -0.000116147334 -1.173134e-05 6.75346e-05
000110 2d 79 05 b8 c8 ff 96 38 8a c2 ef 3b 0e 7c f0 3b
       -3.1822525e-05 7.2002e-05 0.007316892 0.007339007
000120 6a e2 0a bd 8e 1b 04 3d 9d bd cd bb 70 73 50 bc
       -0.03390733 0.03225284 -0.006278707 -0.012722835
000130 2b 23 9b bb 4e 72 f3 3b b4 99 6a bb 93 ad 41 3c
       -0.004734417 0.0074293977 -0.003579718 0.0118211685
000140 01 d6 44 bb 3b a4 76 bb f7 64 88 3c 98 8e 65 bc
       -0.0030034783 -0.003763451 0.016649706 -0.014011048
000150 1a 75 39 3b e9 55 c6 3b b0 76 0c 3b 3b 29 7c bb
       0.0028298558 0.0060527218 0.0021433048 -0.0038476724
000160 c8 d1 f5 3a 92 4c ac bb 4d 99 c1 3a 4e bb 05 bb
       0.0018754536 -0.0052581513 0.0014770419 -0.0020405832
000170 90 df 55 38 b7 7a 39 ba a4 64 7f 3b 79 ca 7b bb
       5.0991366e-05 -0.0007075476 0.0038969899 -0.0038420244
000180 57 95 bb ba 7e 7b 6b 3b b8 69 f0 b9 8f ef 04 3a
       -0.0014311475 0.0035931761 -0.00045855134 0.00050710974

Linear_Seasonal.1.bias f4 [10]
000000 e8 8e 2c 3b 15 4c 15 bb 3d 9b 1a bc 04 cf 51 3c
       0.0026330296 -0.0022780944 -0.009436426 0.012805704
000010 46 ba ce 3c bd c1 c6 bd b4 1d 26 39 e2 eb 9b 3c
       0.025235306 -0.097049214 0.00015842059 0.019033376
000020 62 63 27 bc 16 c1 02 ba
       -0.010216566 -0.00049878785

Linear_Seasonal.2.weight f4 [10, 10]
000000 86 2d 60 ba bc cb 52 39 83 90 df ba 6b 9d 4f 3b
       -0.00085517054 0.00020103058 -0.0017056618 0.0031679522
000010 45 cb 36 bb b5 d0 b8 3a 43 ab 6c 3b 99 02 10 bb
       -0.0027892154 0.0014100285 0.0036112822 -0.0021974205
000020 49 84 17 bb 13 1a a4 3a ce 2b 5c 3b b0 24 e5 b9
       -0.002311962 0.0012519978 0.0033595446 -0.00043705618
000030 2a 1f f0 3b 3e 26 7f bc 14 45 5e 3c 94 92 d2 bb
       0.007327934 -0.0155730825 0.013566274 -0.006426165
000040 1b 2d 85 bc 3e 2b 13 3c 96 ba 32 3c 12 17 7c bb
       -0.01625686 0.008982478 0.010908743 -0.00384659
000050 5d f3 74 3a 22 d7 71 b9 22 3f fa 3a 99 9c 62 bb
       0.0009344125 -0.00023063694 0.0019092301 -0.0034578203
000060 4b 8a 49 3b e5 93 cd ba 64 05 7c bb c1 0d 1a 3b
       0.0030752595 -0.0015684335 -0.0038455362 0.0023506733
000070 fa ab 28 3b 48 2a b7 ba 1e 6b bf bc ee 6b 1c 3d
       0.0025737272 -0.0013974393 -0.023366507 0.038188867
000080 c2 79 4d bd 73 65 e9 3b c4 74 98 3d ee 04 44 bd
       -0.050164945 0.0071226894 0.07444146 -0.047856264
000090 64 25 ad bb 93 31 f7 3c 47 5a f2 3c d8 4f 53 bd
       -0.0052839983 0.030175006 0.029584063 -0.051589817
0000a0 da 1c 27 ba 10 e2 92 39 eb a6 01 ba b9 46 76 3a
       -0.00063748437 0.0002801572 -0.0004945832 0.0009394694
0000b0 b1 f0 18 ba 51 31 82 39 3d 3f dd 39 6a d7 4a 38
       -0.00058342057 0.00024832276 0.0004219952 4.8361173e-05
0000c0 ee fe 5d ba b1 6d 43 39 9b cc 74 bd 2d c8 96 3d
       -0.00084684684 0.00018637512 -0.05976544 0.07362399
0000d0 5f 4c 7f bd 52 ea c5 3b f1 66 bb 3d 13 8e 61 bd
       -0.062328693 0.006039896 0.09150494 -0.055067133
0000e0 e9 87 13 bc 42 6b 27 3d 38 8e 5d 3d 07 cd 9c bd
       -0.0090045715 0.040873773 0.05409071 -0.07656293
0000f0 4b 7c 70 3b d8 c8 45 ba 9f 8e d8 3b 36 99 65 bc
       0.0036695178 -0.00075448817 0.0066087986 -0.014013579
000100 78 e4 47 3c 39 b7 c0 bb 10 b4 70 bc fa b1 02 3c
       0.012200467 -0.005881217 -0.014691368 0.007977003
000110 d7 69 23 3c 69 9e 62 bb a0 64 40 bd 20 61 7c 3d
       0.009973965 -0.0034579283 -0.046970963 0.061616063
000120 b5 89 6d bd 59 f8 cf 3b 29 e1 ae 3d 13 00 58 bd
       -0.057992656 0.006346744 0.0853904 -0.052734446
000130 ae 8c ff bb b9 f6 17 3d b4 1e 3a 3d 30 e4 8a bd
       -0.0077987527 0.037100527 0.045439437 -0.067818046
000140 a8 48 d8 3a 4c d5 13 ba 14 da da 3a d0 4c 56 bb
       0.0016501145 -0.00056393887 0.0016697072 -0.0032699592
000150 99 b0 25 3b a3 af 9c ba 1a d8 3d bb 8c fe a0 3a
       0.0025282262 -0.0011954199 -0.0028967918 0.0012282892
000160 7c a9 2d 3b 01 2d 61 ba 6c 55 e8 b9 18 45 2c 38
       0.0026498726 -0.0008589775 -0.00044314133 4.1072344e-05
000170 48 9e 7b ba 45 36 ed 3a 66 ce de ba a8 d2 56 3a
       -0.0009598476 0.0018097839 -0.0016998767 0.00081948424
000180 26 79 1e 3b 6a b2 ce ba 53 2c a7 ba 5b 09 3c 3a
       0.0024181097 -0.0015769724 -0.0012754299 0.0007173025

Linear_Seasonal.2.bias f4 [10]
000000 10 b6 1d 38 f2 f8 a9 3c aa 55 5e ba 30 4b 87 bd
       3.7601276e-05 0.02074859 -0.0008481393 -0.06606138
000010 61 80 2e bb cb e2 8f bd 50 37 9d 3c fd fc c3 bd
       -0.0026626813 -0.07025679 0.019191414 -0.09569738
000020 ed 0b c2 3b be ff 0e b9
       0.005921832 -0.00013637447

Linear_Seasonal.3.weight f4 [10, 10]
000000 ca 2d 41 ba 09 f3 3d bb 52 4e 96 3b 7d 06 e6 ba
       -0.0007369189 -0.0028983972 0.004586973 -0.0017549541
000010 84 18 4b 3a 3e 02 cc ba 68 7e 9e 3b f1 c5 9f bb
       0.00077474886 -0.0015564633 0.004836846 -0.0048758914
000020 84 1f 75 3b 28 df 4c bb 4e 42 1a 3a 78 e8 dc 3a
       0.0037402818 -0.0031260941 0.0005884514 0.0016853949
000030 03 66 2e bb 8f 8c 91 3a 89 94 16 ba 6c 46 91 3a
       -0.0026611097 0.0011104512 -0.00057441794 0.001108361
000040 a6 15 39 bb 61 35 26 3b 90 bf 05 bb de d6 f2 3a
       -0.0028241663 0.0025361406 -0.002040837 0.001852717
000050 fa 42 54 ba 86 07 4b bb 28 74 9b 3b 34 0c e7 ba
       -0.00080971385 -0.0030979826 0.0047440715 -0.0017627538
000060 d0 e9 56 3a 3d b8 d3 ba 87 a3 aa 3b 48 9a a3 bb
       0.0008198293 -0.001615293 0.0052074823 -0.004992757
000070 ec 4b 7c 3b db f5 64 bb 13 40 04 3a 5e 8f e6 3a
       0.0038497401 -0.003493658 0.0005044948 0.0017590334
000080 53 89 47 bb b4 78 86 3a b0 73 b6 b9 e5 98 59 3a
       -0.0030446842 0.0010259361 -0.0003479994 0.0008300676
000090 42 1e 43 bb a8 d3 42 3b 71 26 14 bb 6f 2c 08 3b
       -0.0029772674 0.0029728208 -0.002260592 0.0020778438
0000a0 cb 81 1f ba ea 6b 22 bb 18 f3 86 3b 1b b4 ca ba
       -0.00060847093 -0.002478356 0.0041183345 -0.0015465053
0000b0 47 cc 2f 3a 80 9b b5 ba 52 df 88 3b 73 cd 8b bb
       0.000670616 -0.0013855547 0.0041770125 -0.004266435
0000c0 c4 7c 5b 3b ce bc 30 bb 98 62 02 ba de 88 0c ba
       0.0033491114 -0.0026968005 -0.0004973798 -0.0005360971
0000d0 f8 19 c1 3a 01 a9 39 ba 9b 88 b7 39 1e fc f5 b9
       0.0014732471 -0.00070823735 0.0003500626 -0.00046917883
0000e0 06 30 8a 3a 1a 11 94 ba 4a 19 82 3a ce 0b 62 ba
       0.0010542877 -0.00112966 0.000992575 -0.0008622975
0000f0 90 73 18 3a 32 28 6c 3a cc 1c f5 ba fa 7b bc b9
       0.000581556 0.0009008675 -0.0018700599 -0.00035950524
000100 a2 a9 09 3a 3a 01 2c ba 48 22 28 bb 6c 75 1e 3b
       0.00052514125 -0.0006561462 -0.00256552 0.0024178876
000110 55 14 6b ba 1d 6e ce 3a d0 88 4a ba 55 4e 38 bb
       -0.0008967568 0.0015749369 -0.0007726075 -0.0028122861
000120 f2 e5 8f 3b 93 b7 cf ba f2 00 48 3a d4 ed c8 ba
       0.0043914253 -0.0015847556 0.00076295354 -0.0015329667
000130 56 2c a1 3b 22 38 94 bb 1d 27 66 3b 15 e9 54 bb
       0.0049186153 -0.004523293 0.0035118528 -0.003248756
000140 91 b0 0f ba 35 b0 0e bb a3 15 62 3b 66 17 a5 ba
       -0.00054813275 -0.0021772508 0.003449776 -0.0012595474
000150 a3 28 1f 3a 56 82 a1 ba cf f7 77 3b ea 55 6a bb
       0.0006071424 -0.0012322168 0.0037836914 -0.0035756775
000160 15 9a 37 3b c6 4d 23 bb 7e 39 87 b9 45 d5 88 ba
       0.0028015424 -0.0024918183 -0.00025792042 -0.0010439536
000170 35 9d d0 3a 2f 89 04 ba 2f 6d 6e 39 28 a7 2b ba
       0.0015915992 -0.00050558423 0.00022738123 -0.00065480405
000180 80 9d 04 3b 90 8b e1 ba e6 99 9b 3a a6 dd 8b ba
       0.002023548 -0.001720773 0.0011871427 -0.0010670915

Linear_Seasonal.3.bias f4 [10]
000000 3c 0d eb 3b 9d 5b 9f bb de 5b e6 3b 0a b0 89 bb
       0.0071732085 -0.004863216 0.0070299944 -0.0042018937
000010 02 24 d5 3b 9c e8 33 bb 56 e1 2e 3a 70 06 ba 3b
       0.0065045366 -0.0027451878 0.0006671151 0.005677037
000020 fd 8d b9 3b 1f 41 bd 3b
       0.0056626783 0.0057755853

Linear_Seasonal.4.weight f4 [10, 10]
000000 50 09 08 ba 9d 69 01 3a ef e2 d9 b9 3e d7 c0 39
       -0.0005189376 0.0004936697 -0.00041558544 0.00036781462
000010 fe f7 a9 b9 39 80 d8 39 bf 6b 4f 39 ab 93 bc b9
       -0.0003241896 0.00041294264 0.00019781197 -0.00035968176
000020 5f 6e 5e b9 4e 58 89 39 9c f9 e0 b9 5a a4 fa 39
       -0.00021212686 0.00026196468 -0.00042910583 0.00047806167
000030 f4 98 d7 b9 6e 9a 63 b9 d6 f2 8b 37 3f d7 e5 39
       -0.00041121955 -0.00021705937 1.668317e-05 0.00043838655
000040 c4 71 47 39 40 cd 88 b9 be d3 b3 b9 bc 47 b0 39
       0.000190205 -0.00026092865 -0.000342993 0.00033622782
000050 da 9c cf bc 6b a5 cf 3c 27 50 89 3c f6 38 9d bc
       -0.025343347 0.025347432 0.016761852 -0.0191922
000060 89 f1 3d bd e9 50 3d 3d cd 6d 23 3c 37 ba 2a bd
       -0.046372924 0.04621974 0.009974909 -0.041681495
000070 a4 ad a6 3a b8 cb d6 3c 44 c7 0e b8 98 b5 e5 38
       0.0012716544 0.026220188 -3.404102e-05 0.000109533954
000080 ab 26 f1 b8 dd 5d 22 ba 60 08 97 39 68 57 4f 39
       -0.00011498978 -0.0006193796 0.00028807204 0.0001977362
000090 35 ba 42 38 d2 d3 47 38 ce 1c 8f b9 10 3b 45 39
       4.6426623e-05 4.764257e-05 -0.00027296547 0.00018809387
0000a0 40 d9 d1 39 bd 5e ec b9 f1 3a cc 39 ea d2 86 39
       0.0004002545 -0.00045084013 0.00038953827 0.00025715615
0000b0 cf 59 4d b8 4f 84 da b9 29 47 44 b9 70 ef 83 39
       -4.895945e-05 -0.00041678778 -0.00018718526 0.00025164662
0000c0 37 37 a4 39 ef 99 a2 b9 73 0c d7 3c 89 5d b1 bc
       0.00031321656 -0.00031013737 0.026251053 -0.021651046
0000d0 32 08 f9 3c 8e 88 a9 bc 98 49 ae bd 44 e5 8d 3d
       0.030399416 -0.020694997 -0.08510131 0.069284946
0000e0 f8 91 ec 3c 40 be 13 be 2b 67 6a bd cb 2f 21 3e
       0.028878197 -0.14428043 -0.057227295 0.15740888
0000f0 39 7f a8 3b 1e af db ba 22 ef d2 3c ae cd bd bc
       0.0051421192 -0.0016760563 0.025748793 -0.023169365
000100 52 49 98 bd 66 4c 86 3d c5 f3 9b 3c 24 d4 e4 bd
       -0.0743586 0.065575406 0.019037137 -0.11173275
000110 24 45 fb bc 12 bf e1 3d f9 85 e5 3c 9e 2d be bc
       -0.030672617 0.11022772 0.028017985 -0.023215111
000120 5d b0 fb 3c ee f1 a7 bc 6d 1d b0 bd 1b a8 8e 3d
       0.030723745 -0.020501103 -0.085993625 0.06965657
000130 8d 83 f3 3c a8 b1 16 be a5 d1 73 bd 28 77 25 3e
       0.029725814 -0.14716208 -0.059526104 0.16158736
000140 84 46 ba 3c 52 a9 95 bc 57 e2 f1 3c 37 3b ad bc
       0.022738703 -0.018269215 0.029526873 -0.0211464
000150 3f 13 aa bd f7 42 8c 3d 44 01 df 3c 49 26 0e be
       -0.08304452 0.0684871 0.027222283 -0.13881792
000160 6b 37 58 bd e0 22 19 3e 00 1b e1 bb 56 97 1f 3c
       -0.052787226 0.1495471 -0.0068696737 0.009740671
000170 6f ef bd 3c 2e 02 c6 bc f4 99 8d bd ab a1 83 3d
       0.02318546 -0.024170961 -0.0691413 0.0642732
000180 e8 8d 65 3c af 01 c0 bd d2 01 87 bc d9 30 ac 3d
       0.014010884 -0.09375321 -0.01648036 0.084077545

Linear_Seasonal.4.bias f4 [10]
000000 82 01 0a 3b f3 31 cd 3b 32 8b c5 bd 19 16 c8 3b
       0.0021058028 0.006262058 -0.0964569 0.00610615
000010 c8 ca c9 bb 54 e0 24 be 12 83 4a be 8d de 79 be
       -0.0061582066 -0.161012 -0.19776562 -0.24401303
000020 1b cf 7b be bc 01 08 3d
       -0.24590723 0.03320478

Linear_Seasonal.5.weight f4 [10, 10]
000000 c5 71 84 39 e8 0c ec 39 76 94 e9 b9 f5 6d 62 b9
       0.00025261767 0.00045023044 -0.00044551835 -0.00021594002
000010 93 1c 25 b8 8c 1a 82 39 b1 17 20 ba 4a fa 5d 39
       -3.9365677e-05 0.0002481531 -0.0006107046 0.00021169442
000020 3f 7b b2 39 72 0b 1a b9 43 8c c5 b6 a5 c1 03 b8
       0.0003404263 -0.00014690848 -5.887386e-06 -3.141318e-05
000030 a2 c0 a3 37 8f ab 01 38 5f 52 4e b6 43 84 90 36
       1.9520816e-05 3.0915773e-05 -3.0744338e-06 4.3069317e-06
000040 eb 50 f2 37 ad 3f aa b7 b3 9e 1b b8 62 30 6b 37
       2.8886328e-05 -2.029523e-05 -3.710268e-05 1.40183565e-05
000050 16 07 31 b9 4b f4 a2 b9 ca e6 9c 39 9a 5d 26 39
       -0.00016882675 -0.0003108106 0.0002992659 0.00015865863
000060 02 0e 64 38 f6 2b 35 b9 05 4a ac 39 69 61 05 b9
       5.4372482e-05 -0.00017277882 0.00032861545 -0.00012720157
000070 2e 50 1c b9 7d 71 9f 38 10 05 af 3d 67 be f8 bc
       -0.00014907189 7.60285e-05 0.085458875 -0.030364228
000080 40 2c f2 bc 97 f7 82 bc 4a 8e 1e 3a 08 cb d5 bc
       -0.029562116 -0.0159872 0.00060484244 -0.02609779
000090 cb b2 ec 3c b3 dd 23 3c 41 44 3b 3d 02 68 89 bd
       0.028893849 0.010001588 0.04571939 -0.06709291
0000a0 5c 8b 4e 39 0a e8 c3 39 ea e2 bb b9 4f 8b 3f b9
       0.00019697606 0.0003736618 -0.00035836484 -0.00018267076
0000b0 cc 59 6d b8 20 34 35 39 83 b4 00 ba c8 9c 3b 39
       -5.6588833e-05 0.00017280923 -0.0004909711 0.00017892115
0000c0 3f 89 93 39 2c 82 ff b8 07 21 c2 bb d1 c1 e4 bb
       0.0002814028 -0.00012183594 -0.0059243473 -0.0069811125
0000d0 9d 80 d7 3b 8f 93 96 3b f6 f2 bb b9 66 ed 2e bb
       0.006576611 0.004595227 -0.0003584844 -0.0026691793
0000e0 18 3f 5b 3c 0d 84 9d bb 36 08 0f bc 1c 25 9c 3b
       0.013381742 -0.0048070014 -0.008729985 0.004765166
0000f0 f9 78 c4 39 d6 28 07 b9 c3 ea 51 38 92 14 96 b8
       0.00037474165 -0.00012889816 5.0048122e-05 -7.156389e-05
000100 eb 43 a3 39 80 8a 69 b9 f8 f3 06 ba c2 c7 5f 39
       0.00031140386 -0.00022272207 -0.00051480485 0.00021341353
000110 87 f0 eb 39 fc b0 eb b9 a6 44 85 38 60 e6 d2 b9
       0.000450019 -0.00044954557 6.354721e-05 -0.00040225964
000120 68 88 af 39 14 c0 c3 38 cc b6 6e 39 8c 83 a9 b9
       0.00033480232 9.334102e-05 0.00022765546 -0.00032332202
000130 a7 96 05 39 b6 d9 b5 b7 57 b4 3e 38 42 0d 38 b9
       0.00012739991 -2.1678261e-05 4.5467485e-05 -0.00017552546
000140 d9 b7 00 3e af 4d 3c bd 7c 03 03 bd 45 4c b5 bc
       0.12570132 -0.045972522 -0.031985745 -0.022131095
000150 99 78 30 bc c4 c6 f8 bc 35 bc e2 3c 85 39 88 3c
       -0.01077094 -0.030368216 0.027677635 0.01662899
000160 fd df 79 3d 36 bb b4 bd 7c 9e 3e 3d b5 22 89 bc
       0.061004627 -0.0882477 0.04653786 -0.016740182
000170 6f 5b da bc ad 1c 04 bc 86 8a 31 3c 47 2c b3 bc
       -0.026654927 -0.008063477 0.010836249 -0.021871699
000180 be 6e dd 3c 84 49 50 3b 1a 2e d6 3c 97 54 21 bd
       0.027030345 0.00317821 0.02614503 -0.03938731

Linear_Seasonal.5.bias f4 [10]
000000 28 61 47 3a 4d c7 a2 39 3a a2 c9 ba f4 83 2b be
       0.0007605725 0.00031047539 -0.001538343 -0.16749555
000010 59 98 19 3a d2 20 8c bb 71 68 ae ba 91 e1 b1 ba
       0.00058591884 -0.0042763734 -0.0013306272 -0.0013571252
000020 12 13 bd 3c 75 2b 9b 3c
       0.023080382 0.01894162

Linear_Seasonal.6.weight f4 [10, 10]
000000 8c 4e 03 b9 89 93 ac b9 e7 36 1f b8 d9 fd 78 3a
       -0.00012522395 -0.0003291632 -3.7959686e-05 0.00094982755
000010 39 6d 4b ba 18 ed 9c 39 4d b3 ea 39 74 81 f1 b9
       -0.0007760111 0.00029931287 0.00044765547 -0.00046063552
000020 c1 b4 d0 b8 5a f4 21 b9 2a 5a ec 39 a1 23 7b 3a
       -9.951881e-05 -0.00015445185 0.00045080605 0.0009580199
000030 60 56 78 ba 19 74 9f ba ac 05 30 3a 29 92 31 b9
       -0.000947332 -0.0012165337 0.00067147124 -0.00016934484
000040 2a 14 87 ba 6c f4 38 3a 25 bc ff 39 28 0c ea 38
       -0.0010305692 0.00070554647 0.0004877757 0.00011160254
000050 9d a3 21 bb a7 a3 7a bb ae 4d b7 3b ab 7e 25 3b
       -0.0024664172 -0.0038244517 0.005593977 0.0025252502
000060 25 06 82 bb 29 d1 12 b9 93 06 82 3b 70 c3 22 bb
       -0.0039680176 -0.00014001563 0.003968069 -0.0024835728
000070 e0 c2 a0 ba 44 7c f4 3a 2b 99 bf b9 b7 ca 0e ba
       -0.0012265109 0.0018652757 -0.00036544478 -0.0005447077
000080 15 4f 98 3a 9e 07 e8 38 49 ed 00 38 80 60 b5 b9
       0.0011620248 0.00011064041 3.0738567e-05 -0.00034594908
000090 43 65 6c 3a a7 21 3c b9 c7 89 37 ba e2 c4 04 b9
       0.0009017775 -0.00017941614 -0.00070014264 -0.00012661846
0000a0 7e c1 24 b9 ca c3 e3 b9 76 24 4f 3a 54 de 88 b8
       -0.0001571234 -0.00043442688 0.00079018564 -6.526397e-05
0000b0 c5 c5 f7 38 19 42 d0 b9 2a 02 e8 39 2c ae 5d b9
       0.00011814715 -0.00039722098 0.000442521 -0.00021141086
0000c0 62 56 f8 38 9f 1c d4 b9 7e 00 34 b9 b4 99 97 b9
       0.000118416516 -0.00040457115 -0.00017166321 -0.00028915482
0000d0 22 a8 11 3a 30 b8 86 38 17 b6 0a 38 9d 94 3d b9
       0.0005556365 6.4239255e-05 3.307135e-05 -0.00018079807
0000e0 b2 5c f8 39 c4 07 ce b8 30 4b a4 b9 85 76 b4 b8
       0.0004737131 -9.824292e-05 -0.00031336537 -8.605145e-05
0000f0 86 1e e1 b9 76 86 78 ba 08 8b 0e 3a 88 15 bd 3a
       -0.00042938086 -0.00094804855 0.00054375874 0.0014425972
000100 13 fc 3c ba c6 90 9b 39 a3 93 74 3a ca 87 3d ba
       -0.0007209193 0.00029671768 0.0009329861 -0.0007230012
000110 b3 b2 dc b9 86 68 5c b9 64 f8 e0 3a d8 6a 5a 3b
       -0.0004209481 -0.00021019773 0.001716387 0.0033327844
000120 f6 00 8b bb 02 2d ef ba ac 1b 00 3b f3 d0 0a 3a
       -0.004242058 -0.0018247666 0.0019547744 0.0005295418
000130 58 a4 63 bb 84 3c 0d 3b 20 c8 33 3a c7 10 a1 ba
       -0.0034735408 0.0021550963 0.0006858129 -0.0012288325
000140 f2 2c e5 ba bb da 60 bb e5 30 8e 3b 72 4e e6 3a
       -0.0017484708 -0.003431006 0.004339325 0.0017570986
000150 85 9d f0 ba a0 8e 1a ba 11 dd 68 3b 48 9d 0d bb
       -0.0018357491 -0.00058958866 0.0035532156 -0.002160864
000160 5f 22 1f ba d7 df a0 3a 69 95 d8 3a b6 88 56 3b
       -0.00060704903 0.0012273741 0.001652402 0.0032735295
000170 67 4f 88 bb 14 4b db ba 06 00 dd 3a 28 bc 1b 3a
       -0.004159856 -0.0016730749 0.0016860969 0.0005940818
000180 1f 16 67 bb 4c 35 0d 3b 21 be 08 3a 95 51 93 ba
       -0.0035260988 0.002154666 0.00052163197 -0.0011239523

Linear_Seasonal.6.bias f4 [10]
000000 c9 d2 ec 3a 93 04 0a bb 71 a0 de 3c ce 9f e2 ba
       0.001806819 -0.0021059855 0.027176114 -0.0017290057
000010 34 f2 05 bb 36 12 81 ba f3 5f 2b 3b 33 55 8d bc
       -0.0020438554 -0.0009847346 0.002614972 -0.01725254
000020 db be 8b 3c 8f b8 7b bc
       0.01705878 -0.015363826

Linear_Seasonal.7.weight f4 [10, 10]
000000 78 cd 90 3d 24 bc e0 bc 39 72 7e bc 3c 33 34 bd
       0.0707044 -0.027433462 -0.0155301625 -0.043994173
000010 f8 fc a7 3c 58 4f 3d bd d9 9f 7f 3d cc 17 a8 3c
       0.020506367 -0.046218246 0.062408302 0.02051916
000020 a7 38 84 bd 24 c9 67 3d 76 cf a8 39 b6 3a 72 b9
       -0.06456118 0.056588307 0.00032198027 -0.0002310079
000030 ae 6d 11 39 ac f4 aa b8 92 3c 8a b9 6e 83 01 3a
       0.00013869136 -8.1518054e-05 -0.0002636654 0.0004940544
000040 2b ec ed b8 0b 3d 18 39 3e 9d a7 38 0f d3 f8 b9
       -0.0001134503 0.0001451859 7.992469e-05 -0.00047459497
000050 e9 01 7d 3a 43 3f 4c ba ce 61 02 3a c2 80 93 b9
       0.0009651469 -0.0007791409 0.00049736805 -0.00028133957
000060 55 87 52 ba 4a 1a bd 3a 38 70 b9 b9 51 e1 bb 39
       -0.00080310303 0.001442739 -0.0003536956 0.00035835293
000070 8f ff 87 39 13 c4 c1 ba ff 4f 19 3a 8c 7e 10 ba
       0.00025939613 -0.0014783166 0.0005848407 -0.0005512021
000080 7d bd d1 39 34 6a 75 b9 7f ba d3 b9 37 53 5b 3a
       0.00040004766 -0.00023404584 -0.00040384007 0.0008366587
000090 d5 1e 07 b9 34 92 af 38 06 f2 0a 39 3d 24 4d ba
       -0.00012886089 8.371883e-05 0.00013250866 -0.00078255293
0000a0 5b a7 01 3a 33 9a d0 b9 e3 2e 7b 39 36 38 1d b9
       0.00049458974 -0.0003978774 0.00023954692 -0.00014993627
0000b0 bd cf f3 b9 fa 70 4b 3a 9c 3d 2f b9 63 b2 66 39
       -0.0004650335 0.000776067 -0.00016712252 0.00022000964
0000c0 89 7e 32 39 cd 79 54 ba 43 09 92 36 22 de 5a 37
       0.00017022541 -0.0008105308 4.3522173e-06 1.3045532e-05
0000d0 39 a6 9f b7 cd 92 24 37 50 35 a5 b7 c4 71 0d 38
       -1.903168e-05 9.8093415e-06 -1.9694358e-05 3.3722972e-05
0000e0 94 f0 be b7 12 a8 4e 37 ab 65 44 b6 80 2e 9b b5
       -2.2761793e-05 1.2317689e-05 -2.9265454e-06 -1.1561933e-06
0000f0 bd 79 dd ba eb 2d 07 3b 6c ff f7 ba b7 b3 62 3a
       -0.0016897243 0.0020626734 -0.0018920726 0.00086479954
000100 80 26 32 3a c3 47 b5 ba 14 39 f9 b9 2c 32 81 39
       0.0006795898 -0.0013830591 -0.00047535507 0.00024642178
000110 d6 89 df b8 23 3a c0 3a f5 a4 e2 b9 c0 08 f0 39
       -0.000106591426 0.0014665764 -0.00043228982 0.00045782886
000120 31 4e d0 b9 6e a3 74 39 6a 5c 94 39 14 ed 1f ba
       -0.0003973111 0.00023330536 0.00028297614 -0.0006100696
000130 66 58 62 37 8c 79 74 38 89 f1 d1 b8 cb b1 0d 3a
       1.3491232e-05 5.8287333e-05 -0.00010010886 0.00054052164
000140 b0 62 f9 b9 33 c3 01 3a 3b a9 e3 b9 42 79 91 39
       -0.0004756651 0.00049500464 -0.000434229 0.000277469
000150 81 44 ba 39 69 0c 4a ba 4a d3 1a 38 2e eb f8 38
       0.00035527724 -0.0007707538 3.691324e-05 0.00011869367
000160 04 3b 09 b9 6c 7f 1c 3a 3d 65 e2 b7 7e 96 c3 37
       -0.00013087323 0.0005969915 -2.6988442e-05 2.331589e-05
000170 16 12 f6 37 43 59 ef 36 c0 ef 90 38 91 f3 4c b9
       2.9333907e-05 7.1331465e-06 6.911112e-05 -0.00019545692
000180 5f a5 c3 38 39 2f 9d b7 84 b6 2e b8 0c c9 92 38
       9.329127e-05 -1.8737848e-05 -4.1654814e-05 6.9992704e-05

Linear_Seasonal.7.bias f4 [10]
000000 f3 df 3f be 5b 1e 4a 38 88 6e 91 39 0a cb 4b 39
       -0.18737774 4.8188824e-05 0.00027738907 0.00019435227
000010 ae ab d6 38 6a cc 64 b8 fc 21 b6 ba a8 7a 44 b9
       0.00010236293 -5.454981e-05 -0.0013895626 -0.0001873771
000020 27 49 1d b9 42 f1 bf 38
       -0.00014999938 9.1525275e-05

Linear_Seasonal.8.weight f4 [10, 10]
000000 91 34 4f bb 23 bf 9b 3c e5 9a b7 bc 5e d6 b5 bc
       -0.0031617025 0.01901204 -0.022412727 -0.022196945
000010 24 65 17 3c 46 2e 1b bd c2 6a b7 bb fa 16 86 bc
       0.009240422 -0.037885927 -0.0055974433 -0.016368378
000020 0c fb ab bc 53 91 cd 3d 50 bb f0 b9 6c 12 1c bc
       -0.020993732 0.10037484 -0.00045915926 -0.0095258765
000030 a9 35 b3 3b 02 28 82 3a 50 d2 62 3b ae fc 27 3b
       0.0054690433 0.0009930136 0.003461022 0.0025632787
000040 4f 14 1b 3c 23 31 30 bc 3a 0a d1 b9 77 64 76 b9
       0.009465291 -0.010753903 -0.00039871206 -0.00023497814
000050 40 16 73 36 d0 41 29 bb c3 8f e8 3a 5e c5 a9 b9
       3.6222773e-06 -0.002582658 0.001774304 -0.00032381242
000060 69 e0 8f 3a f5 70 7b 3a 36 d6 73 3b 2c c1 a1 bb
       0.0010976914 0.0009591722 0.0037206537 -0.004936358
000070 c2 af 05 b9 c2 4f 3f 39 6a 66 16 39 f7 fe ff bb
       -0.00012749343 0.00018244892 0.00014343267 -0.0078123766
000080 ba 7c f0 3b 18 9d 1a bb 53 27 65 3b 20 6a 4b 3b
       0.0073390873 -0.002359217 0.0034966066 0.0031038597
000090 8a 21 bf 3b af ad cd bb 5e 62 14 3a bd 3c e3 ba
       0.0058328556 -0.006276808 0.000566041 -0.0017336827
0000a0 00 c8 9e b6 89 cb ed 3b 24 11 c5 bb 8a 81 a3 3a
       -4.73205e-06 0.0072569293 -0.006014006 0.0012474519
0000b0 d7 7c 50 bb d1 06 35 bb 80 bc ee bb 3e 78 0b 3c
       -0.0031812692 -0.002762247 -0.0072856545 0.008512555
0000c0 94 58 60 b8 d2 22 37 3a e2 cb 89 bb 20 b1 a7 3c
       -5.3488257e-05 0.00069860846 -0.004205213 0.020470202
0000d0 d1 c6 b1 bc 4f 32 b1 bc 76 b2 0d 3c 1d 02 17 bd
       -0.021701248 -0.021630434 0.008648505 -0.03686725
0000e0 60 a8 4c bb 4d e5 86 bc 40 c8 99 bc ad f6 bf 3d
       -0.003122829 -0.016466761 -0.018772244 0.093732215
0000f0 aa c9 cd bb 63 63 ce 3c 53 2c 98 bc 15 db e8 bb
       -0.0062801437 0.025193876 -0.018575823 -0.0071061947
000100 05 fd 82 bb 14 02 5c bc 09 87 30 3c 27 86 7c bc
       -0.0039974474 -0.01342823 0.010774382 -0.015412844
000110 42 72 f8 bb 9a 4e 22 3d 4f a0 d5 b8 fe 67 0f ba
       -0.00758198 0.03962574 -0.00010186491 -0.0005470513
000120 bb c2 13 3b 17 53 dd ba 8a a8 1c 3a 7a 7c e0 3a
       0.0022546488 -0.0016885725 0.0005976042 0.0017126941
000130 12 ee 1c bb 65 e6 e8 3a 7f a6 88 3a 31 5d 01 bb
       -0.0023945612 0.0017768858 0.0010425596 -0.0019739384
000140 58 b7 a2 bb 98 a1 b1 3c 40 09 b0 bc 0f c1 ac bc
       -0.004965704 0.0216835 -0.021488786 -0.021088151
000150 d5 ad 03 3c 02 a4 13 bd a8 4f b7 ba 8d 56 87 bc
       0.00803705 -0.036045082 -0.0013985531 -0.016520763
000160 50 89 8e bc 5b f4 b6 3d bb fa 76 39 7c 15 31 3b
       -0.01739946 0.08933326 0.00023553793 0.0027020862
000170 65 27 db ba 58 c5 48 b8 a4 2a 78 ba 9a 98 3c ba
       -0.0016720115 -4.7867507e-05 -0.0009466803 -0.000719437
000180 5d 61 60 bb a9 49 a9 3b 7a d8 cf b8 53 1d a7 b9
       -0.003423772 0.0051662517 -9.910851e-05 -0.0003187457

Linear_Seasonal.8.bias f4 [10]
000000 c6 3a cf 3c 0a 7c e3 bc 41 d0 10 bc 49 ab ef bc
       0.02529658 -0.027769107 -0.008838714 -0.02925648
000010 a7 b6 d8 3c e0 27 70 be 60 51 54 bd 6e c1 18 bd
       0.026454283 -0.23452711 -0.051835418 -0.037293844
000020 27 03 ee bd 6e cb 32 3c
       -0.11621695 0.010912759

Linear_Seasonal.9.weight f4 [10, 10]
000000 f4 93 2c b9 71 fe e3 3b ab c8 b0 bb 82 cd bd 3a
       -0.00016458315 0.006957822 -0.0053950152 0.0014480802
000010 00 c5 4e bb fe e5 1c bb e1 43 e0 bb f6 4b 0e 3c
       -0.0031550527 -0.0023940797 -0.0068440293 0.008685103
000020 45 b2 6c b9 96 28 2e 39 b2 ac 1b 39 89 5d a8 bb
       -0.00022573124 0.00016609053 0.00014846286 -0.0051381034
000030 91 ad 73 3b 82 c2 2e ba 7c 2b 1d 3b de c7 04 3b
       0.003718231 -0.0006666557 0.0023982218 0.0020260732
000040 f8 a1 d0 3b 3d d4 0a bc 08 cd 8e 37 0d ce 6c b9
       0.0063669644 -0.008473453 1.7023194e-05 -0.00022583474
000050 d0 d1 c4 38 01 ed 9c 3b 58 59 1a bb 66 14 80 ba
       9.385089e-05 0.0047889953 -0.0023551788 -0.0009771704
000060 8f 5a 18 bb f1 7d af ba 37 ac ac bb ce 4a fd 3b
       -0.0023247337 -0.0013388974 -0.005269553 0.0077298647
000070 b6 d1 d7 38 a0 0b d0 b7 28 2a 1b 39 f7 68 05 3c
       0.000102910606 -2.4800946e-05 0.00014797656 0.008142701
000080 65 f2 9b bb fc fa 19 3a 32 85 74 bb 05 a7 1c bb
       -0.0047591203 0.00058738864 -0.0037310836 -0.0023903262
000090 77 c8 f0 bb 27 4a 1f 3c c5 0f bf b9 ca eb 9d 39
       -0.007348116 0.009722269 -0.00036442108 0.0003012105
0000a0 a0 fc 13 b7 f3 e0 24 bb 31 a8 9a 3a 34 54 0b b9
       -8.820702e-06 -0.0025158494 0.0011799393 -0.00013287441
0000b0 fc 65 a0 3a 96 a0 69 3a ae e9 fe 3a 90 87 5d bb
       0.0012237425 0.0008912174 0.0019448304 -0.0033802725
0000c0 72 b3 b6 b8 1d 6c 2e 39 50 d3 c8 38 76 3e 10 b9
       -8.7118606e-05 0.00016634208 9.576103e-05 -0.00013756179
0000d0 21 e8 21 39 bf e2 4c b9 20 17 5b 38 73 b0 0d 39
       0.00015440631 -0.00019539426 5.2235206e-05 0.0001351254
0000e0 fa 02 1b 39 2e 25 57 b9 71 ad 0c b8 10 2f 81 b8
       0.00014783061 -0.00020517848 -3.354013e-05 -6.1599654e-05
0000f0 9c 1b 01 b8 c6 80 eb ba 66 c3 ac 3a 90 18 af b9
       -3.078171e-05 -0.0017967455 0.0013180792 -0.00033396902
000100 04 cf 66 3a ce 11 0f 3a eb d0 18 3b 4b 06 58 bb
       0.00088046514 0.000545767 0.0023317884 -0.0032962735
000110 ae 00 af 37 77 36 b3 38 66 2d 16 39 52 0a 90 bb
       2.0861942e-05 8.54553e-05 0.00014322027 -0.0043957615
000120 b3 a1 5c 3b d6 c4 4c ba 32 cb f5 3a fb c3 03 3b
       0.0033665716 -0.0007811313 0.0018752574 0.0020105827
000130 58 2d a7 3b 5e 36 ed bb d8 24 ef 37 fd 3d 20 39
       0.005101841 -0.007239147 2.8508177e-05 0.00015281881
000140 80 fd ff 36 4c 10 f3 3b be df 84 bb 50 c7 c5 39
       7.6291035e-06 0.007417714 -0.0040549925 0.00037723267
000150 79 fd 31 bb df fe 36 bb ec 22 c4 bb 23 57 19 3c
       -0.0027159138 -0.002792291 -0.0059856083 0.009359154
000160 f3 13 b0 39 62 32 ed b9 6a 25 c2 b8 14 2d 57 ba
       0.000335842 -0.000452417 -9.25761e-05 -0.0008208316
000170 c2 21 f9 39 ff d4 ba 38 f5 1b a6 39 c8 f6 5d 39
       0.00047518132 8.908845e-05 0.00031682817 0.00021168136
000180 d2 e2 90 3a 4b 91 dc ba 66 d0 96 38 3e d7 ce 38
       0.0011053926 -0.0016827969 7.1913746e-05 9.8629374e-05

Linear_Seasonal.9.bias f4 [10]
000000 d1 51 d2 3c 69 14 9f bc 91 2c 82 3c 57 76 cd 3c
       0.025673779 -0.019418912 0.015890392 0.025080843
000010 72 f6 fe bb 10 78 d2 39 61 44 09 bc f6 9a 90 bc
       -0.0077808434 0.00040143775 -0.008378119 -0.017652016
000020 e1 71 bb 3c 43 f8 89 bb
       0.02288145 -0.0042105033

Linear_Trend.0.weight f4 [10, 10]
000000 7a 91 af 3b 85 78 b8 3b 40 a3 aa 3b fe 62 65 3b
       0.0053579183 0.0056296014 0.005207449 0.003500163
000010 2b 51 9c 3a ac 6a d1 ba 99 3a 47 bb 0f 1b 8a bb
       0.0011926045 -0.0015977225 -0.0030399917 -0.0042146514
000020 d9 3d b6 bb 70 91 de bb 2a b3 ec bb f7 ac f4 bb
       -0.005561572 -0.00679224 -0.0072235065 -0.007466908
000030 24 32 f6 bb 86 ea fc bb 8e 24 ef bb a2 00 cb bb
       -0.0075133014 -0.007718387 -0.007298059 -0.006195144
000040 6c 27 b8 bb a5 08 90 bb d1 5f 46 bb f1 92 e3 ba
       -0.005619934 -0.0043955618 -0.0030269513 -0.0017362518
000050 f5 e1 26 bc bc 31 21 bc 66 35 21 bc 0e 9a 1f bc
       -0.010185708 -0.009838518 -0.009839391 -0.009741319
000060 9c 17 14 bc ac 6f ec bb 26 6c aa bb 80 9b 82 bb
       -0.009038832 -0.0072154608 -0.0052008806 -0.003985822
000070 db 97 5b bb 73 57 55 bb be 67 0a bc 5c fe 01 bc
       -0.003350726 -0.0032553344 -0.008447586 -0.007934179
000080 3b 85 00 bc 04 d4 f9 bb 6b 80 ed bb a0 6e b6 bb
       -0.007844265 -0.007624151 -0.0072479746 -0.0055673867
000090 8f 5a 72 bb f2 e3 2a bb 8d 2c 1f bb ff fa 31 bb
       -0.0036980247 -0.0026075807 -0.002428803 -0.0027157662
0000a0 92 71 16 bc cc ba 11 bc 44 1a 12 bc 64 ba 0a bc
       -0.009182351 -0.0088946335 -0.008917395 -0.008467291
0000b0 c7 24 f2 bb b5 b8 a2 bb 78 22 38 bb 37 d8 c8 ba
       -0.007389638 -0.0049658665 -0.0028096717 -0.0015323226
0000c0 1c 06 36 ba eb a4 c2 b9 4e ae 16 bc e5 57 0c bc
       -0.00069436594 -0.00037125437 -0.009196831 -0.008565878
0000d0 0d cb 0c bc 2c c9 1d bc 5f 20 24 bc 95 47 0e bc
       -0.008593333 -0.009630483 -0.0100174835 -0.008684059
0000e0 ae 41 de bb 7a c9 a8 bb da 4b 93 bb a8 f4 91 bb
       -0.006782732 -0.005150971 -0.004495126 -0.004454214
0000f0 de bb 31 3c b9 9d 2b 3c 7c 51 2b 3c 70 87 2a 3c
       0.010848014 0.010474616 0.010456439 0.010408267
000100 a3 36 1d 3c e5 da f9 3b 92 3f b3 3b 26 e7 89 3b
       0.009595546 0.007624971 0.0054702247 0.0042084632
000110 92 8f 60 3b 4d 0f 54 3b ae 35 21 bc a6 d0 1a bc
       0.0034265262 0.0032357753 -0.009839458 -0.00944916
000120 46 88 1a bc 16 0c 19 bc de 06 10 bc c9 82 e7 bb
       -0.009431904 -0.00934126 -0.0087907 -0.0070651514
000130 94 4b a6 bb 81 68 79 bb bc f3 57 bb 8e 72 59 bb
       -0.0050749276 -0.0038056674 -0.0032951673 -0.0033179852
000140 8e c2 05 bc 73 83 fb bb 9b d9 f8 bb 79 fd f5 bb
       -0.008164061 -0.007675582 -0.0075943 -0.007507023
000150 d8 b5 ec bb aa bf b9 bb 25 cb 71 bb 25 11 27 bb
       -0.007223826 -0.0056686 -0.0036894765 -0.0025492397
000160 37 d5 1d bb 14 cc 39 bb cd bb e4 bb 4f 00 ee bb
       -0.0024083385 -0.00283504 -0.0069803954 -0.0072632204
000170 57 60 ee bb 2c c8 f1 bb c5 13 df bb 04 50 b9 bb
       -0.007274668 -0.0073785987 -0.0068077766 -0.0056552906
000180 24 7b a6 bb 01 82 7a bb c5 d6 17 bb 25 28 6c ba
       -0.0050805975 -0.003822446 -0.0023168784 -0.00090086675

Linear_Trend.0.bias f4 [10]
000000 55 17 64 ba 1a 56 7d 3b 35 e3 4e 3b 7d cc 11 3b
       -0.00087009865 0.0038656057 0.0031568531 0.0022247129
000010 11 ee 58 3b 70 e1 60 3b 11 96 7a bb 52 10 4d 3b
       0.0033100883 0.0034314059 -0.003823642 0.0031290245
000020 f4 82 4d 3b 2d ba 80 3b
       0.0031358572 0.003928444

Linear_Trend.1.weight f4 [10, 10]
000000 86 3b 0d bc 59 be f2 bb b7 55 c8 bb 39 f8 db bb
       -0.0086201485 -0.007407945 -0.0061137336 -0.00671294
000010 c8 66 58 bb ae 49 b9 ba ec d2 e9 ba e0 4d 34 ba
       -0.0033020247 -0.0014136338 -0.0017839349 -0.00068780594
000020 80 09 41 3b 42 21 28 3c 96 bb 5c ba 9d 63 81 b9
       0.0029455125 0.0102618355 -0.00084202865 -0.00024679015
000030 63 ab fb b9 8e c5 f2 b9 14 bd 02 ba 20 3f 41 37
       -0.00048002144 -0.00046305027 -0.0004987281 1.1518394e-05
000040 66 46 b6 b9 cf 6e a5 ba 03 41 0a bb 97 15 21 bb
       -0.00034766196 -0.0012621525 -0.002109588 -0.002457952
000050 65 06 63 bb 77 5f 30 ba 40 33 12 bb e6 1a 0f bb
       -0.0034641263 -0.00067280926 -0.002230838 -0.00218361
000060 7f 90 4a bb 37 4c 38 ba ee 0e 14 bb 42 0f c8 bb
       -0.003090888 -0.00070304 -0.0022591907 -0.0061053345
000070 d3 86 2a bc b5 9b 4e bc b5 7c 90 3b 21 ea 66 3a
       -0.010408121 -0.012610366 0.0044093975 0.00088086916
000080 2e 72 df 3a 24 82 e7 3a 0e bc e1 3a 36 5c 81 ba
       0.0017047578 0.0017662686 0.0017222182 -0.00098694
000090 5c b6 a7 3a e6 56 f0 3b 18 1e 54 3c 5f f2 7a 3c
       0.0012795436 0.007334578 0.012946628 0.015316575
0000a0 b8 07 4d 3b 87 90 ff ba 0f cb b0 3b 38 27 ff 3b
       0.0031285118 -0.0019498029 0.0053953 0.0077866577
0000b0 97 88 dc 3b 54 af b6 ba 81 5a 50 3b d8 3f 97 3c
       0.00673015 -0.001393775 0.0031792226 0.01846306
0000c0 70 36 00 3d 6e e3 1a 3d ca 95 7f 3e 7d 93 57 3e
       0.031301916 0.03781455 0.24959484 0.21052356
0000d0 87 95 2f 3e e3 77 48 3e fa fb 96 3e 62 5b cf 3e
       0.17146884 0.19576983 0.29489118 0.40499407
0000e0 af 28 d7 3e f5 7a 94 3e 70 a4 0a bd 72 b8 9a be
       0.42023227 0.2900006 -0.033848226 -0.30218846
0000f0 b6 1e 33 38 01 48 50 38 1b d6 c9 38 40 53 a7 38
       4.2705527e-05 4.9658123e-05 9.624307e-05 7.978687e-05
000100 da a8 7a 38 ea e2 87 37 ea c6 e9 37 9e 61 b9 38
       5.97619e-05 1.619892e-05 2.7868391e-05 8.83967e-05
000110 54 cf e8 38 3a b2 05 39 2c 82 c7 3b 6b 61 40 3a
       0.0001110124 0.00012750263 0.0060885157 0.0007338735
000120 ee c3 81 3b f6 58 8d 3b a6 6d 9f 3b a0 a9 ef b9
       0.003960124 0.0043135835 0.004865366 -0.00045712013
000130 64 3f 59 3b fe 1f 55 3c 51 f0 b3 3c f3 85 d7 3c
       0.0033149356 0.013008116 0.021965178 0.02630899
000140 75 f0 80 bb f5 5d a1 ba e7 d3 2c bb 11 bb 2b bb
       -0.0039349147 -0.0012311327 -0.002637142 -0.002620403
000150 b8 09 2d bb 36 d8 b7 39 52 00 fa ba 14 dd f1 bb
       -0.0026403498 0.0003506557 -0.0019073582 -0.007381091
000160 34 0e 4a bc d7 e3 65 bc 62 1b cc 3b f9 4b a0 3b
       -0.012332488 -0.014031372 0.00622885 0.004891869
000170 b4 5b cd 3a 5b c8 09 3b b2 89 f4 ba a4 76 00 bb
       0.0015667588 0.0021023962 -0.0018656759 -0.0019601965
000180 16 31 64 3a 5b 5a 4a 3b 7e 0f ed 3a ad c6 91 bb
       0.0008704824 0.003087661 0.0018086282 -0.004448733

Linear_Trend.1.bias f4 [10]
000000 df 38 ad b9 15 4c 15 bb 3d 9b 1a bc 04 cf 51 3c
       -0.00033039504 -0.0022780944 -0.009436426 0.012805704
000010 52 ba ce 3c 30 0b db b9 fa de 33 39 e2 eb 9b 3c
       0.025235329 -0.0004177927 0.00017153836 0.019033376
000020 62 63 27 bc 16 c1 02 ba
       -0.010216566 -0.00049878785

Linear_Trend.2.weight f4 [10, 10]
000000 9a 6c bb bb 87 89 c1 bb 96 6a e3 bb 52 36 eb bb
       -0.0057197334 -0.005906287 -0.0069401963 -0.0071781063
000010 2f 66 fc bb a9 10 f5 bb 1e aa ef bb 94 fc e5 bb
       -0.007702611 -0.0074787927 -0.0073139807 -0.007018635
000020 12 c8 d1 bb a0 9d c0 bb 7b a0 c3 3c 64 e6 c2 3c
       -0.006402024 -0.0058781654 0.023880234 0.0237915
000030 28 97 be 3c 41 39 be 3c e0 7d c2 3c 9b c7 cd 3c
       0.023265436 0.02322066 0.023741663 0.025119593
000040 af c2 d6 3c fb 7c e2 3c 2c 00 e4 3c e4 fe e1 3c
       0.02621588 0.027647486 0.027832113 0.027587362
000050 6c ba e6 3b 6a 38 ef 3b 6f 70 08 3c 66 81 0a 3c
       0.007041266 0.0073004263 0.0083275875 0.008453703
000060 1f 45 0f 3c 56 a9 08 3c 01 1f 06 3c ca 6f 01 3c
       0.008744507 0.008341154 0.008186103 0.007900188
000070 ba 0d f4 3b 35 30 e5 3b 73 f0 29 3e 1f 69 47 3e
       0.0074479254 0.006994272 0.1659563 0.19473694
000080 fd 4b 76 3e 21 0d 8e 3e ce 6f 9d 3e e3 6b a3 3e
       0.24052425 0.27744392 0.30749363 0.3191825
000090 a3 1f a0 3e 1c c3 97 3e 5e f0 7e 3e 3d 45 50 3e
       0.31274137 0.29641044 0.2489638 0.20338912
0000a0 f4 66 96 ba 4e b7 4c ba b7 3e 1d 39 69 42 77 39
       -0.0011474774 -0.0007809297 0.0001499605 0.00023580495
0000b0 38 4c e4 b8 32 34 ab ba f5 b8 19 bb ee 86 61 bb
       -0.00010886084 -0.001306182 -0.002345619 -0.00344127
0000c0 8b 3b 88 bb 01 32 97 bb 35 56 86 3e f5 05 98 3e
       -0.0041574887 -0.004614115 0.26237646 0.29692045
0000d0 e7 1c b4 3e d3 01 cb 3e 42 91 dd 3e 74 67 e4 3e
       0.351783 0.3964983 0.43274885 0.44610178
0000e0 81 4e df 3e 3c 6c d3 3e ae 87 b4 3e 37 88 97 3e
       0.4361458 0.41293514 0.35259765 0.2959611
0000f0 dc 73 b4 3c 23 3c b3 3c f5 70 ae 3c f6 16 ae 3c
       0.022027902 0.021879261 0.021294096 0.021251183
000100 4a 29 b3 3c bb 80 bf 3c 5b 2a c9 3c ce 05 d5 3c
       0.021870274 0.023376813 0.02455633 0.026003744
000110 24 3f d6 3c 7e 2c d4 3c 16 c4 75 3e 01 d0 8b 3e
       0.026153155 0.025900122 0.24000582 0.27307132
000120 2b bb a6 3e 0b 93 bc 3e a1 4c ce 3e 02 de d4 3e
       0.32564673 0.36830935 0.40292838 0.4157563
000130 df 39 d0 3e 26 3c c5 3e db fe a7 3e 33 66 8c 3e
       0.40669152 0.38522452 0.32811627 0.27421722
000140 2a e6 91 3b a1 6f 80 3b 5e cb 49 3b f3 cc 43 3b
       0.0044524865 0.003919557 0.0030791382 0.0029876798
000150 cf cd 87 3b f9 f6 cf 3b 8d 00 01 3c 39 57 16 3c
       0.0041444073 0.00634658 0.0078736665 0.009176069
000160 32 98 13 3c 4e ab 11 3c 54 86 3a bb b7 71 4a bb
       0.009008454 0.00889094 -0.0028461413 -0.0030890533
000170 a5 55 8b bb 27 04 93 bb 98 5f 9c bb d8 08 88 bb
       -0.004252153 -0.004486579 -0.004772138 -0.004151445
000180 7b c8 77 bb ac 77 60 bb 5e 74 36 bb 0b 9a 13 bb
       -0.0037808705 -0.0034251017 -0.0027840356 -0.0022522237

Linear_Trend.2.bias f4 [10]
000000 10 b6 1d 38 f2 f8 a9 3c aa 55 5e ba 7f 8c a6 bc
       3.7601276e-05 0.02074859 -0.0008481393 -0.020330666
000010 61 80 2e bb 28 dc 8f be 50 37 9d 3c e1 b7 02 be
       -0.0026626813 -0.28097653 0.019191414 -0.12765457
000020 ed 0b c2 3b be ff 0e b9
       0.005921832 -0.00013637447

Linear_Trend.3.weight f4 [10, 10]
000000 0e dd 12 bc ba e4 12 bc c6 2c 1b bc 33 64 27 bc
       -0.008963836 -0.0089656655 -0.009471124 -0.01021676
000010 e9 09 24 bc 18 02 15 bc 62 6e 04 bc e6 9e f7 bb
       -0.010012128 -0.0090947375 -0.008082958 -0.007556784
000020 85 1b 03 bc b4 43 0e bc e8 f3 14 3c b3 a8 22 3c
       -0.008002167 -0.008683134 0.009091355 0.009927916
000030 e6 90 2c 3c 68 61 25 3c da fa f8 3b 57 3c ad 3b
       0.010532593 0.010094024 0.007598263 0.005286734
000040 28 c4 52 3b b8 15 a7 3a 28 ae 0e ba 11 d8 ca ba
       0.0032160375 0.0012747562 -0.00054428214 -0.001547577
000050 42 1f 2a bc 40 f3 26 bc 3f 6b 30 bc ae db 40 bc
       -0.010383429 -0.010189831 -0.010767757 -0.011771126
000060 a2 59 42 bc 72 01 33 bc 73 ec 0b bc 8c e6 d4 bb
       -0.01186219 -0.010925638 -0.008540261 -0.00649721
000070 9c e7 b1 bb 48 bb bb bb db 88 0e 3c 71 3a 11 3c
       -0.0054292213 -0.005729113 0.008699621 0.008864031
000080 d5 32 17 3c 25 b3 16 3c af c8 f8 3b d2 81 b1 3b
       0.009228428 0.009197985 0.0075922827 0.005417087
000090 e6 81 1e 3b f2 53 da 39 84 da 8c ba 7a 6f c0 ba
       0.0024186312 0.00041642744 -0.0010746275 -0.001468166
0000a0 d4 56 eb bb 27 ac eb bb ee fb fb bb be 10 0d bc
       -0.0071819816 -0.007192153 -0.0076899445 -0.008609949
0000b0 f2 48 0d bc 37 93 01 bc d6 0d e8 bb b6 c1 df bb
       -0.008623349 -0.007908634 -0.0070817275 -0.006828512
0000c0 4e 06 f8 bb 7b 0e 0a bc b6 bd 86 b9 e7 d6 bc 3a
       -0.007569111 -0.008426304 -0.00025699817 0.0014407308
0000d0 ad db 2d 3b 68 d6 04 3b b9 ad 23 ba 52 6c 28 bb
       0.0026528642 0.0020269398 -0.0006243843 -0.002569933
0000e0 97 be 72 bb b5 e5 a6 bb c8 12 e8 bb 4c 54 0b bc
       -0.003703987 -0.005093301 -0.007082317 -0.008503985
0000f0 73 4c c1 bb 22 34 f4 bb 9c 15 09 bc d2 ad f4 bb
       -0.005899006 -0.007452504 -0.0083669685 -0.00746701
000100 13 ff 7c bb 1c fd 45 ba 21 d2 03 3b 19 2a 95 3b
       -0.0038604185 -0.000755267 0.002011426 0.0045521376
000110 90 9d ed 3b f4 5b 10 3c ce 7c 09 bc 82 7f 06 bc
       0.007251449 0.008810986 -0.008391572 -0.008209111
000120 77 3f 13 bc 40 c1 25 bc 19 c6 2f bc f4 5f 27 bc
       -0.008987299 -0.010116875 -0.0107283825 -0.010215748
000130 98 7d 09 bc 4f 8f d4 bb 04 f1 ac bb 63 0a ae bb
       -0.00839176 -0.0064868103 -0.0052777547 -0.005311297
000140 15 91 d6 bb d5 3c c9 bb 1e 7f df bb fc e0 00 bc
       -0.006548057 -0.006141285 -0.0068205735 -0.00786614
000150 3e 32 13 bc f1 f2 10 bc 0e e8 e9 bb 1a f3 ac bb
       -0.008984147 -0.008846984 -0.007138259 -0.0052780034
000160 e3 8f 82 bb 09 20 80 bb 92 f2 8d ba 6d c6 67 ba
       -0.003984438 -0.003910069 -0.0010829738 -0.00088415184
000170 9d 70 d1 ba 8d 3a 21 bb c9 cf 84 bb de 00 a0 bb
       -0.0015978996 -0.002460155 -0.0040530902 -0.004882916
000180 e8 7a ae bb e6 99 95 bb e4 f5 87 bb 06 10 88 bb
       -0.00532471 -0.0045654653 -0.0041491855 -0.004152301

Linear_Trend.3.bias f4 [10]
000000 3c 0d eb 3b 9d 5b 9f bb de 5b e6 3b 0a b0 89 bb
       0.0071732085 -0.004863216 0.0070299944 -0.0042018937
000010 02 24 d5 3b 9c e8 33 bb 56 e1 2e 3a 70 06 ba 3b
       0.0065045366 -0.0027451878 0.0006671151 0.005677037
000020 fd 8d b9 3b 1f 41 bd 3b
       0.0056626783 0.0057755853

Linear_Trend.4.weight f4 [10, 10]
000000 ad 78 58 bb 3c 96 60 bb bc 9a 68 bb 17 9b 59 bb
       -0.0033030913 -0.0034269234 -0.003549262 -0.0033204013
000010 a8 3a 33 bb 46 7a d0 ba 4a 30 90 39 cc 3f ec 3a
       -0.0027348194 -0.0015905581 0.00027501798 0.0018024384
000020 e2 2c 16 3b 76 5b 0d 3b f1 73 9a bb da 74 90 bb
       0.0022914936 0.0021569408 -0.0047135283 -0.004408461
000030 7d 63 92 bb 25 d4 84 bb f5 ff 66 bb 55 4f 0f bb
       -0.0044674263 -0.00405361 -0.0035247777 -0.0021867354
000040 85 41 56 ba 86 03 05 3a 69 34 d9 3a 28 68 1b 3b
       -0.00081732153 0.00050740724 0.0016571406 0.0023713205
000050 9e 68 ce 3d 6c f0 a5 3d 51 3a 53 3d d7 a5 ec 3c
       0.10078548 0.081024975 0.051569287 0.028887672
000060 ef e7 8e 3c ac 54 8b 3c eb 09 b2 3c be c3 34 3d
       0.017444579 0.017008148 0.021733245 0.044131987
000070 55 75 d9 3d 67 cb 2f 3e 56 ce 8f bb 27 a5 85 bb
       0.106180824 0.17167436 -0.004388611 -0.0040785256
000080 d7 0e 8a bb 84 7d 75 bb 23 63 50 bb 37 d9 d9 ba
       -0.004213195 -0.0037458846 -0.0031797371 -0.0016620521
000090 84 d2 79 b9 d6 72 85 3a 96 5d f9 3a 25 8c 1b 3b
       -0.00023824914 0.0010181319 0.0019025083 0.0023734656
0000a0 49 e5 94 3b 2a e7 8b 3b 48 13 8e 3b 5b 91 81 3b
       0.0045439345 0.0042695003 0.0043357946 0.0039540953
0000b0 67 fd 5d 3b ce 20 05 3b c7 0c 2a 3a cb 46 2f ba
       0.0033872963 0.0020313743 0.00064868893 -0.0006686269
0000c0 1b 26 ee ba a4 9f 26 bb 8f 06 c3 3e 22 85 b1 3e
       -0.0018169315 -0.0025424743 0.3809094 0.34671885
0000d0 18 28 97 3e f7 b9 82 3e 0f 75 71 3e 05 c2 73 3e
       0.29522777 0.25532505 0.2357981 0.23804481
0000e0 e9 55 81 3e 1e d2 98 3e 5b cb d1 3e a2 f7 05 3f
       0.25260857 0.29847807 0.4097546 0.5233098
0000f0 c6 b2 9a 3e 63 dc 8a 3e 7b 1d 66 3e 0c 40 41 3e
       0.30214518 0.27121267 0.22472183 0.18872088
000100 e7 ff 2e 3e 28 54 30 3e c2 66 3c 3e be 47 65 3e
       0.17089806 0.17219603 0.18398574 0.22390649
000110 be b9 a5 3e ef 42 da 3e 22 b8 c1 3e 4e 12 b0 3e
       0.32368273 0.4262919 0.37835795 0.34388965
000120 4a 7f 95 3e 08 e8 80 3e 6c be 6d 3e ba 32 70 3e
       0.29198676 0.25177026 0.23217171 0.2345685
000130 8a 62 7f 3e 1d 74 97 3e a2 f8 d0 3e eb d1 05 3f
       0.24939933 0.29580775 0.40814692 0.52273434
000140 76 67 ba 3e 16 1e a9 3e 70 18 8f 3e 83 dd 75 3e
       0.3640706 0.33030766 0.27948332 0.24010281
000150 42 20 62 3e 0e 4f 64 3e e1 d4 72 3e 46 7d 90 3e
       0.22082618 0.22295782 0.2371402 0.28220576
000160 ee b2 c8 3e a1 0f 01 3f af b4 70 3e 14 bc 53 3e
       0.39199013 0.5041447 0.23506425 0.20677215
000170 e2 49 28 3e b5 a8 06 3e f8 bc eb 3d 8f ef ec 3d
       0.16434434 0.13150294 0.11510652 0.1156913
000180 f3 47 00 3e ad 4c 24 3e 23 7a 80 3e 5b 79 b0 3e
       0.12527446 0.16044874 0.25093183 0.34467587

Linear_Trend.4.bias f4 [10]
000000 82 01 0a 3b f3 31 cd 3b b2 b5 90 bd 19 16 c8 3b
       0.0021058028 0.006262058 -0.07065906 0.00610615
000010 c8 ca c9 bb 10 54 31 bd 9b 77 cb 3d ca ed fa bd
       -0.0061582066 -0.04329306 0.09934922 -0.12252386
000020 13 59 2f bd 5c bf 79 be
       -0.042809557 -0.24389404
