checkpoints/all_LinearFlatten_BCE_100epochs_종가_거래대금_거래량볼밴_이등분선_checkpoint.pth (torch, 27984 bytes, 3 tensors)

fc1.weight f4 [64, 100]
00000000: 0c9e 92bc 90c3 cd3c e74b 76bd 3c94 26bc
00000010: c83c 93ba 94e9 f63c fe86 963d c90a 54bd
00000020: 4d21 afbd dd3b 40bd 84e3 293d 1954 0cbd
00000030: 6ca4 34bd becd 853d 8ba3 0a3c 20f6 f83d
00000040: c2f8 113b 4fc8 dcbc a89d 323c 3241 c0bd
00000050: 6050 0b3c 7d20 843d ff5f 823c 3dad 553d
00000060: dc0c 60bd cccd 603d 8403 743c 67f5 38bd
00000070: 1e2c bcbc c26c 6e3d af55 dd3c ee3a 5d3d
00000080: 76a8 f03c 790c 8cbd cfb0 3fbd db4e 27bd
00000090: fa2d 953d 1089 12bd 9a69 12bc 2a6a 373d
000000a0: 4d81 743d 3f98 933d 040d 1f3d 88b5 11bd
000000b0: 0b10 1c3d 6d01 4f3d b4a5 893d 40be 673c
000000c0: 3bdb b3bd f980 123d c8ad 64bd e997 dc3c
000000d0: ea05 923d 4c5c 43bd 6653 003c 1af4 883d
000000e0: d266 0e3d dad9 10bd 3b55 50bd 96d0 75b9
000000f0: 5e1e 193d 1fbd 0d3d 96cd 583d e8fa 933c
00000100: cae6 15bd b6c6 c3bc 2583 8abd 9a67 3fbd
00000110: 38ea bdbd da8a ae3b 8f27 a3bd bab8 7d3d
00000120: fec3 ad3d bb84 92bc 1d15 ccbd 92ed e8b9
00000130: 9477 803d 9b0a 5abd f39c c6bc 27ea e2bc
00000140: 2ca6 40bb f6dc 8f3b a7f0 01ba fc91 4bba
00000150: feb9 a9bd 8c4e a639 25c4 16bc 3940 7ebd
00000160: 3275 04bd deca c9bd afc5 d0bd 1d7e 8cbd
00000170: ea38 243d 0e2c 31bd 9233 1abe 202b 18bc
00000180: 268f 4cbd de47 c6bd 4c95 d5bd 729e d7bd
00000190: 8a8a d5bc 9d46 c63d 979b 2d3d 9523 ddbd
000001a0: a3de 063c 2758 f53d 3d6a e8bc d5ec 7ebb
000001b0: 6c08 f83c fdb5 d3bd 71a9 c2bc 6703 683d
000001c0: 1ae7 963d 50ff 333c 257b 25bd ff53 373d
000001d0: 2a7b d23d a81a 653a f77a a4bd e260 b8bd
000001e0: b180 33bd e88c 373d 12fe 623d 0a38 ee3c
000001f0: 8b01 a4bd da49 643d bf67 703d 57d0 12bd
00000200: 354c 81bd 1c61 743d 96e3 393d 3303 b63d
00000210: 3175 33bd b1ac f23c d5ce 30bd 349b 613d
00000220: 7210 e5bb 8707 0e3d 9b4b 8fbd 40c3 d3bd
00000230: 1cc4 82bd 8668 783d 7221 96ba e2b3 18bd
00000240: a034 b1bd d69d f03d 5154 9e3d 3c77 a73c
00000250: 1fbf b5bd 07b8 57bd d3e7 d6bd c26b 033e
00000260: 5d10 4e3d 42fe a8bd efc6 a8bd a76a dbbc
00000270: 2536 5f3c 567a 8e3c 37e4 aa3c 32c9 b3bb
00000280: 93f7 a8bb 0e34 0e3e 39f0 453d 0084 90bd
00000290: 49d9 02be 2bfe 6d3d 6eea 1a3a e9cd a4bc
000002a0: 8935 af3c 40cc 8cbc e7e8 203d 56d1 c43c
000002b0: dabd d53c 9c72 8b3c 8aee 833c eb93 0ebd
000002c0: 0966 9a3d b929 01bc 7ef2 f8bd 97ba abbd
000002d0: 2f20 8dbd 54bc 7a3d bb7a f83c 06f6 9fbc
000002e0: 0421 bebd ffc5 7b3d 5146 03bd e5ee 57bd
000002f0: 10e8 8cbd 6537 c6bc f1eb 9fbd 34de 423c
00000300: 5947 773d ceab acbc 2ff0 0bbe c75d cc3d
00000310: 63dc 693d dc14 a8bd f6b0 c1bb 0420 71bd
00000320: 6ec6 83bd 4bdf e73c 9f3a 87bc 4674 5dbd
00000330: 2e14 13bc ff8a 973d d4d8 963d b971 63bd
00000340: 1d09 ff3c dc98 5fbd 29fd 403d 3429 243d
00000350: a324 243d 6c62 753d d038 bcbd 9947 d53d
00000360: e11c acbc 4cde c0bc 5647 3abd 8fe5 323d
00000370: 6cd4 83bd 3755 fe3c ffe9 0fbd 97de 183c
00000380: 8499 d5bd 4a60 ff3c aa16 643d ba4c 4cbb
00000390: 3b42 30bd e0b9 55bd e4aa 11bd 1b26 893c
000003a0: 640a 0abd 4184 a53c 0401 eb3b f659 183c
000003b0: 5c0c cbbc b4e6 b3ba b034 65bd fd17 3d3d
000003c0: d080 7f3d c390 1d3d 7213 aa3c 4ed9 9fbc
000003d0: 9113 cdbc 23e8 d9bc 9cd9 e23b 0c63 debc
000003e0: 63ef fabd 2674 85bb 3880 4cbd 7b5a 023d
000003f0: be2f 3e3c 5fde 6fbd 7327 12bd e7ed 493d
-0.017897628 0.025117666 -0.06013098 -0.010167178 -0.0011233324 0.030140676 0.073499665 -0.051768098
-0.085512735 -0.04693209 0.04147674 -0.03425989 -0.044102117 0.06533383 0.008461843 0.121563196
0.0022273515 -0.026950983 0.010901846 -0.09387435 0.00850305 0.06451509 0.015914915 0.052167166
-0.054699764 0.054883763 0.014893416 -0.04515591 -0.022970255 0.05820919 0.027018396 0.054011278
0.029377203 -0.068383165 -0.046799477 -0.040846687 0.0728416 -0.035775244 -0.00893631 0.04477898
0.059693623 0.07206773 0.038830772 -0.035573512 0.038101237 0.05053847 0.067210585 0.01414448
-0.08782049 0.03576753 -0.055829793 0.026927905 0.07130034 -0.047695443 0.007832384 0.06687184
0.034766026 -0.03536401 -0.050862532 -0.00023442725 0.037382476 0.034604188 0.052930437 0.018063977
-0.03659705 -0.023898464 -0.06763295 -0.04672966 -0.09273189 0.005326611 -0.079665296 0.061943747
0.08484648 -0.017885556 -0.099649645 -0.00044427492 0.06272808 -0.05323277 -0.024244761 -0.027699543
-0.002939592 0.0043903543 -0.00049568195 -0.0007765589 -0.08287428 0.0003172051 -0.009202038 -0.062072966
-0.03233833 -0.09853147 -0.10193955 -0.06859992 0.04009334 -0.043254904 -0.15058735 -0.009287626
-0.049941204 -0.09681676 -0.10428867 -0.10528268 -0.026067037 0.09681437 0.04238471 -0.10797802
0.008231792 0.11979704 -0.02837097 -0.0038898487 0.030277453 -0.10337446 -0.023762437 0.05664387
0.07368298 0.010986164 -0.040400643 0.04475784 0.10277398 0.0008739629 -0.08031266 -0.09002854
-0.0438239 0.044812113 0.05541808 0.029079456 -0.08008107 0.055734493 0.05869269 -0.03584322
-0.063133635 0.059662923 0.04538306 0.08887329 -0.043812934 0.029623361 -0.043166 0.055079654
-0.006990486 0.034675147 -0.069968425 -0.10339975 -0.06385061 0.060646556 -0.0011454059 -0.037280925
-0.086526155 0.11748855 0.07730926 0.020442598 -0.08874344 -0.052665737 -0.10493436 0.12834075
0.050308574 -0.08251621 -0.082410686 -0.026784254 0.013623749 0.017392319 0.020860774 -0.005486631
-0.0051564663 0.13887045 0.048324797 -0.07056427 -0.127782 0.05810372 0.00059095665 -0.020117717
0.021387832 -0.017187238 0.039284613 0.0240256 0.026091505 0.017022423 0.016104955 -0.034809034
0.07538993 -0.007883483 -0.12155627 -0.083851986 -0.06890904 0.06121476 0.03033196 -0.019526493
-0.09283641 0.06146812 -0.03204948 -0.052718062 -0.068802 -0.024196336 -0.07808674 0.011893798
0.060370777 -0.021078017 -0.13665842 0.09978824 0.057094943 -0.082071036 -0.005910988 -0.058868423
-0.06434332 0.028304717 -0.016507445 -0.054065965 -0.008976979 0.07399558 0.073655754 -0.055528376
0.031132275 -0.054589137 0.047116432 0.040078357 0.040074002 0.059908316 -0.091905236 0.10414047
-0.021009864 -0.0235435 -0.045478188 0.043675955 -0.06437001 0.031046493 -0.035135265 0.009330413
-0.104296714 0.031173844 0.055685677 -0.0031173662 -0.043031912 -0.052179217 -0.035563365 0.016741803
-0.033701316 0.020204665 0.007171752 0.009298792 -0.024786167 -0.0013725371 -0.05595845 0.046165455
0.062378705 0.038468134 0.020761225 -0.019512799 -0.025033744 -0.02659995 0.0069229137 -0.027146839
-0.12252691 -0.004072684 -0.049926966 0.03182457 0.011608062 -0.05856168 -0.035682153 0.049299147

fc1.bias f4 [64]
00000000: f408 7bbc ee36 723b 0928 ffbc 7a5b 96bd
00000010: 90e8 0abd 01e8 84bd d590 47bd 6252 d2bb
00000020: 85bd 87bd 41ae d8bb a015 4e3d d073 8d3c
00000030: b979 2cbd fa4d aebb e38e 433d 6667 4ebc
00000040: 6219 92bd 56e0 6d3d 11ff 86bd f2e2 56bd
00000050: f091 943d 30b9 913c d390 b0bb 4b60 df3c
00000060: d6be 8c3d 0b08 8b3d e791 24bc 4341 903c
00000070: 4276 2abd 98ee 3f3d 52fc b1bd 6c47 81bc
00000080: 9789 7f3d d29a 93bc f109 953c d245 28bd
00000090: de7d 4a3d 1987 b2bb a5c1 ebbc 1283 043d
000000a0: 00c0 98bc 88a7 8bbc a46c 9cbd 7157 983d
000000b0: 1caa 15bd e467 7f3c ace2 be3c 7206 60bd
000000c0: 7933 343d 99fc 10bd 8765 0ebd 6104 993d
000000d0: 3367 a93d 0ec0 aa3d 0d53 663d ad14 ac3d
000000e0: f74a 67bd 15eb 38bd 2705 4ebd d61e 993c
000000f0: cd35 9c3d dd8f 753c 1f3b 0b3d eb9d 8f3d
-0.015321959 0.003695901 -0.03114702 -0.073416665 -0.033913195 -0.06489564 -0.048722107 -0.006418512
-0.06627945 -0.0066125696 0.050313592 0.017267138 -0.04210827 -0.005319354 0.04774369 -0.012597894
-0.07133748 0.05807527 -0.06591619 -0.052462526 0.07254398 0.0177885 -0.005388358 0.027267596
0.068723366 0.067886434 -0.010044551 0.017609244 -0.041616686 0.0468584 -0.086907044 -0.015781127
0.062387075 -0.01801816 0.018193217 -0.04108221 0.049436443 -0.005448234 -0.02877886 0.03235156
-0.01864624 -0.017047659 -0.07637909 0.07438553 -0.036539182 0.015588734 0.023301445 -0.054693647
0.0439944 -0.035397146 -0.034764793 0.07471538 0.08271637 0.08337413 0.056231547 0.08402381
-0.056467976 -0.045146067 -0.050297882 0.018691462 0.07627449 0.014987913 0.03399193 0.07012542

fc2.weight f4 [1, 64]
00000000: dcff 193d 6d1b 883d 1b87 053d aa85 18bd
00000010: d576 453d d78e 1dbd c5d4 3dbd 2f71 ce39
00000020: 986a 55bd 9e80 6238 68c4 533d 6bba 9a3b
00000030: f5ce 26bd 91f0 31bd 8676 41bd 697d 50bb
00000040: 3de4 3dbd 48cf c63b 9a55 34bc abc8 66bd
00000050: 908d 663d 77fd 92b9 c342 4b3b d7a5 113d
00000060: 16b4 1e3d 8e37 65bd a692 893d a343 76bd
00000070: 778b f2bc 7a29 873d 58e2 6ebd e858 a338
00000080: 20f7 693d ae5a cabc 581d 54bd e053 c73a
00000090: af56 25bd 6880 9f3c 8a27 503d 34b1 1a38
000000a0: e3b6 303d 1ba7 513d 605f 1ebd 1b2b 223d
000000b0: 1367 8cbb dc9f 693d 5c46 a1b9 7e25 83bc
000000c0: 10b3 533d f691 513d 2e36 57bd 64ba 8f3d
000000d0: 2271 f53c bde5 463d 4b56 223d 2167 5f3d
000000e0: a03d 07bd 0112 7f3d d5f2 5fbd 6164 303b
000000f0: e879 ac3b 2788 3e3b 9afc 153d e649 693d
0.037597522 0.06645856 0.03259955 -0.037236847 0.04820903 -0.0384663 -0.04634549 0.0003937571
-0.05210361 5.4002383e-05 0.05170098 0.00472193 -0.040724713 -0.043442313 -0.047232173 -0.0031813032
-0.046360243 0.0060671903 -0.011006737 -0.056343716 0.05628735 -0.00028036136 0.0031015135 0.035558548
0.038745962 -0.055961184 0.06717424 -0.060123097 -0.029607518 0.06599708 -0.058321327 7.789006e-05
0.057120442 -0.024701443 -0.051785797 0.0015207492 -0.04036587 0.019470409 0.050818957 3.6881494e-05
0.043143164 0.051184755 -0.038665175 0.03959189 -0.0042847483 0.05703722 -0.00030760735 -0.016009089
0.05168444 0.05116459 -0.052541904 0.07017973 0.029961172 0.04855894 0.039633077 0.05454171
-0.033017755 0.06227303 -0.054674942 0.00269153 0.005263556 0.0029072852 0.036617853 0.05695524
