checkpoints/all_LSTM_BCE_100epochs_종가_거래대금_거래량볼밴_주가볼밴_이등분선_checkpoint.pth (torch, 217336 bytes, 9 tensors)

lstm.weight_ih_l0 f4 [256, 13]
0	0xbdcc1999	-0.0996582
1	0xbd3a87b7	-0.045539584
2	0xbdc601f3	-0.096683405
3	0x3bc61a9a	0.0060456516
4	0xbdbc5634	-0.091961294
5	0xbe4ce3e9	-0.20008816
6	0xbe00e121	-0.1258588
7	0xbc78d953	-0.015188533
8	0xbda9d471	-0.08292473
9	0xbdf5747c	-0.11985108
10	0xbd8f36c6	-0.06992869
11	0xbded3d9e	-0.11584018
12	0x3da0281b	0.078201495
13	0x3d926b6d	0.07149396
14	0xbc1b8f9b	-0.009494687
15	0x397de7b5	0.00024214278
16	0x3ce1717b	0.027519932
17	0x3de16f2b	0.11007532
18	0xbd383cc4	-0.044979826
19	0x3d16b41c	0.03679286
20	0xbd0e01d1	-0.0346697
21	0x3e1f1fcc	0.15539473
22	0x3db9e1fb	0.090763055
23	0x3c8768cb	0.016529461
24	0xbc6af5d6	-0.014340838
25	0x3dff09ce	0.12453042
26	0x3dc1edeb	0.094692074
27	0x3d2f3aeb	0.042780798
28	0x3da87ee9	0.08227331
29	0x3d5e45e3	0.054265868
30	0x3dd3086e	0.10304342
31	0x3d0de07f	0.034637924
32	0x3da6a570	0.081370234
33	0xbc52f5eb	-0.012876014
34	0x3d1d365e	0.038381927
35	0x3d156e5c	0.0364822
36	0xbc218208	-0.009857662
37	0x3c79629b	0.015221263
38	0x3c798461	0.0152293155
39	0x3cbab54e	0.022791531
40	0x3ca68d4b	0.020331046
41	0x39bb182c	0.0003568543
42	0x3d032755	0.03201993
43	0xb883e2bc	-6.288799e-05
44	0x3cb7d790	0.022441655
45	0x3ca51d65	0.020155618
46	0xbc073214	-0.008251686
47	0xbcf0f886	-0.02941538
48	0xbd5dd397	-0.054156866
49	0xbd21a4f6	-0.03946396
50	0xbafdc306	-0.001936049
51	0xbd8a641e	-0.06757377
52	0xbd442f59	-0.047896717
53	0xbe4d9ae4	-0.20078617
54	0xbd7b83c7	-0.06140497
55	0xbb89a3a1	-0.0042004143
56	0x3e01e706	0.12685785
57	0xbe0de48d	-0.13856716
58	0xbdf42afd	-0.11922262
59	0x3e18d781	0.14925958
60	0x3da81eef	0.08209025
61	0x3e6d6015	0.23181184
62	0xbbd2a72b	-0.0064286194
63	0xbd910076	-0.07080166
64	0x3e142e9b	0.14470904
65	0xbc60912b	-0.013706486
66	0xbc0571be	-0.008144794
67	0xbbd5df9d	-0.006526901
68	0x3dfde5eb	0.12397369
69	0x3dc9003b	0.09814497
70	0xbc38d996	-0.011282345
71	0x3cb1e67e	0.021716353
72	0x3c17cd9e	0.009265332
73	0x3e0735f0	0.1320417
74	0x3d653f47	0.05596855
75	0xbd274172	-0.040833898
76	0xbce95381	-0.0284822
77	0x3d520be2	0.051280864
78	0xbd6fa8a2	-0.05851043
79	0xbc28a442	-0.010293068
80	0xbd8ce4c8	-0.06879574
81	0xbd522527	-0.051304962
82	0xbd91d315	-0.07120339
83	0xbd423c4f	-0.047420796
84	0xbd3943a2	-0.045230515
85	0xbb233966	-0.0024906038
86	0xbcd853be	-0.026407119
87	0xbd5b9f53	-0.05361874
88	0xbdb8f834	-0.09031716
89	0xbdd58e75	-0.10427562
90	0xbd6ba5d4	-0.057531193
91	0xbd4ff958	-0.050774902
92	0xbdcaf3f4	-0.099098116
93	0xbd0e9fae	-0.03482025
94	0xbda8bd0b	-0.08239182
95	0xbe128815	-0.14309724
96	0xbe1ea806	-0.15493783
97	0xbe5aaf92	-0.21356037
98	0x3c4578af	0.012052699
99	0xbd0265a7	-0.031835224
100	0xbdca9902	-0.09892465
101	0xbe230820	-0.15921068
102	0xbe449cf8	-0.19200504
103	0xbccf8e38	-0.02533637
104	0x3e77d374	0.24201757
105	0x3dfe4e64	0.124172956
106	0x3e5b5190	0.21417832
107	0x3e4843d2	0.19557121
108	0x3e8a53c6	0.2701704
109	0x3da32104	0.079652816
110	0x3db1916f	0.086703174
111	0xbd99de1b	-0.075130664
112	0x3d07d751	0.033164326
113	0x3dab70f0	0.083711505
114	0x3daed920	0.08537507
115	0x3e191fc8	0.1495353
116	0x3c8375b9	0.016047345
117	0xbcb7a19a	-0.022415925
118	0xbca1d1e2	-0.0197534
119	0xbd27eaa8	-0.04099527
120	0x3c031e38	0.00800281
121	0x3c990a29	0.018681603
122	0xbc8f7c6f	-0.01751539
123	0x3bd9278c	0.006627029
124	0xba8dbcd0	-0.0010813717
125	0x3cfc14ee	0.030771699
126	0x3cc697c2	0.024242286
127	0xbb64c7bc	-0.003490909
128	0xbd450854	-0.048103645
129	0x3db187f9	0.08668513
130	0x3b638bf1	0.0034720863
131	0xbd866feb	-0.065643154
132	0x3cb30e65	0.02185745
133	0x3ce1d183	0.027565723
134	0xbac48a89	-0.00149949
135	0x3baf4976	0.0053493334
136	0x3d08d3cc	0.03340511
137	0x3bf979f2	0.007613414
138	0x3d930f23	0.071806215
139	0x3e0c83cc	0.13722152
140	0x3e2548da	0.16141072
141	0xbb87f9d4	-0.004149655
142	0x3d8c6ce0	0.06856704
143	0xbcc06904	-0.023487575
144	0xbbf6d8a2	-0.007533149
145	0xbc6f8a92	-0.01462044
146	0xbb881044	-0.0041523296
147	0xbcc72437	-0.02430926
148	0xbd166dee	-0.03672593
149	0xbcfe3363	-0.031030362
150	0xbbfc1544	-0.0076929647
151	0xbc7557c7	-0.014974541
152	0xbd712493	-0.05887277
153	0xbc1984c7	-0.0093700355
154	0xbd0f40d5	-0.034973938
155	0xbcc5f961	-0.024166765
156	0x3dee6aa0	0.11641431
157	0x3d815f53	0.0631701
158	0x3df54ab7	0.11977141
159	0x3dae0202	0.08496477
160	0x3caa93c9	0.020822423
161	0x3cead08b	0.028663894
162	0x3d160fc9	0.036636148
163	0xbc936766	-0.01799364
164	0x3d6e87b0	0.05823487
165	0x3e071865	0.131929
166	0x3ddcc63c	0.10779998
167	0x3dbcd59c	0.0922043
168	0x3dfe8ee8	0.12429601
169	0xbd3d5186	-0.046220325
170	0xbbb6b036	-0.005575205
171	0xbb8cf5b8	-0.004301753
172	0xbd22c532	-0.03973884
173	0xbc015d18	-0.00789573
174	0x3c3667bc	0.011133131
175	0x3d13fdef	0.03613084
176	0xbb6f0edf	-0.003647737
177	0x3c9c3d43	0.01907218
178	0x3cae6ef1	0.021293135
179	0xbd40dcc9	-0.047085557
180	0xbdd9b7af	-0.10630738
181	0x3c80e41e	0.015733775
182	0xbd2c21d3	-0.042024445
183	0xbdb0011e	-0.08593963
184	0xbd8cec85	-0.0688105
185	0x3a9d103a	0.0011982985
186	0x3dadf72d	0.08494411
187	0xbdba2ac0	-0.09090185
188	0x3ccdbf30	0.02511558
189	0x3d7078d9	0.058709
190	0x3dbf8470	0.09351432
191	0x3dd5ddd0	0.10442698
192	0xbd33854b	-0.04382829
193	0xbd957aa1	-0.0729878
194	0x3e336ec1	0.17522718
195	0xbcebe86e	-0.028797355
196	0xbb92702e	-0.0044689393
197	0xbd012697	-0.031530943
198	0xbcc832c9	-0.024438279
199	0xbd0a2491	-0.03372628
200	0x3c2dc134	0.010605145
201	0x3c29bea2	0.010360392
202	0xbc447336	-0.011990359
203	0xbd0d82d4	-0.034548596
204	0xbd31a349	-0.04336861
205	0xbd20b272	-0.03923268
206	0xbcf8b761	-0.03036088
207	0xbd10f660	-0.03539121
208	0x3d3803da	0.044925548
209	0xbde745a6	-0.11292581
210	0x3c85b3c7	0.016321076
211	0x3d96c5e1	0.07361961
212	0x3d4bf7de	0.04979693
213	0xbda5d600	-0.08097458
214	0xbd52b7e4	-0.051444903
215	0xb9f125b9	-0.00045995208
216	0x3e308265	0.17237242
217	0x3d9f8fa5	0.0779107
218	0x3d21d022	0.03950513
219	0xbd7bfcb9	-0.061520312
220	0x3d04437c	0.03229092
221	0x3c1be233	0.009514379
222	0x3c06f533	0.008237171
223	0x3b29faf2	0.0025936929
224	0x3c63b38f	0.013897791
225	0xbbf2c47b	-0.007408676
226	0x3ba2bf8a	0.004966681
227	0x3c16268b	0.009164463
228	0xbbb2cc07	-0.005456451
229	0xbc01e429	-0.007927933
230	0x3c8cd81c	0.017192893
231	0xbca792f2	-0.020455811
232	0xb991d55e	-0.00027815526
233	0xbc8954c3	-0.01676405
234	0xbd04a7da	-0.03238664
235	0x3c30aee5	0.010783886
236	0xbd071fef	-0.03298944
237	0xbd05c7b8	-0.03266117
238	0xbd0c7a29	-0.03429619
239	0x3bdd531b	0.0067542917
240	0x3c04cd92	0.008105652
241	0xbc332650	-0.010934427
242	0xbc945baa	-0.018110115
243	0xbcee4ac7	-0.029088391
244	0xbd10ab00	-0.03531933
245	0xbd07244d	-0.032993603
246	0xbd1937a8	-0.037406594
247	0xbd32a4db	-0.04361425
248	0x3d0319ec	0.032007143
249	0xbdd1ab02	-0.10237695
250	0xbca62dc0	-0.020285487
251	0xbdabe5f5	-0.0839347
252	0xbd4090a9	-0.04701296
253	0xbc3fe8f4	-0.011713255
254	0xbca54f7f	-0.020179508
255	0xbd8f63f1	-0.07001484

lstm.weight_hh_l0 f4 [256, 64]
0	0xbd7d63b1	-0.06186265
1	0x3c0bd21a	0.008533979
2	0x3bb27436	0.0054459823
3	0x3d1cf441	0.038318876
4	0x3c1b55d9	0.009480917
5	0xbc1ea066	-0.009681797
6	0x3c887600	0.01665783
7	0xbd1fc78e	-0.03900867
8	0xbdb25652	-0.087078705
9	0x3c922aa6	0.017842602
10	0xbb834832	-0.004006409
11	0x3cfda2a5	0.030961344
12	0xbc45b382	-0.012066724
13	0x3ac2db27	0.0014866338
14	0xbc173f1a	-0.009231353
15	0xbcef1965	-0.029186914
16	0xbbef4ef0	-0.0073031113
17	0xba1a4d80	-0.0005886182
18	0x3ccbf7bf	0.024898408
19	0xb9414b63	-0.00018433998
20	0xbc19cde2	-0.009387465
21	0x3c7d89a9	0.015474715
22	0xbc643ce7	-0.013930536
23	0xbdea92c1	-0.11453772
24	0xbc990115	-0.018677274
25	0x3cafe6ac	0.021472298
26	0x3d4d5b01	0.050135616
27	0xb8038eb0	-3.1365722e-05
28	0x3b802d3a	0.0039116414
29	0x3c7d6585	0.015466099
30	0x3cfd6230	0.030930609
31	0x3d12893b	0.035775404
32	0xbd3e38a0	-0.04644072
33	0xbce2cfa8	-0.027686909
34	0xbd174ebe	-0.03694033
35	0xbd11235a	-0.035434105
36	0x3dbd5b5c	0.09245941
37	0xbc782805	-0.01514626
38	0x3c2f722a	0.010708371
39	0x3cbf4f6a	0.023353297
40	0x3c8950da	0.016762186
41	0x3c232c7f	0.009959339
42	0x3d351343	0.044207823
43	0xbc6dd551	-0.014516191
44	0x3cc09dca	0.02351274
45	0x3c085dd6	0.0083231535
46	0xbc8d8a05	-0.017277727
47	0xbd2928bb	-0.04129861
48	0x3b2d946a	0.0026486167
49	0x3d929d64	0.07158926
50	0x3d8294d2	0.063760415
51	0xbc9c7906	-0.019100677
52	0x3ce0856f	0.027407376
53	0x3d0d5b5b	0.03451095
54	0xbcbb1f3f	-0.022842048
55	0xbc1c8bb6	-0.009554794
56	0x3d07a6d2	0.033118077
57	0x3d04369c	0.032278642
58	0x3caf95a5	0.02143366
59	0xbc1f0a38	-0.009707026
60	0xbbae7068	-0.0053234585
61	0xbc7f5d47	-0.015586204
62	0x3cafd6e6	0.021464776
63	0x3cbb1750	0.022838265
64	0x3c9ce220	0.019150794
65	0xbdb97472	-0.09055413
66	0xbc13ad0f	-0.009013428
67	0x3b308310	0.0026933588
68	0xbdeaa799	-0.11457748
69	0xbd60b1c9	-0.05485705
70	0x3cd8693d	0.026417369
71	0xbb83a703	-0.004017712
72	0xbd27d674	-0.040976003
73	0xbac55e14	-0.0015057945
74	0x3d39a62b	0.045324486
75	0x3b40c0e0	0.0029411837
76	0x3c50def4	0.012748469
77	0x3b6090ab	0.0034265916
78	0x3d538122	0.051636823
79	0x3c22f507	0.009946114
80	0xbcbc263b	-0.022967448
81	0xbc75f9f8	-0.0150132105
82	0x3c8e9217	0.017403645
83	0x3ccd9be1	0.025098743
84	0xbcee51e9	-0.029091792
85	0x39e90749	0.0004444665
86	0xbc6794b4	-0.014134575
87	0x3d878947	0.066179805
88	0x3c42d1a8	0.011890806
89	0xbceb6a0f	-0.028737096
90	0xbc986d4a	-0.0186068
91	0x3b3e6186	0.0029049828
92	0x3d32698c	0.04355769
93	0xbd71a224	-0.05899252
94	0x3dad5893	0.0846416
95	0xbd260038	-0.040527552
96	0xbd30e866	-0.043190382
97	0x3e360be7	0.17777978
98	0x3ca2ddfc	0.019881241
99	0x3d71edb5	0.059064586
100	0x3cadf6fd	0.021235937
101	0x3d4f1fcb	0.05056743
102	0xbd210ac0	-0.039316893
103	0x38a3e534	7.815138e-05
104	0x3c848105	0.016174803
105	0x3c9fc7ea	0.019504506
106	0xbd155eb9	-0.036467288
107	0xbd2f8ffc	-0.042861924
108	0x3d1f44ea	0.03888408
109	0x3c146e45	0.009059493
110	0x3b29fa29	0.002593646
111	0x3d60173a	0.05470965
112	0xbe131ba8	-0.14366019
113	0xbd02a180	-0.0318923
114	0xbd1c0727	-0.03809276
115	0xbb92715a	-0.004469079
116	0xbd2b00c1	-0.041748766
117	0xbda4b55e	-0.080424055
118	0x3d92c2f5	0.07166091
119	0xbc3610ab	-0.011112372
120	0xbd171619	-0.03688631
121	0xbca0b983	-0.019619709
122	0xbbd738e4	-0.006568061
123	0x3c35be7c	0.011092778
124	0x3c8bc58c	0.017061971
125	0xbcd644c6	-0.02615584
126	0x3cf480ab	0.02984651
127	0x3d3bb78d	0.045829345
128	0x3c0459e9	0.008078077
129	0xbba0da15	-0.00490881
130	0x3b709351	0.0036708901
131	0x39b4764a	0.00034420408
132	0xbcada3c4	-0.021196254
133	0xbb95efab	-0.00457569
134	0x3c9abe13	0.018889463
135	0xbba8659a	-0.005139065
136	0x3d81b2ea	0.06332953
137	0xbba4601a	-0.005016339
138	0x3be0211a	0.0068398835
139	0xbc93bc43	-0.018034106
140	0x3c03b630	0.008039042
141	0xbcc80733	-0.024417495
142	0xbb944f51	-0.004526057
143	0xbc120dfe	-0.008914469
144	0xbc9af0d8	-0.018913671
145	0x3b99d5e8	0.004694689
146	0x3bc2d167	0.005945373
147	0x3cc75d46	0.024336468
148	0xbc4fe135	-0.012687971
149	0x3d40358b	0.046926063
150	0xbccc602d	-0.024948204
151	0xbc771146	-0.015079802
152	0xbc06a720	-0.008218557
153	0x3cac1681	0.021006824
154	0xbbda429c	-0.0066607725
155	0x3bc371b5	0.0059644827
156	0x3c584400	0.013199806
157	0xbc380b48	-0.011233158
158	0xbbcf9a06	-0.0063354997
159	0x3b375fdd	0.0027980723
160	0xbc7a41d1	-0.015274481
161	0x3d230838	0.03980276
162	0x3c1068b0	0.008814022
163	0x3cbd9427	0.023141934
164	0xbd1b2e07	-0.037885692
165	0x3cd40abb	0.025884023
166	0xbc75f74d	-0.015012574
167	0xbcc62265	-0.024186322
168	0x3bd6b807	0.0065526995
169	0x3cd2bc34	0.025724508
170	0xbd18aa0f	-0.037271556
171	0x3c196b27	0.009363926
172	0x3ca30c58	0.019903347
173	0xbc663f24	-0.01405314
174	0x3c06de07	0.008231646
175	0xbc07a86f	-0.008279904
176	0xbd2b4142	-0.04181028
177	0xbbc1199d	-0.005892946
178	0x3b2af2e9	0.0026084727
179	0xbc217e53	-0.009856778
180	0xb9a26d5a	-0.0003098052
181	0x3c6dc3fd	0.014512059
182	0xbab6747d	-0.0013920214
183	0x3d2917cd	0.041282464
184	0xbc6efd9d	-0.014586833
185	0xbbed9cc0	-0.007251352
186	0x3c453b0a	0.012038002
187	0x3be2edeb	0.0069253347
188	0x3c5c1bdb	0.013434376
189	0x3c29870d	0.01034714
190	0x3c89a805	0.01680375
191	0x3a8784bb	0.0010339239
192	0x3c3ab44a	0.011395523
193	0x3cc88739	0.024478542
194	0x3c290421	0.010315926
195	0xbbe32b93	-0.0069326847
196	0x3d000280	0.031252384
197	0x3c0edf77	0.00872027
198	0x3aa04902	0.0012228789
199	0xbbb3658d	-0.0054747523
200	0x3b065280	0.0020495951
201	0xbbad4c93	-0.0052886694
202	0xbbf5fff4	-0.0075073186
203	0xbb9e3393	-0.0048279255
204	0xbc30bb34	-0.01078682
205	0xbcd65b38	-0.026166543
206	0xbc983ba8	-0.018583134
207	0x3c1fa5b4	0.009744097
208	0x3c8cc30b	0.017182847
209	0xbb01ef08	-0.0019826312
210	0xbba85220	-0.005136743
211	0x3cafe333	0.021470642
212	0xbbad6dfb	-0.0052926517
213	0xbd053167	-0.032517817
214	0x3d135547	0.03597
215	0x3d3630c6	0.044480108
216	0x3c44ceae	0.012012167
217	0xbbf572fd	-0.0074905143
218	0xbbe8e3de	-0.007107242
219	0x3c267db0	0.010161802
220	0xbd00f294	-0.03148134
221	0x3d0f28e7	0.034951117
222	0x3b0e8dfb	0.0021752107
223	0x3c99f3ca	0.018793005
224	0x3b5e9a55	0.00339665
225	0xbd253912	-0.04033763
226	0x3a451cd1	0.00075192476
227	0xbc24505d	-0.010028926
228	0xbc07614e	-0.008262945
229	0x3ac0662f	0.0014678891
230	0x3741d040	1.1552183e-05
231	0x3ab57c50	0.0013846252
232	0xba77aea5	-0.00094483263
233	0xbce75d43	-0.028242713
234	0xbba0a7b1	-0.004902803
235	0x3bcf575b	0.0063275523
236	0xbc82cda9	-0.015967207
237	0x3b97a681	0.004628003
238	0x3c2ba4f1	0.010476337
239	0xbc0bf15c	-0.008541431
240	0x3ce5f11d	0.028069073
241	0xbc39ec07	-0.011347777
242	0xbcc9071e	-0.024539527
243	0xbbe8df5d	-0.007106705
244	0x3cad4e1d	0.021155411
245	0x3bd71c88	0.0065646805
246	0xbb93ee9b	-0.004514528
247	0xbbf30639	-0.0074165133
248	0xbc78d2a2	-0.0151869375
249	0xbc880b1e	-0.016606864
250	0x3c3f31e0	0.011669606
251	0x3b8db4d0	0.004324533
252	0xbc67b195	-0.01414146
253	0x3b22aaf5	0.0024821137
254	0xbbcf8979	-0.0063335267
255	0xbcc72b2d	-0.02431258

lstm.bias_ih_l0 f4 [256]
0	0x3e1c9837	0.1529244
1	0xbbbbc37f	-0.005730092
2	0xbd8e8d4e	-0.069605455
3	0xbc053377	-0.008129946
4	0xbd4a7da9	-0.049436245
5	0x3c5252f8	0.012837164
6	0xbd9bedec	-0.07613739
7	0x3de2727a	0.11056991
8	0x3c53ccad	0.0129272165
9	0xbda43bf7	-0.0801925
10	0x3d6e3ffa	0.05816648
11	0xbc14b8ed	-0.009077293
12	0x3d0cafaa	0.034347214
13	0x3d46dd2e	0.048550777
14	0x3ce4ee13	0.027945554
15	0xbcf698da	-0.030102182
16	0xbdd4c765	-0.10389594
17	0xbd0ee5a9	-0.03488699
18	0xbcef0add	-0.029179985
19	0x3d89bcc2	0.06725456
20	0x3c38a14b	0.011268924
21	0xbe0cb6b3	-0.13741569
22	0xbd2c5c07	-0.04207995
23	0x3e24d20b	0.1609575
24	0xbcdda320	-0.027055323
25	0x3c3d8128	0.011566438
26	0x3d62a738	0.055335253
27	0xbdbdd788	-0.09269625
28	0xbd995f25	-0.074888505
29	0x3dd569c7	0.10420566
30	0x3d6418d7	0.05568775
31	0xbc2bd7af	-0.010488435
32	0xbd5667c5	-0.052345056
33	0x3d0f4f90	0.034987986
34	0x3de9ba19	0.114124484
35	0x3cff392a	0.031155188
36	0x3d1653fe	0.036701195
37	0xbd74af79	-0.059737656
38	0x3e456a58	0.19278848
39	0x3cf3a8f4	0.029743649
40	0xbcf6b802	-0.030117039
41	0xbd686e69	-0.05674592
42	0x3d8f27b8	0.069899976
43	0xbc5f5c1f	-0.013632803
44	0xbb570569	-0.0032809621
45	0x3c8cc3cc	0.017183207
46	0xbd95168b	-0.0727969
47	0xbb1d317a	-0.002398579
48	0x3d8e9f90	0.06964028
49	0x3dc86a83	0.097859405
50	0x3e2baa65	0.16764219
51	0xbc406901	-0.011743785
52	0x3d78a46f	0.06070369
53	0xbb7efbaf	-0.003890734
54	0x3c1f2620	0.00971368
55	0xbccb322c	-0.024804197
56	0x3df9d54f	0.121988885
57	0x3dadfa9d	0.08495066
58	0xbd8ec25c	-0.06970665
59	0xbd0bee3f	-0.034162756
60	0x3cd8cbd7	0.026464386
61	0x3b87a49c	0.004139496
62	0xbd25911b	-0.040421586
63	0xbc6847d8	-0.014177285
64	0x3e1b5d12	0.15172222
65	0xbd48ff6b	-0.04907171
66	0xbc8dcf29	-0.017310696
67	0xbca2009d	-0.019775683
68	0xbd89fa08	-0.06737143
69	0x3d9b6501	0.07587624
70	0xbcf6d66d	-0.030131543
71	0x3e0cbd87	0.13744174
72	0xbdec108c	-0.115265936
73	0xbc6dd6a3	-0.014516505
74	0xbc0133df	-0.007885902
75	0xbc16ffcf	-0.009216263
76	0xbd2a54bf	-0.041584726
77	0x3ca06f08	0.019584194
78	0x3d9d584b	0.07682856
79	0xbc83316f	-0.016014783
80	0x3c3254a8	0.010884441
81	0xbc6bb3fd	-0.014386174
82	0xbc8e6182	-0.01738048
83	0x3da419cc	0.08012733
84	0xbbd67847	-0.0065451
85	0xbdbc7f48	-0.092039645
86	0xbd7b86e5	-0.061407942
87	0x3e2c1360	0.16804266
88	0x3d1132cb	0.03544883
89	0xbda19c12	-0.07891096
90	0xbc1f4991	-0.009722129
91	0xbc2702ac	-0.010193508
92	0x3dc27602	0.094951645
93	0x3d8e843d	0.06958816
94	0x3d4e08c7	0.05030134
95	0x3b6b0bf8	0.0035865288
96	0x3cab7df0	0.020934075
97	0xbc8ea745	-0.017413745
98	0x3d905776	0.07047932
99	0x3d835a98	0.06413764
100	0xbc85b818	-0.016323134
101	0x3acb7fca	0.0015525755
102	0x3e4d1b21	0.2002988
103	0xbd18f110	-0.03733927
104	0xbd3be363	-0.04587115
105	0x3d0a4adc	0.033762798
106	0xbd99eadf	-0.07515501
107	0xbd62e523	-0.055394303
108	0x3d222199	0.039582822
109	0xbda78973	-0.08180513
110	0x3ca03dff	0.019560812
111	0x3d187d74	0.037229016
112	0x3d7fc5c0	0.06244445
113	0x3da8aee7	0.08236485
114	0x3e507fde	0.20361277
115	0xbd84f71b	-0.06492444
116	0xbc9b330a	-0.018945236
117	0x3dd7f7b7	0.10545295
118	0xbc0ef18a	-0.00872458
119	0x3c4b8063	0.0124207465
120	0x3d651542	0.055928476
121	0xbcc07205	-0.023491869
122	0xbd74adda	-0.05973611
123	0xbc8e3f27	-0.017364098
124	0xbd592d5c	-0.053021774
125	0xbd5c6e5b	-0.05381618
126	0xbd010414	-0.03149803
127	0xbdb791e2	-0.08963372
128	0x3b1e9d72	0.0024202731
129	0xbd4607a5	-0.048347134
130	0x3c27b766	0.010236597
131	0x3ddecd2a	0.10878976
132	0x3db98102	0.090578094
133	0x3d5c528d	0.053789664
134	0x3d09aad8	0.033610195
135	0xbdaaf3a8	-0.08347255
136	0xbe40201d	-0.1876225
137	0x3dcaf860	0.09910655
138	0x3c9b5af4	0.018964268
139	0x3d9aefe0	0.07565284
140	0xbdb9e103	-0.09076121
141	0xbda56d1d	-0.08077452
142	0xbcb2e5eb	-0.021838149
143	0xbdc2efab	-0.09518369
144	0x3e1cfe6d	0.1533143
145	0x3c33fce1	0.010985584
146	0x3d932d0e	0.07186328
147	0x3d2bac3b	0.0419123
148	0xbd5f0b58	-0.054454178
149	0xbe099372	-0.13435152
150	0xbc084d56	-0.00831922
151	0x3d8d9439	0.06913037
152	0xbd19b05f	-0.037521716
153	0x3d94d500	0.07267189
154	0x3cf2351c	0.02956634
155	0x3ba76b30	0.0051092133
156	0xbd2d1fd6	-0.04226669
157	0x3e12648d	0.1429617
158	0x3d6aa479	0.05728576
159	0x3dbb18ed	0.091356136
160	0xbd152218	-0.036409467
161	0xbe409e70	-0.18810439
162	0xbdbe45e8	-0.09290677
163	0xbe1ce1e7	-0.1532055
164	0x3db3878d	0.08766089
165	0xbdcc5957	-0.09977978
166	0xbb9801d7	-0.004638891
167	0xbc972d53	-0.01845423
168	0xbcb4b5ad	-0.022059286
169	0xbe09ea9a	-0.134684
170	0xbcf43572	-0.029810641
171	0x3da51f78	0.08062643
172	0x3c7e4096	0.015518328
173	0xbd196155	-0.03744634
174	0xbc82e706	-0.015979301
175	0xbb2a2e1d	-0.0025967427
176	0x3cbfc4d6	0.023409288
177	0x3bce51d9	0.006296378
178	0x3cb524d2	0.022112284
179	0xbd87e99a	-0.06636353
180	0x3e38006c	0.17968911
181	0x3babdb3e	0.0052446416
182	0xbe5ad217	-0.21369205
183	0xbe0bd66d	-0.13656016
184	0xbd764150	-0.06012088
185	0xbb15405c	-0.0022773957
186	0x3d98de61	0.074642904
187	0x3d3d258b	0.046178382
188	0x3d096534	0.03354378
189	0xbd538904	-0.05164434
190	0x3c10f711	0.008847968
191	0xbb4dce97	-0.0031403655
192	0x3bdd304e	0.006750143
193	0xbd32872f	-0.043585952
194	0xb94c847c	-0.0001950431
195	0xb4ebdb80	-4.3931868e-07
196	0x3d388da9	0.045056973
197	0xbd78d8fb	-0.060753804
198	0xbd3166f9	-0.043311093
199	0xbbaaac16	-0.0052085025
200	0x3ce47d80	0.027891874
201	0xbd0bde7a	-0.034147717
202	0xbe008b92	-0.12553242
203	0xbcf216fd	-0.029551977
204	0x3c0a4115	0.008438368
205	0x3d05b4e8	0.03264323
206	0x3d9672ae	0.07346092
207	0xbd1c7f43	-0.038207304
208	0x3a46a68f	0.000757792
209	0x3b20ceb3	0.0024537265
210	0xbc8a5fe6	-0.016891431
211	0x3d1cb76e	0.03826087
212	0xbbe15b6a	-0.0068773525
213	0xbcb90ac4	-0.022588141
214	0x3d218062	0.039429076
215	0x3e37169e	0.17879722
216	0xbd9b0921	-0.075701006
217	0xbd702df8	-0.05863759
218	0xbd839438	-0.06424755
219	0xbc9c9986	-0.019116174
220	0xbdd1388d	-0.10215864
221	0xbd760163	-0.060059916
222	0x3de2065a	0.11036368
223	0x3cbfafb8	0.023399219
224	0x3d4780c1	0.048706774
225	0x3c44bacf	0.012007429
226	0xbd099de5	-0.033597846
227	0xbc65873e	-0.014009295
228	0x3d8b7f0b	0.06811341
229	0xbc934ae6	-0.01798005
230	0x3d8f4113	0.06994834
231	0x3c2bd451	0.010487632
232	0xbd959717	-0.07304209
233	0xbd0d5ae0	-0.034510493
234	0xbcb2d0ff	-0.021828173
235	0xbbb19826	-0.005419749
236	0xbdbfb2ac	-0.09360251
237	0xbbb70935	-0.0055858144
238	0xbd9b83a2	-0.07593466
239	0x3cb56af7	0.022145731
240	0x3dc98f62	0.09841801
241	0x3c4110bd	0.011783776
242	0x3d906c02	0.07051851
243	0xbcf5a1f1	-0.029984446
244	0x3d2c6ee6	0.04209795
245	0x3cda7f4c	0.026672028
246	0xbc3292dc	-0.010899272
247	0x3ce2d2ce	0.02768841
248	0x3da5b891	0.08091844
249	0x3b8e51df	0.004343256
250	0xbb76c0e6	-0.0037651598
251	0xbd16c187	-0.036805656
252	0xbc586f92	-0.013210194
253	0xbb0e2efe	-0.002169549
254	0x3c5113a2	0.0127610285
255	0x3daad39c	0.083411425

lstm.bias_hh_l0 f4 [256]
0	0x3d5fcc06	0.05463793
1	0x3dbdef9c	0.092742175
2	0xbd2b76bc	-0.04186128
3	0xba52cacd	-0.0008041084
4	0xbcf21252	-0.029549751
5	0xbd601c5c	-0.054714546
6	0xbd2c28c2	-0.042031057
7	0x3e103fb6	0.14086804
8	0x3cf4f79c	0.029903226
9	0xbd490a30	-0.04908198
10	0xbe155c90	-0.14586091
11	0xbceac1e2	-0.028656904
12	0xbd9544bc	-0.07288501
13	0x3d8a5670	0.06754768
14	0xbd627391	-0.055285994
15	0xbccedaf8	-0.025250897
16	0x3cae1bcf	0.021253495
17	0xbc1a10e7	-0.009403444
18	0xbceccb19	-0.028905438
19	0x3ce2a9dc	0.027668886
20	0xbbcc159a	-0.006228161
21	0x3b7ba357	0.0038396919
22	0x3c8d8554	0.01727549
23	0x3e12c9c9	0.14334787
24	0xbb03dfb3	-0.0020122349
25	0x3cf057b8	0.029338703
26	0xbbdbe288	-0.0067103542
27	0x3cf57f01	0.029967787
28	0xbc16a4f6	-0.009194603
29	0xbc76b9cf	-0.015058949
30	0x3ddd03a3	0.10791709
31	0xbb8dd7e9	-0.004328717
32	0xbd529502	-0.051411636
33	0x3e0b4c78	0.1360339
34	0x3d48f0f4	0.049057916
35	0x3d31a3d7	0.04336914
36	0x3d37e683	0.044897567
37	0xbd5f5b0e	-0.054530196
38	0x3d9a6cb6	0.07540266
39	0xbd39d007	-0.045364406
40	0xbda86e89	-0.08224208
41	0xbcb2e352	-0.02183691
42	0x3b813b36	0.003943826
43	0xbd411521	-0.04713929
44	0xbd1ab63d	-0.037771452
45	0xbda692af	-0.081334464
46	0x3d491423	0.04909147
47	0xba560b0b	-0.00081650977
48	0x3d3da6b5	0.046301562
49	0x3d1213c4	0.03566338
50	0x3de7b110	0.11313069
51	0xbd82d1c2	-0.063876644
52	0x3c3a4f01	0.011371375
53	0x3daad29c	0.08340952
54	0xbdab539a	-0.08365555
55	0xbda72791	-0.081618436
56	0xbd81c2ca	-0.06335981
57	0x3db4b522	0.08823611
58	0xbd80a35c	-0.06281158
59	0xbd1a707a	-0.037704922
60	0xbb4362d1	-0.0029813538
61	0xbd20e095	-0.039276678
62	0xbcdf8ad5	-0.02728788
63	0xbcdbc152	-0.02682558
64	0x3e079b77	0.13242899
65	0x3dce8d31	0.10085524
66	0x3c034549	0.008012124
67	0xbc9d8bb8	-0.019231662
68	0x3dc4afec	0.09603867
69	0xbd1361c8	-0.035981923
70	0xbd03bb3a	-0.032160975
71	0x3e29599b	0.16538088
72	0xbdaa03b3	-0.08301487
73	0xbd1ca567	-0.038243677
74	0xbd3d9133	-0.04628105
75	0x3aa853a8	0.0012842314
76	0xbd2b6c0c	-0.04185109
77	0x3da76360	0.08173251
78	0xbdcee38d	-0.101019956
79	0xbc856747	-0.016284598
80	0xbd89e00d	-0.067321874
81	0xbce8827c	-0.028382532
82	0xbcb10d03	-0.02161265
83	0x3dbbec62	0.09175946
84	0xbd3a507f	-0.045486923
85	0xbdf676f2	-0.12034406
86	0xbd786be9	-0.060649786
87	0x3e819c58	0.25314593
88	0x3a85237d	0.0010157671
89	0xbd3c9e4c	-0.0460494
90	0x3d824e37	0.063625745
91	0xbd99cfab	-0.07510313
92	0xbd4dc428	-0.050235897
93	0x3d323167	0.043504145
94	0x3d24f6d6	0.040274464
95	0xbdcebfd4	-0.10095182
96	0xbd80cda1	-0.062892206
97	0xbd6fe77c	-0.05857037
98	0xbcc7627d	-0.024338955
99	0xbd5b207d	-0.05349778
100	0xbdce18ed	-0.10063348
101	0xbcca44ff	-0.024691103
102	0x3e0e228e	0.13880369
103	0xbc290fa5	-0.010318671
104	0xbd28e87f	-0.04123735
105	0x3c14d7c7	0.009084648
106	0x3c8cd146	0.017189633
107	0x3d102322	0.035189755
108	0x3ccb4bb4	0.024816372
109	0xbd762250	-0.060091317
110	0xbd8c7c91	-0.06859697
111	0x3c984ad3	0.018590366
112	0x3d42ff45	0.047606725
113	0x3e26a32f	0.16273187
114	0x3de7eb58	0.11324185
115	0xbd885abb	-0.066579305
116	0xbc26b8af	-0.010175868
117	0x3d808500	0.06275368
118	0xbdc195ec	-0.094524235
119	0xbd95b5f2	-0.07310094
120	0x3d8a2984	0.067462
121	0x3da0f459	0.078591056
122	0xbd90297b	-0.07039162
123	0xbc8660d3	-0.016403591
124	0xbd32b564	-0.04363002
125	0x3d2ef836	0.04271718
126	0x3c2cc2d4	0.0105444975
127	0x3d2d5bbd	0.042323817
128	0xbd9a4725	-0.07533101
129	0x3ddc5af7	0.10759538
130	0x3deb488a	0.11488445
131	0x3da9a31f	0.08283066
132	0x3e1de263	0.15418391
133	0x3d76333d	0.06010746
134	0x3ce2ac79	0.027670132
135	0x3d2fa5da	0.042882778
136	0xbe10c8de	-0.14139125
137	0x3dbc9862	0.09208752
138	0xbe27e65d	-0.1639647
139	0x3d8054dc	0.06266186
140	0xbdd7dd59	-0.105402656
141	0xbc47db96	-0.012198349
142	0xbd9e61ab	-0.077334724
143	0x3b4707a4	0.0030369544
144	0x3dba4189	0.09094531
145	0x3c03b79b	0.00803938
146	0x3c33eeb9	0.010982209
147	0x3cc8dd52	0.024519596
148	0xbda3ecdf	-0.08004164
149	0xbe0aa0ee	-0.13537952
150	0x3dbb857c	0.091563195
151	0xbd855eeb	-0.06512245
152	0x3db13f3f	0.08654641
153	0xbc91b23f	-0.01778519
154	0x3d1284d0	0.03577119
155	0x3d913ada	0.07091303
156	0xbe098224	-0.13428551
157	0xbc5a6a50	-0.013331011
158	0x3dc26a91	0.09492982
159	0x3e4b366a	0.19844976
160	0xbdb68ee8	-0.08913976
161	0xbd5b576f	-0.05355018
162	0xbdd9971c	-0.10624525
163	0x3cf64061	0.030059995
164	0x3e148581	0.14504053
165	0xbc2ec3a2	-0.01066676
166	0x3d70f3df	0.058826324
167	0xbca20af0	-0.019780606
168	0x3daf5ed4	0.08563009
169	0xbe1554d0	-0.14583135
170	0x3e44c0e9	0.19214214
171	0xbd03faf4	-0.03222175
172	0x3c85a4b6	0.016313892
173	0x3de7bd3c	0.113153905
174	0xbc1ec5d3	-0.00969072
175	0xbe41b40c	-0.18916339
176	0x3e1b00e3	0.15137057
177	0x3e00935a	0.1255621
178	0xbd772a59	-0.06034312
179	0xbd49967c	-0.04921578
180	0x3deb7cf4	0.11498442
181	0xbdb5514c	-0.08853397
182	0x3c39fb0d	0.011351359
183	0xbe2bdf33	-0.16784362
184	0xbd2ae7e7	-0.041725066
185	0x3da8c066	0.08239822
186	0x3ddf4438	0.109016836
187	0xbd863652	-0.065533295
188	0xbd9497ce	-0.07255517
189	0xbdc1af59	-0.09457273
190	0x3d22c9b1	0.03974313
191	0xbda552ee	-0.08072458
192	0x3e17c324	0.14820534
193	0x3cc15e11	0.023604425
194	0xbd72a5a9	-0.059240017
195	0xbca04fb2	-0.019569252
196	0x3dfb0ded	0.122585155
197	0xbdcdf018	-0.1005556
198	0xbd51508e	-0.051102214
199	0x3e24694a	0.1605579
200	0x3a604b82	0.00085561734
201	0xbd90a125	-0.07061986
202	0x3d25246d	0.04031794
203	0xbc46c854	-0.012132723
204	0xbdfb12bf	-0.12259435
205	0x3d6fa96b	0.05851118
206	0xbdc970b6	-0.09835951
207	0xbcac0bea	-0.021001775
208	0x3b134f96	0.0022477857
209	0xbd047117	-0.032334413
210	0xbc792c3a	-0.015208298
211	0x3d066c78	0.032818288
212	0xbba6b87c	-0.00508791
213	0x3ad443bd	0.0016194504
214	0xbd0b171d	-0.03395759
215	0x3e58705d	0.21136613
216	0xbe092c5b	-0.13395827
217	0x3c5a2280	0.0133138895
218	0xbdc9e556	-0.098581955
219	0xbd15a422	-0.036533482
220	0xbd86bbeb	-0.06578811
221	0xbc960670	-0.018313617
222	0x3cd59199	0.026070403
223	0xbdc22d4a	-0.094812945
224	0x3c99e057	0.018783731
225	0x3dae4269	0.085087605
226	0x3db21ff5	0.086975016
227	0x3cae6a2d	0.021290863
228	0x3d8fe405	0.07025913
229	0xbdb9cc3c	-0.09072158
230	0x3d211613	0.039327692
231	0xbb05b5c9	-0.0020402542
232	0xbd32102a	-0.043472447
233	0xbd8877da	-0.06663485
234	0x3dba6040	0.091003895
235	0xbdc91a9b	-0.09819528
236	0x3c97512c	0.018471323
237	0x3d65f2a3	0.0561396
238	0x3d8d67bf	0.069045536
239	0x3d315bf5	0.043300588
240	0xbd40aba7	-0.0470387
241	0x3e0bb9d9	0.13645114
242	0x3d4e8b86	0.05042603
243	0xbdd86414	-0.105659634
244	0xbdd51eeb	-0.10406288
245	0x3d92168d	0.071332075
246	0x3bcdd661	0.0062816595
247	0x3db9edf2	0.090785876
248	0xbd70b42c	-0.058765575
249	0x3d5cabb0	0.05387467
250	0x3aca0f7c	0.0015415992
251	0xbd1985f5	-0.037481267
252	0x3d8291e8	0.06375486
253	0xbd18978c	-0.0372539
254	0xbd8964ce	-0.0670868
255	0xbb0d1a65	-0.0021530625

lstm.weight_ih_l1 f4 [256, 64]
0	0x3c1063f5	0.008812894
1	0x3cb6823e	0.022278901
2	0x3b5d8667	0.0033802034
3	0xbc231b5f	-0.009955256
4	0x3b95297a	0.0045520635
5	0x3a5d2002	0.00084352505
6	0x3b0f6fe9	0.0021886772
7	0x3c9b6056	0.018966835
8	0x3c0012a0	0.007816941
9	0xbbc7efd9	-0.00610159
10	0x3c1bbf7c	0.009506103
11	0xbb0f09a8	-0.0021825824
12	0xbc416a96	-0.011805197
13	0xbad23630	-0.0016037878
14	0xbc7a5e13	-0.015281218
15	0x39e99245	0.00044550202
16	0xbb4eae00	-0.0031536818
17	0x3b4d876c	0.0031361235
18	0xbba72d32	-0.0051018232
19	0xba72e2e4	-0.0009265377
20	0xbb1ccf72	-0.0023927358
21	0x3aaceb64	0.001319271
22	0x3c24b290	0.010052338
23	0x3c810c78	0.015753016
24	0x3b9e928a	0.004839246
25	0xbbeeb347	-0.007284555
26	0xbb122879	-0.0022301956
27	0xbb8c7cc3	-0.0042873337
28	0x398b2c02	0.00026544934
29	0x3c92f85d	0.017940694
30	0xbc5d21c0	-0.013496816
31	0x39977a2f	0.00028891998
32	0x3c38c12f	0.011276527
33	0xbc82b66c	-0.015956126
34	0xbb8dd9ee	-0.0043289578
35	0xbc2e32b4	-0.010632206
36	0xbc3a2a87	-0.011362678
37	0x3c37cbd0	0.011218026
38	0x3bbe3af2	0.0058053667
39	0x3bacd8bf	0.0052748616
40	0x3ba5c64f	0.0050590406
41	0x3c184bc7	0.0092954105
42	0xbc59bb78	-0.013289325
43	0x3a803972	0.0009782745
44	0xbb2215e8	-0.0024732295
45	0xb993a1a0	-0.00028158445
46	0x3bd11de6	0.006381738
47	0x3c4a12e9	0.01233361
48	0x3c07e927	0.008295334
49	0xbbd2a213	-0.006428012
50	0xbc27a490	-0.010232106
51	0x3bd44aa0	0.0064786226
52	0xbbcd69fe	-0.006268739
53	0xbb8f9d35	-0.004382754
54	0x3b749645	0.0037321013
55	0x3c879074	0.016548373
56	0xbb36c9c3	-0.0027891255
57	0x3ac243f5	0.0014821278
58	0x3b1e5301	0.002415836
59	0x3b1d6a42	0.0024019633
60	0x3ac0a4b4	0.0014697523
61	0xb7448218	-1.17128e-05
62	0xbba9388d	-0.005164212
63	0xbc290a6b	-0.010317425
64	0x3c49525b	0.0122877015
65	0x3d412c2e	0.047161274
66	0x3b0c6c09	0.0021426699
67	0xbc9d7af5	-0.01922367
68	0x3c7ffdd6	0.015624484
69	0x3bfa1b09	0.0076326174
70	0x3bf38575	0.007431681
71	0x3ce8980b	0.028392812
72	0x3d2fc10b	0.04290871
73	0xbbf86f39	-0.007581618
74	0x3c8afb76	0.016965609
75	0xbc522e0f	-0.012828364
76	0xbb99dd18	-0.004695546
77	0xbb5c917e	-0.0033656056
78	0xbcdedfe3	-0.027206367
79	0x3bcb584f	0.0062055956
80	0xba2b0d12	-0.000652508
81	0x3b095aa0	0.0020958558
82	0xbc026ae2	-0.007960053
83	0x3bc458a4	0.005992012
84	0xbbd6ec1e	-0.006558909
85	0x3cd08f3a	0.02545892
86	0xb99ea000	-0.00030255318
87	0x3d4e1845	0.050316114
88	0x3ba2ef67	0.0049723866
89	0x3c0774a4	0.008267555
90	0xbbaa3974	-0.005194837
91	0xbcb2fa80	-0.021847963
92	0xbb51b38e	-0.0031997892
93	0x3ce14594	0.027498998
94	0xbd4e64f8	-0.05038926
95	0xbb82d8df	-0.003993138
96	0x3c955a45	0.01823152
97	0xbcf7476b	-0.030185422
98	0xbc919aee	-0.017774072
99	0xbbecb360	-0.0072235316
100	0xbd49b150	-0.049241364
101	0x3d38c4cd	0.04510956
102	0x3c9e9f39	0.019363033
103	0xbc147f71	-0.0090635875
104	0x3b939b39	0.004504588
105	0x3cb0662f	0.0215331
106	0xbd443fb4	-0.047912315
107	0x3b02af0b	0.001994076
108	0xba99111e	-0.0011678075
109	0xbbca336f	-0.006170682
110	0x3c194a6c	0.009356122
111	0x3cc28bc2	0.023748282
112	0x3c13216f	0.008980139
113	0xbc4b3808	-0.012403496
114	0xbcfd3f98	-0.030914113
115	0x3c4dc620	0.012559444
116	0xbcc4d4f7	-0.02402733
117	0xbc8bdc17	-0.01707272
118	0x3c1c3739	0.0095346505
119	0x3d5882e3	0.0528592
120	0xbb8ab229	-0.004232664
121	0x3b93e38f	0.004513211
122	0x3b6d9b6e	0.0036255973
123	0x3c05759d	0.008145717
124	0x3cb3ba7f	0.021939514
125	0xba8995b5	-0.0010496887
126	0x3bcfdf60	0.006343767
127	0xbce1be59	-0.027556585
128	0x3bb49f10	0.005512126
129	0xbb890866	-0.0041819094
130	0xbcb68ff6	-0.022285443
131	0x3a8b5858	0.0010631187
132	0xbd4f67ad	-0.050635982
133	0xbd2d3a45	-0.0422919
134	0x3ba28148	0.004959259
135	0x3d0b01cb	0.033937257
136	0x3c87b89e	0.016567525
137	0x3b892280	0.004185021
138	0x3d0d712e	0.034531765
139	0xba91aa2f	-0.0011113341
140	0x3d65350f	0.055958804
141	0x3d324640	0.043524027
142	0x3c2538c8	0.0100843385
143	0xbb9bd7f8	-0.00475597
144	0xbc8fb6b9	-0.017543184
145	0xbba29dfd	-0.0049626813
146	0x3a0dc785	0.0005408454
147	0xbc59631c	-0.013268258
148	0xba16c74a	-0.0005751742
149	0x3c50e7de	0.012750594
150	0xbcaef404	-0.02135659
151	0x3caf44b6	0.021395069
152	0xbbff0770	-0.007782869
153	0x3c38f07b	0.011287804
154	0xbca6c81e	-0.020359095
155	0xbcbac5b3	-0.022799348
156	0x3cc1690c	0.02360966
157	0xbd65e930	-0.056130588
158	0x3acc4aeb	0.0015586292
159	0xbd5ff623	-0.054678094
160	0xbaf19b00	-0.0018433034
161	0x3d6dc897	0.058052626
162	0xbc25ee0e	-0.010127557
163	0x3ce9647a	0.028490294
164	0xbc0a7550	-0.008450821
165	0x3da07b0c	0.07835969
166	0x3cf4cb28	0.029882029
167	0xbcd70df8	-0.026251778
168	0xbb83b2e7	-0.0040191296
169	0x3d6f20ca	0.05838088
170	0xbd07d71c	-0.03316413
171	0xbc430e19	-0.011905217
172	0x3cd6b3bd	0.026208753
173	0xbc951b8e	-0.018201616
174	0xbb981775	-0.004641468
175	0x3d707c2c	0.05871217
176	0xbd1adc6c	-0.037807867
177	0xbb5aa003	-0.0033359535
178	0xbd153093	-0.036423277
179	0x3c068088	0.008209355
180	0xbcdad329	-0.026712017
181	0xbd1b5a19	-0.03792772
182	0x3cb7c79b	0.022434046
183	0x3d2455a2	0.04012073
184	0xbbc350f2	-0.005960577
185	0x3cd8bf2b	0.026458343
186	0xbca3357d	-0.019922966
187	0x3b0e2c91	0.0021694044
188	0x3ccc3185	0.024925957
189	0xbc87d9eb	-0.016583404
190	0x3c865351	0.01639715
191	0x3b9b37ea	0.00473689
192	0x3c3178ba	0.010832006
193	0x3cebe6f3	0.028796649
194	0x3b5bc9e1	0.0033537077
195	0xbc568905	-0.013094191
196	0xbb1e32e8	-0.002413923
197	0x3b418936	0.0029531247
198	0x3b940c39	0.0045180586
199	0x3cec8774	0.028873183
200	0x3c82ebac	0.015981518
201	0xbbdf3203	-0.006811382
202	0x3c6479bc	0.013945039
203	0xbbbe2bad	-0.0058035464
204	0xbb9489f3	-0.0045330464
205	0x3798a3a0	1.8196006e-05
206	0xbc8a86de	-0.016910013
207	0x3b62eaef	0.0034624895
208	0xbc098b3a	-0.008395011
209	0x3b30d8f4	0.0026984783
210	0xbbe22cdc	-0.0069023203
211	0xbadae89b	-0.0016701402
212	0xbb994d7f	-0.0046784277
213	0x3c26a5ef	0.010171398
214	0x3b075ec7	0.0020655857
215	0x3cdbaf54	0.026817001
216	0x3b80d947	0.0039321515
217	0xbaa1c8fc	-0.0012343223
218	0xbbd6aae3	-0.006551133
219	0xbc643fe7	-0.013931251
220	0x3a4948ce	0.000767839
221	0x3c90bc98	0.017668054
222	0xbcbf1eac	-0.023330055
223	0xbbca4e30	-0.0061738715
224	0x3c27f4a0	0.010251194
225	0xbc94dcc5	-0.018171677
226	0xbc0199f5	-0.007910241
227	0xbbf4914a	-0.007463609
228	0xbcb4ed78	-0.02208589
229	0x3cb8a2a0	0.022538483
230	0x3c3397e3	0.010961506
231	0x3a58dcf1	0.0008272669
232	0x3bafba05	0.0053627514
233	0x3c73b5c8	0.014874883
234	0xbcd22128	-0.025650576
235	0x3abad3fd	0.0014253851
236	0x3b645660	0.0034841523
237	0xbb927063	-0.004468964
238	0x3bcff7af	0.006346665
239	0x3c909ab8	0.0176519
240	0x3a8b8b02	0.0010646286
241	0xbc15ce02	-0.009143354
242	0xbc9bc15a	-0.019013096
243	0x3c14c3ca	0.009079883
244	0xbc7f151c	-0.015568998
245	0xbc2e640c	-0.01064397
246	0x3b8474f3	0.0040422617
247	0x3d0556c3	0.032553446
248	0xbb7a53fc	-0.0038197031
249	0x3b7e227c	0.0038777879
250	0x3b2d0742	0.002640203
251	0x3b97814a	0.0046235668
252	0x3c3922ba	0.011299783
253	0xba0c95fd	-0.0005362926
254	0x3a967e72	0.0011481775
255	0xbc6b2162	-0.014351221

lstm.weight_hh_l1 f4 [256, 64]
0	0xb98bec04	-0.0002668799
1	0x3b78f6bd	0.0037988864
2	0xbbfd59cc	-0.007731652
3	0x3b14a802	0.0022683148
4	0x3acd9642	0.0015685039
5	0xbb35c34e	-0.002773482
6	0x3bfed590	0.0077769235
7	0x3b012215	0.0019704152
8	0x3b8d950d	0.0043207468
9	0xbc0828cf	-0.008310511
10	0x3a790a8e	0.0009500169
11	0x3a651b25	0.00087397016
12	0x3c0a9930	0.008459374
13	0xba912156	-0.0011072557
14	0x3c5d5fbb	0.013511593
15	0xbbfbf6b7	-0.007689323
16	0x39562f05	0.00020426147
17	0xbbaee9fa	-0.005337951
18	0x3ab60f0c	0.0013889982
19	0xbc41ddae	-0.011832638
20	0x3c59e058	0.013298117
21	0xbba01877	-0.004885729
22	0xbba948b2	-0.0051661367
23	0xbc61606e	-0.013755901
24	0xba33387a	-0.0006836724
25	0xbbc80d5b	-0.0061051077
26	0xba6ecfed	-0.0009109963
27	0xba15f668	-0.00057206163
28	0xbb81ac80	-0.003957331
29	0xbbd9d6da	-0.0066479268
30	0xb988d7f0	-0.00026100827
31	0x3ac7770c	0.0015217974
32	0x3b15f7de	0.0022883336
33	0xbc21c8f9	-0.009874576
34	0xbadf5f92	-0.0017042032
35	0xbc0d0d24	-0.00860909
36	0x3c0413a5	0.008061324
37	0xbb2d7382	-0.0026466553
38	0xbc455bbe	-0.012045799
39	0xbb2365f7	-0.0024932602
40	0xbbaafc98	-0.0052181
41	0xbb9f125b	-0.004854483
42	0x3c65b53f	0.014020263
43	0xba3612e0	-0.00069455616
44	0x3a0c6bf0	0.000535666
45	0x3a3e09ec	0.0007249403
46	0x39c810bc	0.0003815944
47	0xbba9c5f5	-0.005181069
48	0xba9a9f05	-0.0011796659
49	0xbbc81269	-0.0061057103
50	0x3be6430c	0.0070270356
51	0x3c682f57	0.014171443
52	0xb9cf34cb	-0.0003952145
53	0xbc0a0927	-0.008425034
54	0x3c3c0fe4	0.011478398
55	0x3c3b7ba6	0.011443054
56	0xba2edd96	-0.0006670592
57	0xbb5dc980	-0.0033842027
58	0x3bcb6856	0.006207506
59	0xbba0e10f	-0.0049096416
60	0xbbce8765	-0.0063027614
61	0xb9baa6c2	-0.0003560093
62	0xbb18438c	-0.002323362
63	0x3bf95293	0.0076087206
64	0xbc34a597	-0.011025808
65	0x3c9f0773	0.019412732
66	0xbc51b7c9	-0.012800165
67	0x3c79056d	0.0151990475
68	0xbbb093e3	-0.005388723
69	0x39b2e693	0.00034122597
70	0x3cf9e17f	0.030503033
71	0x3c8f6b64	0.017507263
72	0x3cd83868	0.026394084
73	0xbd0dc71f	-0.034613725
74	0xbbad8c02	-0.0052962312
75	0xbbbae524	-0.005703585
76	0x3c3aee09	0.011409291
77	0xbc563f64	-0.013076637
78	0x3ce5fc14	0.028074302
79	0xbc0d3ed8	-0.00862094
80	0x3c3f6f34	0.011684228
81	0xbbb058fd	-0.005381702
82	0xbadd88c9	-0.0016901727
83	0xbcb93b16	-0.022611182
84	0x3cdb84ca	0.026796717
85	0xbb01a404	-0.0019781599
86	0xbb978a3e	-0.004624634
87	0xbd3d8bae	-0.046275787
88	0x3bb9b101	0.0056668525
89	0xbcd7d397	-0.026346011
90	0xbc11f5dc	-0.008908715
91	0x3bb48844	0.005509408
92	0xba1df818	-0.00060260436
93	0xbc0c4c21	-0.008563072
94	0x3c1f4fe4	0.009723637
95	0x3c71a158	0.01474794
96	0xbba2d17a	-0.004968819
97	0xbc48c9b9	-0.012255126
98	0xbc4ca770	-0.012491092
99	0xbc2c01ac	-0.0104984455
100	0x3bdb15fa	0.0066859694
101	0xbb4deb8f	-0.0031420921
102	0xbce7d71d	-0.028300816
103	0x3bf470c5	0.0074597322
104	0xbb06c4d8	-0.0020564105
105	0xbb8eada5	-0.004354196
106	0x3d04597a	0.032311894
107	0x3c048362	0.008087965
108	0xbc119a7c	-0.00888693
109	0xbc177e21	-0.00924638
110	0x3b12b367	0.0022384764
111	0xbb4091b7	-0.0029383728
112	0x3b2e09df	0.0026556177
113	0xbb8cf10e	-0.004301197
114	0x3cefbbd5	0.02926437
115	0x3cf9dd7c	0.03050112
116	0xbc250284	-0.010071401
117	0xbc1b88d4	-0.009493072
118	0x3cb33bd0	0.021879107
119	0x3c97ae62	0.01851577
120	0x3b43dccd	0.0029886246
121	0x3b80da8c	0.003932303
122	0x3b88aa7c	0.004170714
123	0xbb1d50ba	-0.0024004416
124	0xbbb664ae	-0.005566201
125	0x3c1e8413	0.009675044
126	0xbc912f46	-0.017722737
127	0x3c20412f	0.009781166
128	0x3bbfcd2f	0.005853317
129	0xbc129213	-0.00894596
130	0x3cb1211b	0.021622231
131	0xbc02ef53	-0.00799163
132	0x3ba8464b	0.0051353327
133	0x3b677495	0.003531729
134	0xbc319766	-0.010839319
135	0xbb2eb1ea	-0.0026656338
136	0xbbb8822d	-0.0056307525
137	0x3b9ef74c	0.0048512574
138	0x3bb70d4f	0.0055863033
139	0x3bc87e67	0.006118584
140	0xbca0598b	-0.019573947
141	0x3ba09bb9	0.004901376
142	0xbd1f2cae	-0.03886097
143	0x3c5c7385	0.013455276
144	0xbb8e5d32	-0.004344606
145	0x3b316903	0.0027070649
146	0xbb1113ab	-0.0022136967
147	0x3d18c997	0.037301626
148	0xbcf56e97	-0.02995996
149	0x3c6e3211	0.014538304
150	0xbb9aac7e	-0.0047202697
151	0x3c84abe8	0.016195253
152	0xbb5c6530	-0.0033629648
153	0x3c5f5336	0.013630679
154	0x3c1f64b0	0.009728596
155	0xbbeb02e4	-0.0071719754
156	0xbb66f7e2	-0.0035242965
157	0xbc2e3652	-0.010633068
158	0xbb6e60c3	-0.0036373592
159	0xbbcd69c6	-0.0062687127
160	0xbbad2987	-0.0052844915
161	0x3bba0c5a	0.005677742
162	0x3b40a4ec	0.0029395176
163	0x3b9ed7ff	0.004847526
164	0xbba24b17	-0.004952799
165	0x3b94c260	0.004539773
166	0x3bce90c5	0.006303879
167	0xbbd41b3e	-0.006472974
168	0x3cf86460	0.0303213
169	0xbcc352f4	-0.023843266
170	0xbcd79f1f	-0.026320992
171	0xbbc369fc	-0.005963562
172	0x3c54e8d1	0.012994961
173	0x3a90f771	0.0011060071
174	0xbbcdbcf4	-0.0062786285
175	0x3ce66051	0.0281221
176	0x3ba5febb	0.0050657666
177	0x3cabf692	0.020991597
178	0x3a7ab5fa	0.000956386
179	0xbd36d01a	-0.044632055
180	0x3b5f8aa0	0.0034109727
181	0x3be2ad04	0.0069175977
182	0xbc9ee58c	-0.019396566
183	0xbd54d277	-0.051958527
184	0x3b4129c7	0.0029474364
185	0xbc54e7b9	-0.0129947
186	0xbcbc8aea	-0.023015458
187	0x3a1821ff	0.00058034057
188	0x3a126324	0.0005584231
189	0xbb07ad12	-0.0020702523
190	0x397cc6f8	0.00024106714
191	0xbcde3814	-0.02712635
192	0xbbb93daa	-0.005653103
193	0x3c323d64	0.0108788945
194	0xbba14e08	-0.004922632
195	0x3c0ca457	0.008584104
196	0xbb404648	-0.0029338766
197	0xba8c4b24	-0.0010703546
198	0x3c85fdde	0.016356405
199	0x3c111764	0.008855674
200	0x3c52919d	0.0128521
201	0xbc95237a	-0.018205393
202	0xbb3d56c6	-0.0028890832
203	0xbb6d29f7	-0.0036188343
204	0x3b84b306	0.0040496616
205	0xbbf8dd5b	-0.007594747
206	0x3c3dd5b1	0.0115865925
207	0xbb426edb	-0.0029668126
208	0x3bd0ffca	0.0063781487
209	0xbab7b06a	-0.0014014367
210	0xb8da6fda	-0.00010415884
211	0xbc20ffce	-0.009826614
212	0x3c36e069	0.011161902
213	0xba8ddbbb	-0.0010822931
214	0xbb84bc04	-0.0040507335
215	0xbcc4fb95	-0.024045745
216	0x3b507fd8	0.0031814482
217	0xbc68304f	-0.014171674
218	0xbbadf1ca	-0.0053083645
219	0x3b182ec2	0.002322123
220	0xba7a00dd	-0.0009536872
221	0xbb8cbb97	-0.0042948234
222	0x3ba02d9c	0.0048882496
223	0x3c07104d	0.0082436325
224	0xbb4d0c17	-0.0031287724
225	0xbbb2467a	-0.0054405304
226	0xbbe50c55	-0.0069899955
227	0xbb92950d	-0.0044733346
228	0x3b375cbf	0.0027978865
229	0xbb134aae	-0.0022474932
230	0xbc3f9cff	-0.011695146
231	0x3b1be10a	0.0023785257
232	0xb95b5260	-0.00020916155
233	0xbba87122	-0.0051404396
234	0x3c644b49	0.013933965
235	0x3b7f876b	0.0038990628
236	0xbb859ce9	-0.004077543
237	0xbba68cb3	-0.0050826906
238	0x3a980ef1	0.0011601133
239	0xb9fa79e9	-0.00047774546
240	0x398dc4fe	0.00027040386
241	0xba858d66	-0.0010189235
242	0x3c7c956d	0.015416485
243	0x3c4f0ecc	0.012637805
244	0xbbb361c2	-0.0054743
245	0xbb812cd0	-0.0039421096
246	0x3c1ce5a4	0.009576235
247	0x3c10927b	0.008823986
248	0x3a119608	0.00055536674
249	0x38921cae	6.9671645e-05
250	0x3a8ab701	0.0010583104
251	0xbaf2a108	-0.0018511126
252	0xbb3f4872	-0.0029187468
253	0x3ba5a9e4	0.005055653
254	0xbc1cc6fb	-0.009568925
255	0x3ba0171a	0.0048855664

lstm.bias_ih_l1 f4 [256]
0	0x3ab78df5	0.0014004098
1	0x3d50f256	0.05101236
2	0x3d12f246	0.03587558
3	0x3c8ed6af	0.017436353
4	0x3c3b11cc	0.011417817
5	0xbc93be5a	-0.018035103
6	0x3d29109c	0.041275606
7	0xbc7cde92	-0.015433924
8	0x3d7d1ee3	0.061797034
9	0x3c8d3fb2	0.017242286
10	0xbb8c00eb	-0.0042725704
11	0xbb317c5f	-0.0027082188
12	0x3e1dcca6	0.15410098
13	0xbb598bbc	-0.003319486
14	0x3e3a5233	0.18195419
15	0x3df47598	0.11936492
16	0x3bc7010f	0.0060731242
17	0x3cd8ed08	0.026480213
18	0xbc751f5a	-0.014961088
19	0x3e343730	0.17599177
20	0x3e07f723	0.13277869
21	0x3cd69e33	0.026198482
22	0x3cc42d68	0.023947433
23	0x3df56273	0.11981668
24	0xbc92c864	-0.01791782
25	0x3d808c37	0.06276744
26	0x3c24938f	0.010044946
27	0xbbc76479	-0.0060849753
28	0x3b688d46	0.0035484596
29	0x3cce2333	0.025163269
30	0xbc007178	-0.007839553
31	0x3c1d7606	0.0096106585
32	0x3d97fa8b	0.07420834
33	0x3d683213	0.05668838
34	0x3c930027	0.017944409
35	0x3de96258	0.11395711
36	0x3d20ebde	0.03928744
37	0x3b9e3a1a	0.0048287036
38	0x3e2af078	0.16693294
39	0x3d240a01	0.040048603
40	0xbd051139	-0.032487128
41	0x3cac3434	0.021020986
42	0x3dbaa994	0.09114376
43	0xbb5fd24d	-0.0034152449
44	0x3d4bb322	0.04973138
45	0xbc444e64	-0.01198158
46	0xbc4a153f	-0.012334167
47	0x3d92e96a	0.071734264
48	0xbc69d0cb	-0.0142709715
49	0x3da72264	0.08160856
50	0x3c61c737	0.013780407
51	0x3e0a1b48	0.1348697
52	0x3d85e6fc	0.065381974
53	0x3dbc919a	0.09207459
54	0x3dee9091	0.116486676
55	0x3df88b48	0.12135941
56	0xbc3a6fa7	-0.011379159
57	0x3d0d9724	0.034567967
58	0x3d8a7f1d	0.06762526
59	0x3b82c75e	0.0039910516
60	0x3c8966f3	0.016772723
61	0xbc248a1b	-0.010042693
62	0x3d707193	0.058702063
63	0xbcb4b096	-0.022056859
64	0xbc6ad6dc	-0.014333453
65	0x3b33a3ae	0.0027410793
66	0xbc1ac43e	-0.009446202
67	0xbb4d361f	-0.0031312776
68	0xbb5287bf	-0.0032124368
69	0xbc58c6a7	-0.013230956
70	0x3d08a5a9	0.03336111
71	0x3cef2c16	0.029195827
72	0xbd0097e4	-0.031394854
73	0x3acb2adf	0.0015500447
74	0xbc870221	-0.016480507
75	0xbc1ab23d	-0.009441909
76	0xbd03a38e	-0.0321384
77	0xbc522b94	-0.012827773
78	0x3dc6ed32	0.0971321
79	0xbb2b1c64	-0.0026109451
80	0xbcde2d35	-0.027121166
81	0xbd8da419	-0.06916065
82	0xbc3760c8	-0.011192508
83	0x3d21fb03	0.039546024
84	0x3c36e0af	0.011161967
85	0x3ca9dbe3	0.020734733
86	0xbcaee16a	-0.02134772
87	0x3d6bf56d	0.057607103
88	0xbd717f4b	-0.058959287
89	0x3c590a23	0.013247046
90	0xbcadc453	-0.021211779
91	0xb90fe25e	-0.00013721871
92	0xbd3d80f9	-0.046265576
93	0xbca832cc	-0.020532034
94	0xbc36935d	-0.011143533
95	0xbc3b32fa	-0.011425728
96	0x3d051447	0.03249004
97	0x3df1f79f	0.11814808
98	0xbc1f710e	-0.009731544
99	0x3dc3c1e5	0.09558467
100	0x3dbbe7d1	0.09175075
101	0x3c1cd853	0.00957306
102	0xbd028f3c	-0.03187488
103	0x39d01f4f	0.00039696178
104	0xbb2272da	-0.0024787695
105	0x3cf70b16	0.030156653
106	0x3ddfa9b4	0.1092104
107	0xbba3ead6	-0.00500236
108	0x3c1d78b6	0.009611299
109	0xbc5ae282	-0.013359668
110	0xbc4419ad	-0.011969012
111	0x3cd402d9	0.025880264
112	0xbc13bd21	-0.00901726
113	0x3b8bb3c6	0.004263374
114	0x3dc88a25	0.09791974
115	0x3ce6fb93	0.028196132
116	0x3d4c1a09	0.049829517
117	0xbc96fcb3	-0.018431043
118	0x3cfcc3c9	0.030855076
119	0x3dfee599	0.12446136
120	0xbbc150e8	-0.0058995374
121	0x3ae8f038	0.0017771786
122	0x3c282116	0.010261795
123	0x3a3363ef	0.00068431994
124	0x3d6b4e40	0.057447672
125	0xbc76486d	-0.015031916
126	0x3c6ec2a9	0.014572778
127	0xbd43e8ac	-0.047829315
128	0xbd608f42	-0.05482412
129	0x3d4a8e71	0.04945225
130	0x3ca55c40	0.02018559
131	0xbbda815b	-0.0066682524
132	0xbddda819	-0.10823078
133	0xbcb843d3	-0.022493279
134	0x3db98b53	0.09059777
135	0x3d50e054	0.050995186
136	0x3dcbe16a	0.09955104
137	0xbd9ed55e	-0.0775554
138	0xbc8ee228	-0.017441824
139	0xbb4211d6	-0.0029612682
140	0xbcb6044f	-0.022218851
141	0x3da40471	0.0800866
142	0xbdded94b	-0.10881289
143	0x3e29eed8	0.16595018
144	0xbd859cb1	-0.06524027
145	0x3da492d3	0.08035817
146	0x3d5fec73	0.054668855
147	0x3db7e5aa	0.08979352
148	0xbd69e212	-0.057100363
149	0x3d9e6d2f	0.07735669
150	0x3d657fa3	0.056029927
151	0x3d0b890f	0.034066256
152	0x3cfccb3c	0.030858628
153	0x3c1789eb	0.009249191
154	0xbc9109e4	-0.017704912
155	0xbd1ec439	-0.03876135
156	0x3da393c5	0.07987169
157	0x3d2f924c	0.04286413
158	0x3d280e1b	0.041029077
159	0xbd651688	-0.05592969
160	0xbd370dc0	-0.044690847
161	0x3e1cbc04	0.15306097
162	0xbd35cadb	-0.04438291
163	0x3dccf2ed	0.10007272
164	0xbe0b15dc	-0.13582557
165	0xbd7874aa	-0.060658135
166	0xbd090110	-0.03344828
167	0x3dc9ab84	0.09847167
168	0x3cf002d5	0.029298225
169	0x3d929ad2	0.07158436
170	0x3d8179c4	0.06322053
171	0x3c51ac32	0.012797402
172	0x3d69d178	0.05708453
173	0xbc904860	-0.017612636
174	0x3cfb944d	0.030710364
175	0x3d4b32fe	0.049609177
176	0x3cbea996	0.023274224
177	0xbcbb7b89	-0.022886055
178	0x3c693d1f	0.014235764
179	0x3d6e09ee	0.05811494
180	0xbd8b8596	-0.06812589
181	0x3d5fe465	0.054661173
182	0x3c84dc7e	0.01621842
183	0x3d7331de	0.05937373
184	0x3bf2b02f	0.0074062566
185	0x3d8a6cfb	0.067590676
186	0xbd7602f0	-0.060061395
187	0xbd24f6d4	-0.040274456
188	0x3e1a6b28	0.1507994
189	0x3d1c1d22	0.03811372
190	0xbcc6cfb9	-0.024268972
191	0xbe0b8b6f	-0.13627408
192	0x3b1e24a3	0.0024130724
193	0x3d5cb6e9	0.053885374
194	0x3bc52854	0.0060167704
195	0x3ca20bac	0.019780956
196	0xbc945365	-0.018106172
197	0xbc97ae4f	-0.018515734
198	0x3d177ebe	0.036986105
199	0xb78c0881	-1.669326e-05
200	0x3ce8814f	0.028381972
201	0x3e0a3b1c	0.13499111
202	0xbbbe5820	-0.005808845
203	0xba2bb448	-0.00065499963
204	0x3d8298df	0.06376814
205	0xbb0754cd	-0.002064991
206	0x3e2ac514	0.16676742
207	0xbac26d6b	-0.0014833634
208	0x3d5a606a	0.053314604
209	0x3d5e9846	0.054344438
210	0xbc7361ea	-0.0148548875
211	0x3e23eb01	0.16007616
212	0x3e137b7c	0.14402574
213	0x3b134414	0.0022470998
214	0x3b8a42b7	0.004219379
215	0x3dd11ff4	0.10211173
216	0x3c8409d6	0.016117971
217	0x3d6d1525	0.057881493
218	0x3cd45a4f	0.025921969
219	0x3abacfd4	0.0014252611
220	0x3cdda99c	0.027058415
221	0x3d6f9398	0.058490366
222	0xbbf181c4	-0.0073702056
223	0x3c60b9a6	0.013716137
224	0x3cb4f6b8	0.0220903
225	0xbc7db86c	-0.015485864
226	0x3c1f138c	0.00970925
227	0x3c16de3c	0.009208258
228	0x3d5ba91a	0.053628065
229	0x3bd9f24b	0.006651198
230	0x3dd1fc3d	0.10253189
231	0xbc8715e7	-0.016489936
232	0x3dc44113	0.095827244
233	0x3d08d091	0.03340203
234	0x3e17562a	0.14778963
235	0xbb5da995	-0.0033823003
236	0x3caca995	0.021076957
237	0xbc48a20d	-0.012245667
238	0xbc56249c	-0.013070252
239	0x3e0e3154	0.13886005
240	0xbc6c07d9	-0.014406168
241	0x3ad240f1	0.0016041083
242	0x3dee197c	0.116259545
243	0x3e0cb036	0.13739094
244	0xbd02ebab	-0.03196303
245	0x3d5fdf25	0.054656167
246	0x3df68bf0	0.1203841
247	0x3e1036b9	0.14083375
248	0xbc3a8a08	-0.011385448
249	0x3d34f383	0.044177543
250	0x3da94847	0.08265739
251	0xbd22d9cb	-0.039758485
252	0xb9ad6372	-0.00033071224
253	0xbc24fdbf	-0.010070263
254	0xbbc8e44e	-0.0061307317
255	0xbcf8a6bc	-0.030352943
