checkpoints/AM_LSTM_BCE_100epochs_종가_거래대금_거래량볼밴_이등분선_checkpoint.pth (torch, 214264 bytes, 9 tensors)

lstm.weight_ih_l0 f4 [256, 10]
0.03590676 0.0340926 0.009415215 0.019652376 0.054997236 0.02535568 0.019434476 0.003802254
-0.012281318 0.023510326 -0.030532667 -0.098755345 -0.022411337 0.050788157 -0.052901316 -0.06369837
-0.04999719 -0.024550013 0.017702948 -0.025629813 -0.022589449 -0.027202507 -0.013586175 -0.05793539
0.04094273 -0.089161344 0.041242212 0.015442765 0.08221667 -0.0170215 -0.054468293 -0.2693108
-0.011010876 -0.05739778 -0.003107468 -0.088285446 -0.10370618 0.02947409 -0.22444397 -0.22138326
-0.0699602 -0.1742553 -0.05299047 0.117123425 0.024170026 -0.06449679 -0.1458099 0.07094378
0.17836998 0.16714765 0.014057652 -0.010213648 -0.056760155 0.025533982 0.052603614 -0.020629026
-0.0125875585 -0.045018815 -0.029385127 -0.023826165 0.0128352465 -0.39926463 0.045968756 0.021672133
0.17230107 -0.23951474 -0.23545203 0.04393861 -0.14505431 -0.025223926 0.09894427 -0.022022331
0.1532645 0.012774637 0.028499696 0.048481874 0.0868025 -0.06418455 -0.116707094 -0.10098386
-0.09679294 -0.2516679 -0.09444949 -0.126174 -0.062291883 -0.33008194 -0.37904155 -0.004087188
0.0005686094 0.06597701 -0.045113128 -0.02863135 -0.042703003 -0.020525187 -0.048879664 -0.0579299
-0.04559319 0.0019765133 -0.02551063 -0.05395812 -0.2300332 -0.18909286 -0.20877102 -0.2010053
-0.15325654 -0.1364053 -0.11319852 -0.029788107 0.0027810219 -0.054495778 -0.06517132 -0.08616011
-0.110900216 -0.12720965 -0.15221693 -0.12650824 -0.08273052 0.015993282 0.07199903 0.07114438
0.111983165 0.14601366 0.03969157 -0.013484276 0.037068613 0.02000038 0.08585446 -0.044006746
-0.058946993 0.034047704 -0.072576694 -0.11523365 -0.031698734 -0.044183336 0.056447845 -0.053657964
-0.010998918 -0.017344138 0.045840025 -0.03872639 0.056274604 -0.074050665 -0.007809241 0.014054726
-0.074464366 -0.041977413 -0.07130924 -0.009504702 -0.105619706 -0.11305707 0.18424067 0.08932216
0.14709724 0.08936929 0.0801658 -0.02896287 -0.022431243 -0.057239875 -0.014163963 -0.09120325
-0.05580083 -0.2003691 0.04138996 -0.02184556 -0.005190819 -0.05441253 0.00503036 -0.014629706
-0.120908074 -0.11868128 -0.0752673 -0.0980317 0.0007333826 -0.08472652 0.007971068 -0.07414917
-0.055677287 0.008486141 -0.07363856 -0.06553885 -0.0040531466 -0.028241362 -0.082474545 -0.03496646
-0.10893806 -0.035841815 -0.028444614 -0.022111638 -0.046727773 -0.059767652 -0.009946202 -0.021521524
-0.070459284 -0.017415011 0.014732637 -0.029764274 -0.036334794 -0.00012500654 0.099036604 0.07320642
-0.096329 -0.27997175 -0.13361771 -0.20050393 -0.058185544 -0.26553944 -0.22164048 -0.056808885
-0.045753058 0.026960032 0.12209632 0.066855535 0.14912051 0.039030194 0.14056252 -0.022513166
0.027266243 -0.032910254 0.019287353 0.08736171 -0.05519114 -0.16527754 0.017310569 -0.094115846
0.046509556 -0.10467492 -0.10363191 0.021095617 -0.08078262 -0.09414705 -0.03555624 -0.10316228
-0.0015404687 -0.015033616 0.012190987 -0.028809378 0.0017638237 0.007117651 0.15864013 0.081553005
0.10085353 0.01296282 0.058388647 0.06209677 0.064698376 -0.0071145557 -0.0006187789 -0.01969291
-0.05845669 -0.0771029 -0.01616114 0.09018171 -0.04146923 0.11640136 0.12970987 -0.015503974
00000000: f712 133d afa4 0b3d 4642 1a3c 05fe a03c
00000010: c844 613d b7b6 cf3c 0d35 9f3c 3d2f 793b
00000020: 9537 49bc ba98 c03c a51f fabc 3e40 cabd
00000030: fb97 b7bc 3e07 503d 0daf 58bd 4a74 82bd
00000040: dac9 4cbd 1c1d c9bc c605 913c 9df5 d1bc
00000050: 820d b9bc cbd7 debc 8c98 5ebc a94d 6dbd
00000060: 90b3 273d 399a b6bd 98ed 283d a703 7d3c
00000070: 3761 a83d ac70 8bbc 251a 5fbd 1be3 89be
00000080: f666 34bc ef19 6bbd a9a6 4bbb 00cf b4bd
00000090: e863 d4bd a673 f13c a4d4 65be 4bb2 62be
000000a0: 4b47 8fbd fb6f 32be 890c 59bd 68de ef3d
000000b0: 3800 c63c e516 84bd 314f 15be f94a 913d
000000c0: 9fa6 363e c128 2b3e 1152 663c 2557 27bc
000000d0: 567d 68bd a42c d13c e376 573d 34fe a8bc
000000e0: 0c3c 4ebc a665 38bd 14b9 f0bc 172f c3bc
000000f0: ed4a 523c 6a6c ccbe bc49 3c3d c289 b13c
00000100: b16f 303e 5a43 75be 561a 71be f9f8 333d
00000110: 1e89 14be 68a2 cebc 4ba3 ca3d 2d68 b4bc
00000120: 5ef1 1c3e b64c 513c 3278 e93c ee94 463d
00000130: 82c5 b13d 3073 83bd 2104 efbd a0d0 cebd
00000140: 603b c6bd 9dda 80be bc6e c1bd c233 01be
00000150: c625 7fbd 8000 a9be bc11 c2be d1ed 85bb
00000160: bb0e 153a f41e 873d 8bc8 38bd 4b8c eabc
00000170: 58e9 2ebd 7024 a8bc 0b36 48bd e747 6dbd
00000180: edbf 3abd 6488 013b abfb d0bc 3103 5dbd
00000190: d38d 6bbe 8fa1 41be 12c8 55be 55d4 4dbe
000001a0: 48ef 1cbe d5ad 0bbe a0d4 e7bd 3006 f4bc
000001b0: ce41 363b f736 5fbd 8b78 85bd b674 b0bd
000001c0: a71f e3bd 3f43 02be c1de 1bbe 608b 01be
000001d0: 9e6e a9bd 5804 833c 3a74 933d 25b4 913d
000001e0: 6e57 e53d 9b84 153e a193 223d 27ed 5cbc
000001f0: 42d5 173d d6d7 a33c 77d4 af3d 6b40 34bd
00000200: 6772 71bd 9b75 0b3d 17a3 94bd 9fff ebbd
00000210: 88d6 01bd 96f9 34bd db35 673d 74c8 5bbd
00000220: ce34 34bc 4b15 8ebc c0c2 3b3d 909f 1ebd
00000230: 3380 663d e0a7 97bd a9e4 ffbb cb45 663c
00000240: c680 98bd 82f0 2bbd 940a 92bd 9cb9 1bbc
00000250: 254f d8bd 778a e7bd 96a9 3c3e 89ee b63d
00000260: a9a0 163e 3f07 b73d f82d a43d 8a43 edbc
00000270: bac1 b7bc 5c74 6abd f70f 68bc c5c8 babd
00000280: 698f 64bd 8f2d 4dbe 8588 293d 76f5 b2bc
00000290: bf17 aabb acdf 5ebd b8d5 a43b 6fb1 6fbc
000002a0: a79e f7bd 2c0f f3bd be25 9abd d8c4 c8bd
000002b0: 7940 403a 1985 adbd 1599 023c 85db 97bd
000002c0: de0d 64bd 7509 0b3c d0cf 96bd 3c39 86bd
000002d0: 42d0 84bb 6e5a e7bc 6ae8 a8bd fe38 0fbd
000002e0: eb1a dfbd dece 12bd ae04 e9bc 7723 b5bc
000002f0: 9f65 3fbd edce 74bd 65f5 22bc e84d b0bc
00000300: f54c 90bd eda9 8ebc 2961 713c 35d4 f3bc
00000310: cbd3 14bd 3014 03b9 b4d3 ca3d 3fed 953d
00000320: 2448 c5bd 7558 8fbe 15d3 08be e750 4dbe
00000330: f753 6ebd c9f4 87be b9f5 62be 6fb0 68bd
00000340: 8f67 3bbd 49db dc3c a30d fa3d 8eeb 883d
00000350: 0cb3 183e 20de 1f3d 9fef 0f3e 886d b8bc
00000360: 755d df3c e7cc 06bd 8300 9e3c b2ea b23d
00000370: 1b10 62bd 843e 29be e5ce 8d3c cfbf c0bd
00000380: ce80 3e3d ce5f d6bd f83c d4bd b7d0 ac3c
00000390: 5c71 a5bd 2bd0 c0bd 6ba3 11bd bf46 d3bd
000003a0: 8de9 c9ba 8e4f 76bc b5bc 473c a501 ecbc
000003b0: 1a30 e73a 2f3b e93b 8f72 223e 4305 a73d
000003c0: 4c8c ce3d 0262 543c ef28 6f3d 2f59 7e3d
000003d0: 9580 843d 3821 e9bb 8d35 22ba 0753 a1bc
000003e0: 4870 6fbd 20e8 9dbd 5e64 84bc 30b1 b83d
000003f0: a4db 29bd d663 ee3d aad2 043e 6104 7ebc

lstm.weight_hh_l0 f4 [256, 64]
0.014130061 -0.0034558387 -0.004054179 0.011904941 0.0017000769 0.015246718 -0.00201884 -0.026500836
0.0038358076 0.0029220686 -0.01364614 0.009053637 -0.021755818 -0.01217648 0.008306261 -0.021336196
0.012322807 -0.010256723 0.0052499664 0.0028337818 -0.011518869 0.025311954 0.015889233 -0.00022930917
-0.014418082 -0.01764012 -0.0026516255 -0.0009533824 -0.012814684 0.002441429 -0.020085778 0.0014325049
-0.019393073 0.0017868653 0.0015139257 -0.011759011 -0.024447838 -0.0298207 -0.002987889 7.840924e-05
-0.0015143148 -0.0020222638 -0.007125958 -0.0024498005 -0.020625023 0.014745397 -0.004979539 -0.0026067684
-0.007476746 -0.00680695 -0.00040421038 0.0005889407 -0.016032739 0.0060039097 0.00075835927 0.0017722406
-0.003474962 -0.006614387 0.019982439 0.0040861517 -0.0011598803 -0.008563909 -0.03405999 -0.0005422988
0.015916303 -0.021057788 -0.035095796 -0.03778805 -0.003935365 0.06479384 0.0076643024 -0.011126216
0.031360626 0.003381107 0.009250243 0.0009649391 0.01335309 -0.028266275 -0.0020674602 0.019479139
-0.030965043 -0.016254455 -0.03436296 -0.006043727 -0.040285707 0.0090351505 -0.0075389734 0.061862126
-0.03524287 0.016698964 0.06320671 3.8494254e-06 0.009615177 -0.058165703 0.017653419 -0.028927246
0.043607544 -0.048931118 0.017773984 0.031315207 -0.020718459 -0.01139434 0.070859484 0.07769205
-0.024142958 -0.07981785 -0.025736716 -0.14407822 0.018550772 0.022559226 -0.03019602 0.0053143436
-0.008212709 -0.03337398 -0.056853786 0.15379056 -0.0042439196 -0.004106125 -0.0921991 -0.008007487
-0.024340024 -0.031265948 0.012235076 0.00429204 0.09069247 -0.04455928 -0.07575683 0.081473425
0.010661125 -0.027345732 0.023374192 0.0049875393 -0.009104001 -0.0033067192 0.011899238 -0.013413365
0.0069603235 0.0033909718 -0.01877943 0.004602215 -0.021139123 0.01968281 0.0373469 -0.012859756
0.014389541 -0.0013186442 0.016885802 0.010433638 -0.007398174 0.041006804 0.014170353 0.020593906
0.0036881818 -0.01044002 -0.011080579 0.018017566 -0.0011694961 0.0080744345 -0.024994692 -0.006447417
0.033520475 0.020591322 0.0061717215 0.03599946 0.005802194 -0.015430352 0.0056081195 -0.012089662
0.00018154697 -0.030298566 -0.002329579 -0.025406623 -0.019918285 0.004738406 0.026452307 0.018165803
0.0010229852 -0.020886993 -0.007428614 0.053353153 0.008053578 0.0021429802 -0.035000183 -0.023510834
-0.009365421 0.010561197 -0.0056292247 0.027239636 -0.01261505 -0.003974019 -0.038882803 0.0074039465
0.027633425 0.059937056 -0.002617454 0.08876026 -0.11712177 0.026235428 -0.1667301 -0.06118071
0.08370241 0.032653388 -0.10159206 0.068987474 -0.019445192 -0.084114335 0.028909706 0.019308524
0.055888172 -0.03816384 0.027450753 -0.0063354885 -0.081318125 0.052112907 0.074004315 -0.06449179
-0.026349485 -0.0058324216 0.002930853 0.08451566 -0.103450485 -0.0048430967 -0.04577577 0.05857838
-0.0063510225 0.07477676 0.012862577 -0.068961926 0.008364072 0.0079557765 -0.12612565 -0.13462383
-0.012391422 0.015670463 -0.0062094773 0.16070558 0.014249095 0.062937714 0.065595485 0.041070256
0.02779907 0.014783832 0.09969117 -0.16218218 -0.069288425 0.030894186 0.09163149 -0.07989247
0.052839596 0.09109094 0.11354149 -0.02976083 -0.02715524 0.031034408 -0.03989235 -0.07123417
00000000: c581 673c 5a7b 62bb ebd8 84bb f10c 433c
00000010: 1dd5 de3a 5fcd 793c 844e 04bb 4818 d9bc
00000020: 2c62 7b3b 2d80 3f3b 0f94 5fbc b555 143c
00000030: 4239 b2bc dc7f 47bc fc16 083c 3fc9 aebc
00000040: 99e5 493c d00b 28bc e907 ac3b f8b6 393b
00000050: a3b9 3cbc 045b cf3c 232a 823c b672 70b9
00000060: d239 6cbc 0382 90bc e5c6 2dbb 69ec 79ba
00000070: aef4 51bc 6200 203b ee8a a4bc e3c2 bb3a
00000080: 39de 9ebc 4035 ea3a eb6e c63a dea8 40bc
00000090: d546 c8bc 8a4a f4bc 76d0 43bb a46f a438
000000a0: f97b c6ba f587 04bb de80 e9bb d58c 20bb
000000b0: cff5 a8bc ad96 713c 672b a3bb 51d6 2abb
000000c0: 7eff f4bb d60c dfbb 33ec d3b9 2463 1a3a
000000d0: 1757 83bc 72bc c43b a1cc 463a 874a e83a
000000e0: 30bc 63bb 80bd d8bb 36b2 a33c 20e5 853b
000000f0: 2007 98ba a34f 0cbc 7d82 0bbd 0e29 0eba
00000100: e862 823c 6281 acbc 9cc0 0fbd a4c7 1abd
00000110: 3cf4 80bb a2b2 843d d424 fb3b bb4a 36bc
00000120: 0074 003d 9095 5d3b 558e 173c f8f3 7c3a
00000130: ebc6 5a3c ad8e e7bc 3a7e 07bb b792 9f3c
00000140: 67aa fdbc 1028 85bc 2dc0 0cbd 750a c6bb
00000150: a002 25bd 2b08 143c 7e09 f7bb 2463 7d3d
00000160: d45a 10bd 44cc 883c 8572 813d 502a 8136
00000170: fa88 1d3c 293f 6ebd e79d 903c d5f8 ecbc
00000180: d39d 323d ff6b 48bd bf9a 913c 6044 003d
00000190: c2b9 a9bc 53af 3abc c71e 913d 021d 9f3d
000001a0: 74c7 c5bc 8a77 a3bd ced5 d2bc 3e89 13be
000001b0: caf7 973c 20ce b83c a55d f7bc f223 ae3b
000001c0: 998e 06bc 28b3 08bd 84df 68bd 467b 1d3e
000001d0: 9410 8bbb ac8c 86bb e2d2 bcbd d631 03bc
000001e0: bb64 c7bc b910 00bd a175 483c 3ea4 8c3b
000001f0: f9bc b93d cb83 36bd 6626 9bbd 8adb a63d
00000200: 00ac 2e3c 2804 e0bc 3c7b bf3c 836e a33b
00000210: f328 15bc 8bb5 58bb 06f5 423c bbc3 5bbc
00000220: 6d13 e43b 113b 5e3b 52d7 99bc 2dce 963b
00000230: f42b adbc d83d a13c 10f9 183d bab1 52bc
00000240: 1cc2 6b3c 5bd6 acba 1854 8a3c d9f1 2a3c
00000250: 626c f2bb c0f6 273d c52a 683c 8db4 a83c
00000260: 6cb5 713b 9e0c 2bbc 518b 35bc 9399 933c
00000270: c749 99ba a24a 043c abc1 ccbc db44 d3bb
00000280: c44c 093d 22af a83c 273c ca3b 2b74 133d
00000290: 5520 be3b 96cf 7cbc 51c4 b73b b813 46bc
000002a0: a55d 3e39 b334 f8bc daab 18bb 8d21 d0bc
000002b0: ac2b a3bc a144 9b3b 82b2 d83c 73d0 943c
000002c0: b015 863a 331b abbc bb6b f3bb d688 5a3d
000002d0: 28f3 033c 3e71 0c3b 5a5c 0fbd cb99 c0bc
000002e0: 6c71 19bc df08 2d3c 5c75 b8bb a825 df3c
000002f0: 5baf 4ebc 7d38 82bb 9343 1fbd ce9c f23b
00000300: 7e5f e23c 8f80 753d 9789 2bbb f0c7 b53d
00000310: 8add efbd aeeb d63c 4cbb 2abe a098 7abd
00000320: 2b6c ab3d 8fbf 053d 7f0f d0bd 4e49 8d3d
00000330: 864b 9fbc 2344 acbd 0cd4 ec3c e92c 9e3c
00000340: ffea 643d b051 1cbd 67e0 e03c ee99 cfbb
00000350: 1e8a a6bd 5874 553d 938f 973d 4614 84bd
00000360: e0da d7bc e61d bfbb 8e13 403b 8c16 ad3d
00000370: d9dd d3bd d7b2 9ebb 607f 3bbd e2ef 6f3d
00000380: 3d1c d0bb 8f24 993d 8fbd 523c e93b 8dbd
00000390: 7609 093c f258 023c 1527 01be d4da 09be
000003a0: 6405 4bbc 585f 803c df78 cbbb 0190 243e
000003b0: 0975 693c 7de5 803d ed56 863d 4939 283d
000003c0: e0ba e33c e337 723c e22a cc3d 1613 26be
000003d0: 17e7 8dbd ce15 fd3c 4aa9 bb3d aa9e a3bd
000003e0: 556e 583d e38d ba3d 7188 e83d fccc f3bc
000003f0: aa74 debc df3b fe3c 2966 23bd 38e3 91bd

lstm.bias_ih_l0 f4 [256]
0.058528017 -0.08787046 -0.041044448 0.11911793 -0.017852966 0.04731331 0.25970662 -0.051491905
0.054415673 -0.039961025 0.045915395 0.04092452 0.019966556 0.022611339 0.026383558 -0.0051924484
0.108718775 -0.07608631 0.05779612 -0.07359284 0.066331044 0.10671628 0.09418122 0.027549697
-0.026188843 -0.095193684 0.042550232 -0.11168659 0.027557593 -0.06385424 -0.023420662 0.020545257
0.032115124 0.036486465 -0.07328703 -0.039819412 0.02137775 -0.09571123 0.100433365 0.041623913
-0.026314437 -0.007977427 -0.027269302 0.14230582 -0.002070184 0.08871346 0.06942484 -0.049800705
-0.06837533 -0.091789044 0.03356527 0.10192626 0.07438593 -0.050792616 -0.11972554 -0.0021788015
0.10108096 -0.008099982 0.06844745 0.0051420787 0.008637628 -0.020978121 0.010254191 0.0446518
-0.05759861 -0.12554374 -0.040594097 0.14592959 0.099072956 -0.037932087 0.22839461 -0.043344174
0.19840539 -0.02015161 0.1545902 -0.018599946 0.050474223 0.110191785 -0.055407178 0.0033512951
0.14238931 -0.05308553 -0.072972424 -0.062356826 0.15257697 0.07516694 0.09589458 0.007314268
-0.048753418 0.06589794 -0.059666414 0.044458985 0.034394186 0.03530084 -0.06420044 -0.01269096
-0.115123965 -0.07706093 -0.080918625 0.056897957 -0.089127384 0.002981752 -0.02572626 -0.043756038
0.020797735 -0.09161007 -0.04709433 -0.018783186 0.010430647 0.09204506 0.09364741 -0.06925127
-0.06326584 0.008366994 -0.051014986 0.20845765 0.21495101 0.06918631 0.0633799 0.09921819
0.07581048 -0.11976285 -0.014275492 -0.08578126 -0.0943181 -0.06191997 -0.017383222 0.06460731
-0.029165372 0.06433725 0.03228835 -0.09952159 -0.051692326 0.03724228 -0.05866334 0.018623576
0.08440201 -0.071078494 0.006300123 0.086005025 -0.055222247 -0.0933266 0.09084902 0.09470478
-0.08484151 0.054263473 0.059502434 -0.07033025 -0.07002825 -0.08731816 0.08034129 0.034894887
0.012223478 0.011215868 0.058813404 0.087890826 -0.10714476 -0.041583627 0.024980623 0.06732452
0.025468262 0.16068734 -0.0703037 -0.10400181 0.14152049 0.020230105 -0.1476104 -0.12696035
-0.026555326 0.14186142 0.093287095 0.10688832 0.1294578 0.015105135 0.054726925 0.040820528
-0.048649948 -0.0014450924 0.125402 -0.0622461 -0.05566747 -0.0121877 0.045536254 -0.06252935
0.070584536 0.11442574 0.1506225 -0.056276873 -0.074378856 0.08612068 0.122054555 -0.04536588
0.021149486 0.0534286 0.008415767 0.04711692 -0.008299292 -0.08621125 0.09504175 0.09240404
0.10732217 -0.027301198 0.1110453 -0.010808825 -0.09048447 -0.044591065 0.019861272 0.032989744
0.03872484 0.015815305 0.030174758 -0.011273567 0.10486033 0.13350628 0.04700263 -0.0067461734
0.008886436 -0.12617293 -0.06749397 0.033218026 0.022097746 0.04024072 0.014627986 0.09309576
-0.056250338 -0.06814336 -0.09373653 0.07468033 0.0459272 -0.047778282 0.04767359 0.03203648
-0.027028047 -0.06479358 -0.03990381 -0.062813714 0.08019569 0.03232591 -0.06497 -0.0069600693
-0.030473497 -0.08401326 -0.046438813 0.12278009 0.16304669 -0.010343549 -0.08602244 -0.016663074
-0.044107664 0.06356265 0.0044811685 -0.07331919 -0.05075375 0.03054734 -0.055551592 0.0926999
00000000: 13bb 6f3d 6df5 b3bd 391e 28bd 1af4 f33d
00000010: 6240 92bc 9acb 413d 44f8 843e 2de9 52bd
00000020: f8e2 5e3d 2cae 23bd c811 3c3d 78a0 273d
00000030: e790 a33c 6a3b b93c 5522 d83c 6a25 aabb
00000040: f3a7 de3d 24d3 9bbd a0bb 6c3d d8b7 96bd
00000050: 92d8 873d 118e da3d 15e2 c03d e7af e13c
00000060: fc89 d6bc e8f4 c2bd 2749 2e3d f0bb e4bd
00000070: 76c0 e13c 03c6 82bd b0dc bfbc 874e a83c
00000080: 268b 033d d572 153d 8317 96bd ae19 23bd
00000090: 6420 af3c 4004 c4bd 02b0 cd3d d67d 2a3d
000000a0: 6091 d7bc c1b3 02bc df63 dfbc 9eb8 113e
000000b0: edab 07bb 67af b53d 9c2e 8e3d d3fb 4bbd
000000c0: 5d08 8cbd e5fb bbbd bd7b 093d b7be d03d
000000d0: a757 983d eb0b 50bd aa32 f5bd 39ca 0ebb
000000e0: 8903 cf3d c9b5 04bc 2d2e 8c3d e27e a83b
000000f0: d684 0d3c 4fda abbc 3201 283c cee4 363d
00000100: 85ec 6bbd 8a8e 00be ff45 26bd 916e 153e
00000110: c3e6 ca3d ad5e 1bbd 47e0 693e a989 31bd
00000120: c82a 4b3e fd14 a5bc e54c 1e3e ea5e 98bc
00000130: 0fbe 4e3d 3bac e13d a3f2 62bd 67a1 5b3b
00000140: 81ce 113e 3670 59bd 9172 95bd df69 7fbd
00000150: 233d 1c3e 20f1 993d 6164 c43d 87ac ef3b
00000160: aab1 47bd 80f5 863d c564 74bd a01a 363d
00000170: ebe0 0c3d 9d97 103d 857b 83bd bfed 4fbc
00000180: 1dc6 ebbd 1fd2 9dbd aab8 a5bd d50d 693d
00000190: 6b88 b6bd 7f69 433b e1bf d2bc 8839 33bd
000001a0: 0360 aa3c 0f9e bbbd fce5 40bd 32df 99bc
000001b0: 4ee5 2a3c 1f82 bc3d 37ca bf3d 9cd3 8dbd
000001c0: 8591 81bd b715 093c 17f5 50bd ec75 553e
000001d0: 1e1c 5c3e 8db1 8d3d 52cd 813d e832 cb3d
000001e0: 8642 9b3d 3a46 f5bd c1e3 69bc 16ae afbd
000001f0: d929 c1bd cb9f 7dbd 4267 8ebc d650 843d
00000200: 38ec eebc 40c3 833d ca40 043d fad1 cbbd
00000210: 55bb 53bd 5c8b 183d f848 70bd 7890 983c
00000220: f6da ac3d 9a91 91bd 4371 ce3b 6723 b03d
00000230: b930 62bd 0422 bfbd 0d0f ba3d 94f4 c13d
00000240: 63c1 adbd 6043 5e3d d3b8 733d 4e09 90bd
00000250: f96a 8fbd ddd3 b2bd f989 a43d f1ed 0e3d
00000260: fc44 483c c3c2 373c 53e6 703d 1b00 b43d
00000270: b66e dbbd 9853 2abd 2aa4 cc3c 70e1 893d
00000280: d1a2 d03c 398b 243e 63fb 8fbd e7fe d4bd
00000290: bfea 103e 9bb9 a53c 2e27 17be e501 02be
000002a0: 8e8a d9bc 1f44 113e 4e0d bf3d 43e8 da3d
000002b0: 9690 043e 877b 773c 5729 603d 6d33 273d
000002c0: 2b45 47bd 4169 bdba 6269 003e c4f5 7ebd
000002d0: 9303 64bd ebae 47bc 3984 3a3d 630f 80bd
000002e0: a08e 903d 0b58 ea3d c93c 1a3e 9482 66bd
000002f0: f153 98bd 0a60 b03d bdf7 f93d 93d1 39bd
00000300: b041 ad3c f3d7 5a3d 49e2 093c acfd 403d
00000310: c1f9 07bc 868f b0bd 40a5 c23d 543e bd3d
00000320: bacb db3d c3a6 dfbc b86b e33d 7f17 31bc
00000330: ec4f b9bd 1fa5 36bd 1bb4 a23c 4120 073d
00000340: f09d 1e3d 198f 813c 0e31 f73c c4b4 38bc
00000350: 03c1 d63d dfb5 083e d485 403d 010f ddbb
00000360: 6a98 113c 7a33 01be 473a 8abd a00f 083d
00000370: 5506 b53c 74d3 243d 38aa 6f3c fda8 be3d
00000380: c166 66bd bf8e 8bbd f0f8 bfbd 00f2 983d
00000390: 291e 3c3d 29b3 43bd 6245 433d af38 033d
000003a0: ec69 ddbc 7fb2 84bd 2d72 23bd 7aa4 80bd
000003b0: a33d a43d 2c68 043d fe0e 85bd 4b11 e4bb
000003c0: 8ea3 f9bc 250f acbd a036 3ebd 2174 fb3d
000003d0: b6f5 263e fd77 29bc 882c b0bd 0081 88bc
000003e0: 3daa 34bd 222d 823d c4d6 923b 5f28 96bd
000003f0: 2ae3 4fbd 6a3e fa3c 118a 63bd 72d9 bd3d

lstm.bias_hh_l0 f4 [256]
0.055129573 -0.08324696 0.08097727 0.14409375 0.067742825 0.0058092535 0.14728172 -0.02096617
0.11851137 -0.06205766 0.16653676 0.03593669 -0.018835692 0.019185286 -0.04716181 -0.0201372
0.08408034 -0.02536847 -0.021887952 -0.11167644 0.10894931 0.06901679 -0.025978616 0.009317251
-0.07749864 -0.07734528 -0.052690227 0.058793988 0.026833095 0.0798752 0.017523224 -0.055410016
-0.078200474 0.07642369 -0.021447124 -0.01645069 -0.02394292 0.08104835 0.10473704 -0.020501755
0.018192649 0.061546452 -0.034788493 -0.03922256 -0.008271812 0.09592118 -0.03424493 0.005708496
-0.038803376 0.061400868 0.06284715 0.045301497 0.20532773 0.008876133 0.0030579343 -0.054958407
0.038881816 -0.087412685 0.08186777 0.02291653 0.067831166 0.021920409 -0.026551515 -0.067124195
-0.016903011 0.047075227 -0.047003075 0.18711554 0.09526733 0.07564841 0.35113868 0.02345001
0.21992317 -0.060172006 0.06018374 -0.002956656 0.018780319 0.019144552 -0.03168072 0.042593576
0.14065486 -0.0013697939 0.006660987 -0.07245682 0.16583045 0.017237239 -0.011713185 -0.055300348
0.06370199 0.0735937 0.039371397 0.079040706 -0.02216788 0.080311365 0.02293189 -0.01925213
-0.0152546 -0.067450985 -0.047325727 0.113511674 -0.06965494 -0.086627856 0.11762771 -0.012979798
0.013988915 -0.058672044 -0.013187455 0.14470105 0.009723282 0.040118255 0.07734808 0.014223396
0.07193772 -0.10853074 0.07227269 0.09830949 0.15779991 -0.018149376 -0.056736603 0.0419471
-0.026697457 -0.11634794 -0.023817016 -0.06290673 -0.09921996 0.024093973 -0.043511 0.09579319
-0.03962154 -0.07591359 -0.019269692 0.027781054 -0.10442713 0.09872745 0.008725211 -0.006813505
0.09479514 0.12321686 -0.06325794 0.021223716 0.03661623 0.0019281991 0.065113395 0.14572068
0.017530547 -0.13040541 0.026495958 0.009946304 -0.06740702 0.04122521 0.0044762176 -0.120622344
0.093091 0.0031709196 0.019979559 0.066378824 -0.071974225 0.050330512 -0.041065983 0.11923903
-0.06908625 -0.013889894 -0.030897943 -0.080373175 -0.018587653 0.16205631 -0.15240307 -0.08866999
-0.06895704 -0.05139376 -0.02336552 0.12551709 -0.00016573242 0.013489154 0.0062318943 0.022935746
0.089656144 -0.037888784 0.11325928 -0.14794852 0.046088506 -0.04624547 0.045774043 0.04762742
0.1282731 -0.007945455 0.03011502 0.06355804 -0.041916955 0.09621846 -0.052617174 -0.030997064
-0.038308393 -0.10806851 0.05059579 0.031267494 -0.044827126 0.075861774 0.21480298 0.12026332
0.045262605 0.0016747735 0.1020599 0.013230984 0.047568403 0.14020471 -0.02491965 0.04030518
0.0052315216 0.030270558 0.022893766 0.037203465 0.123030595 0.105656154 -0.054266617 -0.07110105
0.03954978 0.0037582587 -0.048177704 0.0317515 -0.013552694 0.100368574 -0.0305624 -0.110052295
0.083986804 -0.046494976 -0.038135894 0.12159418 -0.0015163205 -0.006562548 0.0686479 0.08670214
-0.055103004 -0.021966092 -0.041788395 0.118946016 -0.09315378 -0.06254092 0.06037011 0.059770726
-0.08558865 0.04665373 0.052431326 -0.018515123 0.17258891 -0.040157255 -0.115009844 0.07039736
-0.042636093 0.070695065 0.00010262462 -0.14333713 0.02344317 0.04218265 0.022368023 0.09655856
00000000: 8ccf 613d 627d aabd 69d7 a53d 508d 133e
00000010: c0bc 8a3d 8d5b be3b 05d1 163e 3fc1 abbc
00000020: 17b6 f23d 2c30 7ebd 9d88 2a3e 5a32 133d
00000030: 4f4d 9abc 762a 9d3c be2c 41bd c5f6 a4bc
00000040: 5032 ac3d 8ad1 cfbc 5d4e b3bc 9eb6 e4bd
00000050: d120 df3d ad58 8d3d 1bd1 d4bc 62a7 183c
00000060: 9bb7 9ebd 3467 9ebd b5d1 57bd f7d1 703d
00000070: 14d1 db3c 9c95 a33d dd8c 8f3c 9df5 62bd
00000080: 9227 a0bd 0684 9c3d e1b1 afbc 99c3 86bc
00000090: f123 c4bc adfc a53d 6080 d63d 4cf3 a7bc
000000a0: c008 953c 2218 7c3d 617e 0ebd d6a7 20bd
000000b0: 7f86 07bc 5372 c43d 6944 0cbd 560e bb3b
000000c0: 4af0 1ebd 7a7f 7b3d 02b6 803d 108e 393d
000000d0: 6f41 523e 336d 113c a067 483b 111c 61bd
000000e0: 8a42 1f3d 6c05 b3bd 4aaa a73d 72bb bb3c
000000f0: 11eb 8a3d 6e92 b33c 9082 d9bc 6978 89bd
00000100: 2f78 8abc f4d1 403d 4c86 40bd 379b 3f3e
00000110: 851b c33d 8eed 9a3d 73c8 b33e 3c1a c03c
00000120: 8a33 613e ec76 76bd 3a83 763d 75c4 41bb
00000130: 2fd9 993c 09d5 9c3c a5c3 01bd 9a76 2e3d
00000140: d407 103e a88a b3ba 6944 da3b 3e64 94bd
00000150: 75cf 293e 1c35 8d3c a9e8 3fbc 9e82 62bd
00000160: 3076 823d 4bb8 963d e743 213d 18e0 a13d
00000170: 6a99 b5bc 497a a43d a9db bb3c a5b6 9dbc
00000180: 6eee 79bc be23 8abd 9fd8 41bd cf78 e83d
00000190: 40a7 8ebd f269 b1bd cce6 f03d 38a9 54bc
000001a0: c331 653c 1952 70bd 3210 58bc 832c 143e
000001b0: 674e 1f3c 0a53 243d ac68 9e3d 3f09 693c
000001c0: 1554 933d 5d45 debd b403 943d 7c56 c93d
000001d0: 4d96 213e 00ae 94bc a464 68bd b9d0 2b3d
000001e0: a0b4 dabc d447 eebd e71b c3bc 3ed5 80bd
000001f0: d633 cbbd b960 c53c 9738 32bd 382f c43d
00000200: 324a 22bd 9678 9bbd 79db 9dbc 1895 e33c
00000210: e4dd d5bd 9e31 ca3d 30f4 0e3c d343 dfbb
00000220: f423 c23d 1f59 fc3d 618d 81bd 5cdd ad3c
00000230: e6fa 153d a0bb fc3a 2c5a 853d cd37 153e
00000240: 399c 8f3c ff88 05be 0d0e d93c d3f5 223c
00000250: b10c 8abd c4db 283d 3cad 923b d908 f7bd
00000260: 7fa6 be3d 34cf 4f3b 2cac a33c 9ff1 873d
00000270: 3967 93bd 5e27 4e3d ce34 28bd 9833 f43d
00000280: 187d 8dbd 7092 63bc af1d fdbc b19a a4bd
00000290: 2245 98bc 17f2 253e 8d0f 1cbe 9d98 b5bd
000002a0: 5939 8dbd 4382 52bd 0c69 bfbc 8d87 003e
000002b0: 75c8 2db9 9d01 5d3c eb34 cc3b bfe3 bb3c
000002c0: a49d b73d 4531 1bbd 7bf4 e73d d17f 17be
000002d0: 4dc7 3c3d e46b 3dbd 907d 3b3d f814 433d
000002e0: 065a 033e a72d 02bc c6b3 f63c b82a 823d
000002f0: 1db1 2bbd 2f0e c53d 1b85 57bd 8eed fdbc
00000300: 43e9 1cbd 0653 ddbd 883d 4f3d 5812 003d
00000310: a69c 37bd 6b5d 9b3d 50f5 5b3e 9e4c f63d
00000320: 4865 393d 1384 db3a c804 d13d c5c6 583c
00000330: 16d7 423d d391 0f3e 4b24 ccbc 0b17 253d
00000340: 2f6d ab3b f6f9 f73c b58b bb3c a962 183d
00000350: 77f7 fb3d 4162 d83d ac46 5ebd 6d9d 91bd
00000360: f3fe 213d 1e4d 763b fc55 45bd dc0d 023d
00000370: 1e0c 5ebc 0a8e cd3d 005e fabc 1963 e1bd
00000380: 4601 ac3d 8471 3ebd 6234 1cbd 5f06 f93d
00000390: 46bf c6ba a50a d7bb 4597 8c3d e490 b13d
000003a0: b0b3 61bd 3cf2 b3bc 4f2a 2bbd f899 f33d
000003b0: 69c7 bebd 7415 80bd a646 773d 26d2 743d
000003c0: 1a49 afbd fb17 3f3d 3bc2 563d 07ad 97bc
000003d0: 26bb 303e ef7b 24bd 488a ebbd 7e2c 903d
000003e0: 2fa3 2ebd 93c8 903d 2c38 d738 f8c6 12be
000003f0: e40b c03c b7c7 2c3d 253d b73c 7fc0 c53d

lstm.weight_ih_l1 f4 [256, 64]
0.011857906 -0.011247009 0.0014659176 0.0073659094 -0.022906406 -0.002101527 -0.009749142 -0.040316507
-0.0033645097 0.0056643416 -0.032586 0.015486323 -0.019931888 -0.009770162 0.014874126 -0.04258557
0.007229724 0.00051304145 -0.0060715154 -0.00048176124 -0.008644514 0.016238265 0.017616112 -0.017297486
-0.022753673 -0.019947747 -0.0017741785 0.0007527281 -0.0065069445 0.006841131 -0.015601237 -0.014398741
-0.023662368 0.014568037 0.010265764 0.001093566 -0.019505475 -0.056711882 0.0035473604 -0.031125
0.007833243 0.00710617 -0.006344107 0.049403068 -0.02308657 0.0063716657 0.0010228524 -0.009560388
0.0036760992 -0.01617971 0.0107811 -0.015322098 -0.0019232669 0.0071151196 0.008968401 -0.005161492
-0.01221388 0.010306988 0.01698394 -0.0028076342 0.013580624 -0.004002059 -0.053624358 -0.019951254
0.010645725 -0.035899725 0.012467829 0.013180623 -0.0055521238 0.0053951507 -0.026279109 -0.033926714
0.011209634 0.0022617874 -0.022367477 0.017741693 -0.04773572 -0.025411231 0.023670163 -0.03381871
0.015331477 -0.0123004485 7.845606e-05 0.00042035762 -0.044045012 0.016327543 0.052393973 -0.02310632
-0.01961015 -0.04403764 0.007459307 -0.07348801 -0.012746416 0.013524727 -0.06854011 -0.04262773
-0.0678161 -0.03558605 -0.004061118 -0.0048295367 -0.034935392 -0.067033775 0.045004882 0.013168036
0.0054847575 -0.017775971 -0.026266158 -0.05141976 -0.023421824 0.043391988 -0.02195424 -0.042779446
-0.00874458 -0.04779109 -0.02728903 0.011897028 0.0075785704 0.014727114 -0.033012882 -0.004606997
0.017287975 -0.024755668 0.059036203 0.03035837 0.04515961 -0.028879529 -0.032248653 0.0045638196
0.017365756 -0.025076017 -0.004249325 -0.008533657 -0.03430758 0.029486852 -0.0031870282 -0.01963889
-0.018337324 0.00549276 -0.060654063 0.019344596 -0.05020986 -0.025442753 0.014374515 -0.043357585
-0.015323173 -0.0062770024 0.0030704697 -0.0013560714 -0.02619133 0.055857483 0.022394728 0.0039784475
-0.02491995 -0.035947513 -0.013458932 0.004961885 0.0036044675 0.014285595 -0.030258225 -0.02685677
-0.03582469 -0.009702736 0.017732782 -0.03552162 -0.03727739 -0.038200587 -0.0066464734 0.0068030166
0.011385483 -0.016394354 -0.011772949 -0.04020589 -0.02418112 0.016880995 0.004539419 -0.0030639889
-0.011372011 -0.03232633 -0.020788688 0.003149268 0.03544216 0.022148177 -0.023217795 0.030880352
-0.018451702 -0.013988836 0.034364104 0.008318492 0.020555431 -0.007073047 -0.040332437 -0.024249895
0.018383823 -0.032239363 -0.0029401432 -0.051339507 -0.00030534575 0.0201244 0.048166655 -0.034401737
-0.00393708 -0.0006941589 -0.019872956 0.012631191 -0.07050136 -0.04316025 0.043181766 -0.053655747
-0.028242202 0.0010235867 0.03360285 0.0012437192 -0.011934939 0.04345151 0.00503888 0.008882977
-0.023084013 -0.08749604 -0.014588315 -0.05060928 0.014266874 0.002312052 -0.03758189 -0.07042186
-0.06720741 -0.008513919 0.0040624943 -0.061493825 -0.05515933 -0.06900994 0.042415738 0.072776735
0.01509936 -0.0462631 -0.0113490755 -0.14604573 -0.05782213 0.0053188796 -0.063827105 -0.008707445
-0.03500905 -0.049607866 -0.04298106 0.033290606 0.06816673 0.010139374 -0.026430061 0.0490582
-0.0139958905 -0.0751732 0.0076363524 0.04311025 0.04030847 -0.015602892 -0.09398202 0.0018689478
00000000: aa47 423c 6045 38bc 0824 c03a ba5d f13b
00000010: 37a6 bbbc c6b9 09bb deba 1fbc ec22 25bd
00000020: 1b7f 5cbb f19b b93b e678 05bd 59ba 7d3c
00000030: 3348 a3bc 0813 20bc 9bb2 733c 356e 2ebd
00000040: 52e7 ec3b a17d 063a 90f3 c6bb e694 fcb9
00000050: b8a1 0dbc 1c06 853c aa4f 903c 75b3 8dbc
00000060: e965 babc 7569 a3bc 8d8b e8ba ba52 453a
00000070: 3538 d5bb 912b e03b 559c 7fbc b2e8 6bbc
00000080: 95d7 c1bc c7ae 6e3c bc31 283c fc55 8f3a
00000090: f2c9 9fbc b84a 68bd d57a 683b dbf9 febc
000000a0: 0157 003c e0da e83b 3ae2 cfbb df5a 4a3d
000000b0: 0c20 bdbc 68c9 d03b 3b11 863a 2ca3 1cbc
000000c0: b6ea 703b 508b 84bc 36a3 303c 8909 7bbc
000000d0: 2116 fcba f325 e93b 33f0 123c bc21 a9bb
000000e0: ba1c 48bc a4de 283c e721 8b3c 4900 38bb
000000f0: 4481 5e3c b423 83bb 37a5 5bbd d070 a3bc
00000100: 686b 2e3c 970b 13bd dd45 4c3c 8af3 573c
00000110: 97ee b5bb cec9 b03b 4947 d7bc bdf6 0abd
00000120: 9da8 373c 7f3a 143b 003c b7bc 0757 913c
00000130: 8886 43bd 372b d0bc eee7 c13c 7d85 0abd
00000140: e030 7b3c d287 49bc c788 a438 7263 dc39
00000150: 8b68 34bd 57c1 853c 109b 563d 7749 bdbc
00000160: 77a5 a0bc d060 34bd 346d f43b e280 96bd
00000170: 58d6 50bc d196 5d3c c25e 8cbd 6a9a 2ebd
00000180: 2be3 8abd aec2 11bd 2013 85bb 1741 9ebb
00000190: 6a18 0fbd 0149 89bd 0a57 383d bfbe 573c
000001a0: 7bb9 b33b ea9e 91bc 202c d7bc 879d 52bd
000001b0: 20df bfbc ccbb 313d 61d9 b3bc 8039 2fbd
000001c0: 6d45 0fbc 97c0 43bd 3e8d dfbc c1eb 423c
000001d0: a855 f83b fe49 713c 8438 07bd 4bf6 96bb
000001e0: 839f 8d3c 66cc cabc f2cf 713d 1eb2 f83c
000001f0: 49f9 383d c394 ecbc 2a17 04bd 188c 953b
00000200: a142 8e3c 386c cdbc ec3d 8bbb c0d0 0bbc
00000210: 1b86 0cbd 698e f13c 76dd 50bb bde1 a0bc
00000220: 2838 96bc 9cfc b33b 6570 78bd 8f78 9e3c
00000230: dba8 4dbd 526d d0bc 1683 6b3c b997 31bd
00000240: 0c0e 7bbc 50af cdbb ef39 493b 35be b1ba
00000250: 338f d6bc d1ca 643d 2675 b73c a35d 823b
00000260: ec24 ccbc b33d 13bd da82 5cbc 4f97 a23b
00000270: ee38 6c3b 210e 6a3c 19e0 f7bc bb02 dcbc
00000280: e9bc 12bd 39f8 1ebc 5744 913c 1e7f 11bd
00000290: 2db0 18bd 3878 1cbd a9ca d9bb d7eb de3b
000002a0: 2d8a 3a3c 744d 86bc 54e3 40bc eeae 24bd
000002b0: 7c17 c6bc 034a 8a3c 68bf 943b 34cd 48bb
000002c0: ac51 3abc 9d68 04bd 0a4d aabc f363 4e3b
000002d0: cc2b 113d 1870 b53c 3f33 bebc cbf8 fc3c
000002e0: 0628 97bc 6e31 65bc 60c1 0c3d 494a 083c
000002f0: dd63 a83c 05c5 e7bb a033 25bd b7a7 c6bc
00000300: ac99 963c 6c0d 04bd 6baf 40bb 6049 52bd
00000310: d016 a0b9 eddb a43c 664a 453d d6e8 0cbd
00000320: 9f02 81bb 37f8 35ba 9ccc a2bc 0ef3 4e3c
00000330: 0463 90bd cdc8 30bd 5ddf 303d 21c6 5bbd
00000340: 315c e7bc df29 863a 24a3 093d 4b04 a33a
00000350: c38a 43bc 36fa 313d 301d a53b e889 113c
00000360: af1a bdbc 2031 b3bd d403 6fbc ad4b 4fbd
00000370: 9bbf 693c cc85 173b 78ef 19bd 5639 90bd
00000380: 0aa4 89bd f77d 0bbc ac1e 853b f3e0 7bbd
00000390: c0ee 61bd 1555 8dbd 20bc 2d3d f80b 953d
000003a0: 4e63 773c 607e 3dbd 79f1 39bc 038d 15be
000003b0: e6d6 6cbd ff49 ae3b c9b7 82bd aca9 0ebc
000003c0: a665 0fbd 9e31 4bbd e80c 30bd bb5b 083d
000003d0: 009b 8b3d 9e1f 263c db83 d8bc 40f1 483d
000003e0: 054f 65bc 68f4 99bd 5e3a fa3b 6094 303d
000003f0: 7f1a 253d 46a3 7fbc a579 c0bd 7bf7 f43a

lstm.weight_hh_l1 f4 [256, 64]
0.002936104 0.009818883 0.016539656 -0.00027486053 0.008386738 -0.0040704007 0.0046049766 0.0014130453
-0.0059306617 0.0010135233 0.004522601 0.025419625 0.024085898 -0.016121818 -0.0016488903 -0.013154825
-0.00043818765 -0.00514622 -0.02712775 -0.028241998 0.008823561 0.013740398 0.0040089525 -0.0028024246
-0.0019837182 0.0023226768 0.014249367 0.006128314 -0.0075354627 -0.012856134 0.0075416705 0.00081650366
-0.0022275774 -0.012296698 -0.0044743572 -0.005027009 -0.010318585 -0.007762841 0.0025808257 0.00087493495
0.0043924274 0.00084447814 0.0013808659 0.0054357867 -0.002865793 0.0029984112 -0.013733032 0.009412807
-0.002631121 0.018711645 -0.006789858 0.00042592818 -0.0024289754 -0.0066876486 -0.0028831617 0.001943251
0.0005562559 -0.006631105 0.0019206535 0.010171829 0.009356005 -0.022690928 -0.00436664 0.0066888207
-0.023301281 0.04157451 0.012654412 -0.04987587 0.030149303 -0.025986778 -0.025778892 0.004257383
-0.036885656 -0.0004254884 -0.002970489 -0.021265395 0.037003085 -0.004008735 -0.0011671664 -0.027907854
0.0131897805 -0.03789338 0.03367491 0.05796782 0.046026908 -0.022530865 0.026109997 0.005424649
0.0030986276 -0.017559541 0.023284677 0.035150025 0.0027451175 0.049019795 0.0166879 0.027547454
0.02175271 -0.018024182 0.01501837 0.0055725235 0.03623532 -0.05987411 -0.02528119 -0.0025972542
0.02495673 -0.003555249 -0.051497918 -0.030883424 0.0046370123 -0.007558518 0.0029141402 -0.071489766
0.026291834 0.0044604535 -0.023854032 -0.0013238089 -0.004819123 -0.016454982 0.0034156402 -0.015013999
-0.0019668897 -0.013285909 0.044522278 0.02690161 0.0040028556 -0.03865636 0.0120742135 -0.032315623
-0.008798482 -0.015583334 0.0009021597 -0.013262098 0.011986214 -0.012749951 -0.008214285 0.0014339476
0.016228193 -0.0007782803 0.0021248674 -0.019950489 -0.023381447 0.026733011 0.0021156934 -0.00046062464
0.006727613 0.015112521 -0.002640868 0.010050921 -0.011812413 0.0004855527 0.0071009244 -7.917543e-05
0.0027931957 0.0016559244 0.011811369 0.0034589563 -0.0088770185 0.0011451852 -0.002742066 0.005449398
0.001155033 0.026610108 3.77954e-05 -0.0036067031 -0.026309818 -0.018157309 -0.004509712 -0.0008036709
0.008468585 -0.00041346537 -0.010410688 -0.01994934 0.0023810747 -0.0027653421 0.017188966 0.004319821
0.017107876 -0.022910926 -0.01197009 0.0077504176 0.018386558 -0.00093184976 0.0026898354 -0.006269613
-0.00088965986 0.001189108 0.009574043 0.001652857 -0.032523286 -0.0129634775 -0.022902168 0.0039222813
0.02166836 0.0046362635 0.023320572 -0.06995331 0.006796289 -0.015563299 0.007980582 0.013014721
-0.03109076 0.004533754 -0.008149032 -0.035658285 -0.05095503 -0.007369745 -0.006931798 0.016731612
0.017357305 -0.035466883 0.023906441 0.022746313 0.02288206 0.008093473 0.012887966 0.008098574
0.0036828134 -4.930829e-05 -0.026228923 -0.015647437 -0.03002964 -0.016547732 0.010376608 0.021700423
0.018372292 -0.01884174 -0.004954518 0.00029532445 -0.025689492 0.0035017643 -0.015806502 -0.008608916
0.022123484 -0.0062687467 -0.016242368 0.026685864 0.0047180955 -0.012012732 0.030865077 0.0067834714
0.06175233 0.0021611734 -0.0237112 0.028605673 -0.0094482675 0.026263084 0.003858677 0.010695963
6.632828e-05 -0.021041924 -0.004855869 -0.0008681882 -0.008617905 -0.009702713 -0.0032431174 0.011270967
00000000: a76b 403b 61df 203c 2c7e 873c 281b 90b9
00000010: 8768 093c ff60 85bb 58e5 963b ef35 b93a
00000020: ff55 c2bb 33d8 843a 5432 943b d13c d03c
00000030: ca4f c53c e711 84bc 941f d8ba 5687 57bc
00000040: 8dbc e5b9 9fa1 a8bb 043b debc c35b e7bc
00000050: b290 103c 681f 613c 885d 833b e2a8 37bb
00000060: 4501 02bb 0d38 183b 2d76 693c 06d0 c83b
00000070: 0bec f6bb 89a2 52bc 1e20 f73b a20a 563a
00000080: 8cfc 11bb 1778 49bc a19d 92bb 9cb9 a4bb
00000090: 480f 29bc 6e5f febb 1223 293b e45b 653a
000000a0: 5aee 8f3b f85f 5d3a 2cfe b43a af1e b23b
000000b0: 07d0 3bbb fe80 443b 8300 61bc 2d38 1a3c
000000c0: e36e 2cbb 2a49 993c 757d debb 1d4f df39
000000d0: 722f 1fbb 1024 dbbb 6df3 3cbb afb4 fe3a
000000e0: b4d1 113a be49 d9bb 70be fb3a bea7 263c
000000f0: ee49 193c 53e2 b9bc 0816 8fbb e52d db3b
00000100: 54e2 bebc 094a 2a3d 7354 4f3c a44a 4cbd
00000110: acfb f63c 39e2 d4bc 412e d3bc 8481 8b3b
00000120: 6a15 17bd 1614 dfb9 89ac 42bb c434 aebc
00000130: 8c90 173d b55b 83bb 9bfb 98ba 039f e4bc
00000140: f319 583c 1736 1bbd b4ee 093d aa6f 6d3d
00000150: b686 3c3d a692 b8bc a2e4 d53c 41c1 b13b
00000160: 5812 4b3b 07d9 8fbc 82bf be3c 79f9 0f3d
00000170: 6ee7 333b fbc8 483d 10b5 883c 33ab e13c
00000180: bd32 b23c 73a7 93bc 9c0f 763c b799 b63b
00000190: 7d6b 143d 8e3e 75bd 801a cfbc b236 2abb
000001a0: 0e72 cc3c 2eff 68bb 7bef 52bd 3cff fcbc
000001b0: 14f2 973b 72ad f7bb 29fb 3e3b 3a69 92bd
000001c0: f961 d73c ff28 923b 8869 c3bc a883 adba
000001d0: bce9 9dbb 99cc 86bc efd8 5f3b 47fd 75bc
000001e0: efe6 00bb 24ad 59bc fe5c 363d c460 dc3c
000001f0: 632a 833b 2256 1ebd ecd2 453c 635d 04bd
00000200: 8227 10bc 3d51 7fbc ea7e 6c3a 4549 59bc
00000210: d361 443c 2ce5 50bc 3595 06bc 4cf3 bb3a
00000220: fdf0 843c 8205 4cba 5c41 0b3b 356f a3bc
00000230: 738a bfbc 30ff da3c 72a7 0a3b fe7f f1b9
00000240: 4f73 dc3b 829a 773c 6a12 2dbb 9eac 243c
00000250: da88 41bc c891 fe39 dfae e83b fc0a a6b8
00000260: 0c0e 373b 9a0b d93a 7984 413c a8af 623b
00000270: ea70 11bc 0a1a 963a 3cb4 33bb dd90 b23b
00000280: 7a64 973a 71fd d93c 8086 1e38 705e 6cbb
00000290: b087 d7bc a3be 94bc 35c6 93bb 71ad 52ba
000002a0: d2bf 0a3c 62c6 d8b9 9791 2abc cc6c a3bc
000002b0: ce0b 1c3b be3a 35bb e0cf 8c3c 498d 8d3b
000002c0: d125 8c3c b2af bbbc 321e 44bc 37f7 fd3b
000002d0: 689f 963c 6147 74ba f347 303b 5371 cdbb
000002e0: 1038 69ba d8db 9b3a 72dc 1c3c aea4 d83a
000002f0: 2337 05bd c464 54bc 549d bbbc 7b86 803b
00000300: d881 b13c cceb 973b c90a bf3c ae43 8fbd
00000310: 67b3 de3b 35fd 7ebc fdc0 023c b23b 553c
00000320: 0db2 febc e38f 943b 8483 05bc 6c0e 12bd
00000330: 39b6 50bd e77d f1bb 2324 e3bb bc10 893c
00000340: e830 8e3c b945 11bd 71d7 c33c 7a56 ba3c
00000350: 2873 bb3c 7c9a 043c 0c28 533c e2af 043c
00000360: 5b5b 713b 60d0 4eb8 0ade d6bc 0e2f 80bc
00000370: b800 f6bc 1c8f 87bc a602 2a3c 16c5 b13c
00000380: 7d81 963c fe59 9abc 8259 a2bb c7d5 9a39
00000390: c572 d2bc db7d 653b a37c 81bc 690c 0dbc
000003a0: 4f3c b53c 0f6a cdbb b70e 85bc 509c da3c
000003b0: 419a 9a3b 0dd1 44bc c2d8 fc3c e247 de3b
000003c0: 03f0 7c3d 79a2 0d3b fe3d c2bc 7256 ea3c
000003d0: e8cc 1abc ae25 d73c dce1 7c3b 1f3e 2f3c
000003e0: b919 8b38 1d60 acbc fb1d 9fbb 2097 63ba
000003f0: 1d32 0dbc 21f8 1ebc 7b8a 54bb dda9 383c

lstm.bias_ih_l1 f4 [256]
-0.057099506 0.11031335 0.16713926 0.0580944 0.11277288 -0.038893774 0.002957462 -0.002208329
0.19557925 -0.002159723 0.048567045 0.045556113 0.063970305 0.037830938 -0.0059862034 0.09930129
0.049865 0.15223208 0.1254937 0.12243741 0.104737826 -0.04718071 0.015339752 0.07161635
-0.0047537517 -0.008045449 -0.052545417 0.014489024 0.10098571 0.016351115 0.115340956 0.0600114
0.016847089 -0.025786545 0.0057972185 0.070089854 0.10570435 0.14529763 0.016870782 0.006439257
-0.0056693493 0.002255813 0.1177107 0.12549894 -0.0070684818 0.007230144 0.025624717 0.008994465
0.16621383 0.16553497 0.07266153 0.11433529 0.07810193 0.1013078 -0.0044615227 -0.026301507
-0.009985099 0.082307614 0.10225691 0.04104698 0.027054224 0.08120028 -0.0031718963 0.09520044
-0.017603088 0.06425841 0.05300369 -0.06607242 -0.017793728 -0.05496102 -0.011984705 0.00070938945
0.06880989 -0.0060670413 0.01471085 -0.013496973 0.092447884 0.038832463 -0.023598935 0.07068822
-0.011147494 -0.071793884 0.021204598 0.0107952515 0.059155237 0.086478576 0.016778244 0.030502122
-0.004102195 -0.04165245 -0.07546189 -0.03477608 0.016647363 0.022680514 -0.039101817 -0.01163412
0.015268068 0.09427903 0.059566278 0.02733214 -0.0005251871 0.095770076 0.018575544 -0.0058110855
-0.0030114716 0.010151604 0.0066206907 0.068322055 -0.0053750933 -0.013150856 -0.060890466 0.055372387
0.015026206 0.12242698 0.015703013 0.005432336 -0.027600136 0.01928487 -0.0077994037 0.04473082
-0.004840822 0.03585028 0.007556847 -0.027148075 0.03731369 0.06805524 0.06464089 0.08488022
-0.08839768 -0.12399991 -0.049025577 -0.060236666 0.084595755 -0.07684373 -0.045148134 -0.06182186
0.061473966 0.020341346 -0.09503807 -0.09845831 0.01372805 0.079973646 -0.008556717 0.030351723
0.0054028323 -0.055104196 -0.060005587 -0.058550093 -0.049098164 0.09438466 0.10054171 -0.04942716
-0.077107914 -0.04949693 0.0061164186 0.021763986 -0.076387286 -0.025279213 0.016759485 0.10182082
0.09680767 0.08643272 0.007885859 0.0046245297 -0.09389397 -0.007908891 -0.08112942 -0.07221992
-0.019222116 0.08392277 -0.020014334 -0.07472076 0.06274302 0.024253374 0.069847606 0.00029914285
0.13512434 -0.080546945 0.0010373926 -0.017440269 0.03963305 -0.09575671 -0.007684114 -0.07386803
-0.006675274 -0.067234404 0.008697813 -0.039612476 -0.14071834 -0.024718447 -0.103411034 0.121850654
-0.0050426987 0.03926257 0.0068767695 0.007911305 -0.023406213 -0.015992558 -0.030625375 0.010547667
0.012969047 -0.038813874 0.054583646 0.05963153 0.035517637 0.08457206 0.07596422 0.11402227
0.06539777 0.024417123 0.12871854 0.15562797 0.116527036 0.061316967 0.039647527 -0.0014184216
-0.0044579483 -0.020855801 0.008453089 0.067686565 0.055808656 0.16694574 0.06173019 -0.0034927824
0.026663715 0.006331169 0.05373106 0.006333004 0.06138203 0.14667696 0.052623563 0.0036525107
0.0077706682 -0.018968843 -0.025979113 0.055375483 -0.0048578945 -0.0019546074 0.057073694 0.10602002
-0.027412323 0.12750095 0.072271794 0.012998453 -0.0025885059 -0.021365132 -0.004547847 0.048796877
-0.018635198 -0.0118234325 0.07219953 0.004653683 0.110167876 0.094852395 0.10369218 -0.0050204815
00000000: 2ce1 69bd f7eb e13d 8e26 2b3e 65f4 6d3d
00000010: 78f5 e63d 144f 1fbd fbd1 413b 9db9 10bb
00000020: ed45 483e 248a 0dbb 3dee 463d 0c99 3a3d
00000030: dd02 833d 9df4 1a3d ea27 c4bb 7a5e cb3d
00000040: 3e3f 4c3d bae2 1b3e 6c81 003e 77c0 fa3d
00000050: c980 d63d 8f40 41bd 9553 7b3c 98ab 923d
00000060: 5cc5 9bbb 0fd1 03bc dd39 57bd 5f63 6d3c
00000070: 99d1 ce3d c6f2 853c e137 ec3d 84ce 753d
00000080: e802 8a3c 4e3e d3bc 98f6 bd3b 458b 8f3d
00000090: 867b d83d e7c8 143e 9834 8a3c 6700 d33b
000000a0: f3c5 b9bb 43d6 133b 4f12 f13d cb82 003e
000000b0: b99e e7bb d8ea ec3b edea d13c 855d 133c
000000c0: f533 2a3e 0082 293e 91cf 943d 9f28 ea3d
000000d0: e8f3 9f3d 777a cf3d f731 92bb 4276 d7bc
000000e0: 8a98 23bc e590 a83d 126c d13d e120 283d
000000f0: d2a0 dd3c 554c a63d 97df 4fbb 73f8 c23d
00000100: 5a34 90bc ea99 833d 661a 593d fa50 87bd
00000110: 27c4 91bc ce1e 61bd 7f5b 44bc 52f6 393a
00000120: 33ec 8c3d 08ce c6bb c705 713c 6822 5dbc
00000130: 5155 bd3d ca0e 1f3d 8e52 c1bc fcc4 903d
00000140: fba3 36bc ac08 93bd 44b5 ad3c 91de 303c
00000150: c34c 723d ae1b b13d 8772 893c 96df f93c
00000160: b56b 86bb c29b 2abd c38b 9abd 5d71 0ebd
00000170: 0d60 883c 7ccc b93c 3a29 20bd 099d 3ebc
00000180: eb26 7a3c 5d15 c13d c5fb 733d a7e7 df3c
00000190: b6ac 09ba 1a23 c43d bd2b 983c eb6a bebb
000001a0: 1c5c 45bb ea52 263c 61f2 d83b 6fec 8b3d
000001b0: 8d21 b0bb b076 57bc 4868 79bd 28ce 623d
000001c0: 7a30 763c ffba fa3d 9ba3 803c bd01 b23b
000001d0: ae19 e2bc 4efb 9d3c 2492 ffbb aa37 373d
000001e0: c29f 9ebb bed7 123d 6d9f f73b a465 debc
000001f0: 3dd6 183d 8c60 8b3d 7162 843d aed5 ad3d
00000200: d809 b5bd aaf3 fdbd 0bcf 48bd b9ba 76bd
00000210: 8a40 ad3d 3f60 9dbd 40ed 38bd eb38 7dbd
00000220: 20cc 7b3d e5a2 a63c 52a3 c2bd 83a4 c9bd
00000230: 9deb 603c 39c9 a33d 7931 0cbc 2da4 f83c
00000240: 3e0a b13b f0b4 61bd 6bc8 75bd 39d2 6fbd
00000250: 281b 49bd bf4c c13d d0e8 cd3d 2274 4abd
00000260: c1ea 9dbd 4bbd 4abd 3d6c c83b 634a b23c
00000270: f070 9cbd 5a16 cfbc 304b 893c 6f87 d03d
00000280: 1a43 c63d a303 b13d b133 013c 5e89 973b
00000290: 7b4b c0bd 4b94 01bc 2e27 a6bd 0ae8 93bd
000002a0: b377 9dbc b4df ab3d 1af5 a3bc 3307 99bd
000002b0: 6a7f 803d 03af c63c 430c 8f3d 46d6 9c39
000002c0: 095e 0a3e ccf5 a4bd 1ff9 873a e5de 8ebc
000002d0: 4456 223d 181c c4bd 05cb fbbb 1f48 97bd
000002e0: 42bc dabb 31b2 89bd 4681 0e3c b140 22bd
000002f0: 7818 10be 577e cabc 2ac9 d3bd d68c f93d
00000300: 393d a5bb cad1 203d 8656 e13b 6b9e 013c
00000310: 63be bfbc d302 83bc 11e2 fabc 1fd0 2c3c
00000320: 207c 543c 4cfb 1ebd 1a93 5f3d 3140 743d
00000330: f17a 113d 1e34 ad3d 2193 9b3d 8284 e93d
00000340: 44ef 853d 6b06 c83c cbce 033e f05c 1f3e
00000350: baa5 ee3d 8027 7b3d 7265 223d 55ea b9ba
00000360: fb13 92bb c9d9 aabc d37e 0a3c 419f 8a3d
00000370: 9e97 643d d3f3 2a3e ccd8 7c3d 2ae7 64bb
00000380: dd6d da3c b275 cf3b 1a15 5c3d 1785 cf3b
00000390: b96b 7b3d 7c32 163e ce8b 573d f65e 6f3b
000003a0: 17a1 fe3b 8c64 9bbc 26d2 d4bc 67d1 623d
000003b0: f92e 9fbb df18 00bb 1bc6 693d 0621 d93d
000003c0: cf8f e0bc 9c8f 023e 3c03 943d 77f7 543c
000003d0: eca3 29bb ee05 afbc 1b06 95bb 3cdf 473d
000003e0: d8a8 98bc 12b7 41bc 59dd 933d ec7d 983b
000003f0: b29f e13d f941 c23d 915c d43d da82 a4bb
