checkpoints/AM_LSTM_Focal_100epochs_종가_거래대금_거래량볼밴_이등분선_checkpoint.pth (torch, 214264 bytes, 9 tensors)

lstm.weight_ih_l0 f4 [256, 10]
0.0018802132 -0.0029043467 0.0027041226 0.0017119462 0.0024361028 -0.0012228764 -0.0004667523 -0.002262844
-0.0016877506 -0.0010422436 0.014114978 -0.025516527 -0.006849349 0.005660907 0.020230157 -0.05167381
-0.039834175 0.0011243008 0.15130018 0.07549828 0.053973436 -0.011539583 0.05287268 0.052564736
0.06487254 -0.0057961755 0.006191262 -0.0016295592 0.10018433 0.09884961 0.06628797 0.008454592
0.066092804 0.056107823 0.072966345 0.01672414 0.035359282 -0.006373344 0.09087109 0.089637324
0.14041333 -0.0077681374 0.15813462 0.13364394 0.16146897 0.056375347 0.04919583 0.006217763
-0.0500201 -0.0406251 0.013552701 -0.010255829 0.030345753 0.014870084 0.03582886 -0.016481597
-0.009122042 -0.0010212419 0.0648159 0.0974696 0.036984954 -0.011435742 0.024472589 0.032650623
0.028765311 -0.014701585 -0.002503361 -0.0044486504 0.07181773 0.09101295 -0.0024418624 -0.0009992954
-0.0026440416 -0.0024348253 -0.002571128 -0.0020255202 -0.0018236793 -0.00082349946 -0.0035032413 -0.0036175086
-0.004348678 -0.003032043 -0.004330891 -0.0044087903 -0.0041796863 -0.0047962684 -0.004422467 -0.0017871883
-0.007068005 -0.007038629 -0.0018686397 -0.0064322418 -0.000261564 -0.0023293584 2.7639508e-06 -0.005551149
-0.0060749 -0.0021269745 -0.005215535 -0.0050754384 0.018441593 -0.005257104 0.019303566 0.016559388
0.02117392 0.0011679203 0.003755476 -0.0045465785 0.00030251805 0.0020985957 -0.009744305 -0.0025461975
-0.0094666 -0.0092013115 -0.011805802 -0.005922745 -0.0058705467 -0.0024498384 -0.017524475 -0.017897362
0.011011583 -0.008867589 0.007369164 0.009557369 0.013495911 -0.011956274 -0.007722294 -0.0035246625
0.036546808 0.03806686 -0.005415556 -0.011535746 -0.001988517 -0.0062706945 -0.0012503729 -0.008263252
-0.010119889 -0.0047206683 -0.014569698 -0.014535531 0.012293254 -0.00012659075 0.012206578 0.011554164
0.012747477 0.0054867207 0.0067406693 -0.0015535769 -0.002216285 -0.0014391956 0.012975124 -0.006176373
0.009674541 0.009986508 0.013426411 -0.006507969 -0.004207004 -0.0024298544 0.017282028 0.010155108
0.016721286 -0.005529985 0.010429885 0.011420216 0.019071972 -0.008462968 -0.00419199 -0.0007144074
0.040780198 0.041494705 -0.001669921 -0.0012746883 -0.0021738766 -0.0017493475 -0.0017085915 -0.0026059165
-0.002252703 -0.0011250378 -0.00012369313 0.002371769 -0.006079802 -0.0025938381 -0.0061480496 -0.0060979426
-0.006657325 -0.004211206 -0.0041905986 -0.00015411191 -0.008268403 -0.008007901 -0.0066671176 -0.014463843
-0.0025240157 -0.007738722 -0.0005195712 -0.008668152 -0.009951146 -0.0052950606 -0.016000574 -0.016066445
0.048942383 -0.124409094 0.053055167 0.030162327 0.060657855 -0.15055408 -0.12528157 -0.005969079
0.3067609 0.35659266 -0.004109428 -0.0058158203 -0.0044436906 -0.005240507 -0.0045747347 -0.007785159
-0.008099424 -0.0032195426 -0.013678319 -0.013770314 0.0030843348 -0.00053417915 0.002633668 0.0026698208
0.0030508935 -0.0002989127 0.0002892487 -0.00089397054 -0.0014760492 -0.00071800966 -0.0040932973 -0.004918683
-0.002999852 -0.0042112875 -0.0030212833 -0.004627349 -0.0050719893 -0.0036423046 -0.010663337 -0.010556387
-0.0021500275 -0.002708584 -0.0020361042 -0.0023677752 -0.0019308605 -0.0021386223 -0.0019175381 -0.002386363
-0.0070496355 -0.0070579387 -0.010496305 -0.003576966 -0.00998941 -0.009806192 -0.012322122 -0.005353989
00000000: 7c71 f63a da56 3ebb a637 313b 6263 e03a
00000010: 06a7 1f3b ec48 a0ba 6fb6 f4b9 394c 14bb
00000020: 8337 ddba e49b 88ba 8242 673c 0908 d1bc
00000030: 8170 e0bb 217f b93b b7b9 a53c eba7 53bd
00000040: 2929 23bd 465d 933a 6fee 1a3e d89e 9a3d
00000050: 4013 5d3d 8510 3dbc 0691 583d 1f4e 573d
00000060: e5db 843d d8ed bdbb 12e0 ca3b ef96 d5ba
00000070: 712d cd3d aa71 ca3d fdc1 873d 2185 0a3c
00000080: aa5b 873d 51d1 653d 616f 953d 1001 893c
00000090: e5d4 103d 7cd7 d0bb 9f1a ba3d c693 b73d
000000a0: 83c8 0f3e dc8b febb 0bee 213e f5d9 083e
000000b0: 1f58 253e d6e9 663d 9181 493d 60be cb3b
000000c0: e0e1 4cbd 8166 26bd 260c 5e3c 1108 28bc
000000d0: a897 f83c a7a1 733c 48c1 123d 6a04 87bc
000000e0: 9e74 15bc 31db 85ba 33be 843d 249e c73d
000000f0: 897d 173d fa5c 3bbc bd7a c83c a9bc 053d
00000100: 3ba5 eb3c ebde 70bc 6e0f 24bb fcc5 91bb
00000110: 2d15 933d ff64 ba3d a707 20bb cafa 82ba
00000120: a847 2dbb 9791 1fbb 5f80 28bb 97be 04bb
00000130: 8608 efba 1de0 57ba a396 65bb b913 6dbb
00000140: 5b7f 8ebb 3eb5 46bb 26ea 8dbb 9d77 90bb
00000150: c0f5 88bb 042a 9dbb 58ea 90bb 1740 eaba
00000160: b99a e7bb 4da4 e6bb 25ed f4ba 8ec5 d2bb
00000170: 8722 89b9 26a8 18bb 507c 3936 6ae6 b5bb
00000180: f40f c7bb b664 0bbb 14e7 aabb dd4f a6bb
00000190: d312 973c c943 acbb 8322 9e3c 8ea7 873c
000001a0: ee74 ad3c e714 993a 6f1e 763b 77fb 94bb
000001b0: 499b 9e39 9888 093b 94a6 1fbc 1bde 26bb
000001c0: cc19 1bbc 19c1 16bc 1f6d 41bc 9613 c2bb
000001d0: b75d c0bb 788d 20bb 7d8f 8fbc 7d9d 92bc
000001e0: ed69 343c 5d49 11bc 0779 f13b 8396 1c3c
000001f0: f41d 5d3c 3fe4 43bc 4c0b fdbb 06fe 66bb
00000200: 1bb2 153d ffeb 1b3d fa74 b1bb 6d00 3dbc
00000210: c751 02bb 667a cdbb 8de3 a3ba 9762 07bc
00000220: e4cd 25bc d6af 9abb beb5 6ebc 7026 6ebc
00000230: a569 493c 72bd 04b9 19fe 473c ad4d 3d3c
00000240: cbda 503c f3c9 b33b d5e0 dc3b 64a1 cbba
00000250: 183f 11bb 64a3 bcba 9d95 543c 2c63 cabb
00000260: f781 1e3c 739e 233c 73fa 5b3c cd40 d5bb
00000270: e8da 89bb 313e 1fbb 0a93 8d3c 9c61 263c
00000280: 14fb 883c e034 b5bb 1ce2 2a3c dc1b 3b3c
00000290: d33c 9c3c 43a8 0abc f65c 89bb 1247 3bba
000002a0: 2309 273d 5af6 293d 40e1 daba 7113 a7ba
000002b0: 9977 0ebb 5d4a e5ba d1f2 dfba 06c8 2abb
000002c0: 16a2 13bb 0176 93ba 9fb3 01b9 ae6f 1b3b
000002d0: 1339 c7bb 62fd 29bb 9475 c9bb 40d1 c7bb
000002e0: b125 dabb 28fe 89bb 4a51 89bb 1a99 21b9
000002f0: 3278 07bc 9233 03bc d677 dabb c1f9 6cbc
00000300: f569 25bb 1b95 fdbb d533 08ba dd04 0ebc
00000310: 220a 23bc 3082 adbb a313 83bc c79d 83bc
00000320: cf77 483d 32ca febd 6050 593d fc16 f73c
00000330: 5f74 783d d92a 1abe d049 00be 4498 c3bb
00000340: c40f 9d3e 5093 b63e 61a8 86bb a392 bebb
00000350: 619c 91bb 8fb8 abbb a8e7 95bb a61a ffbb
00000360: 72b3 04bc f6fe 52bb 071b 60bc e29c 61bc
00000370: 8d22 4a3b 2808 0cba 9e99 2c3b 29f8 2e3b
00000380: 80f1 473b 62b7 9cb9 4ea6 9739 5959 6aba
00000390: fe77 c1ba d038 3cba 1121 86bb e72c a1bb
000003a0: 2a99 44bb d7fe 89bb b900 46bb 04a1 97bb
000003b0: ee32 a6bb bbb3 6ebb 47b5 2ebc b2f4 2cbc
000003c0: 7ae7 0cbb 8082 31bb 2970 05bb ad2c 1bbb
000003d0: ed14 fdba 2128 0cbb e755 fbba 8764 1cbb
000003e0: a100 e7bb 4846 e7bb b2f8 2bbc 886b 6abb
000003f0: 9faa 23bc 26aa 20bc bae2 49bc 8470 afbb

lstm.weight_hh_l0 f4 [256, 64]
0.00044503566 -2.0972318e-05 -0.00027264407 0.0009182955 0.0015712536 -0.0006728597 0.00038656095 -0.0008814843
0.0005806518 0.00022366112 0.0005972034 0.00039999717 -6.656121e-05 0.00034680846 -0.00055823737 0.0005188433
0.00022994104 4.4135806e-05 0.00017353441 0.0004448814 -0.000120329714 -0.0008060763 0.00021251693 -0.0009515827
0.00018592726 0.00054024445 0.0006483373 0.0007476715 -7.8770914e-05 0.0004993124 -0.00044499093 0.00038801765
0.0006844937 0.0002019456 -0.0007322381 0.00057717744 0.0009256178 -0.0012913945 0.00055086793 -0.001023579
-0.00015282958 0.00011825535 -5.672988e-05 -0.00048349975 -0.0008195116 5.5661436e-05 0.0026013579 0.00018576943
0.00012077058 0.00044290043 0.00028841448 5.6427692e-05 9.6124524e-05 -0.00026721435 0.000102597114 0.0002350506
-0.00045285095 -0.0011482938 -0.0002702552 -3.3430544e-05 0.0011739961 5.9237176e-05 0.0008462797 0.00042667266
-0.0016058665 0.02033381 0.009943408 -0.0028968842 0.021634698 0.012411535 -0.009946819 -0.0018804275
-0.0007159908 0.0012233547 0.0056940056 -0.0056140595 0.007143788 -0.0015487078 -0.0076269857 -0.0034866096
-0.0059685926 -0.0017076059 -0.0056685028 -0.003820388 0.03837134 0.0054682763 0.0029975616 0.0028928174
-0.0037627828 -0.006624114 0.0019421667 0.011184792 -0.015374547 -0.0044089532 0.0007361372 -0.0041473345
-0.0035643382 -0.0027883807 -0.0007862368 -0.008328693 0.0032101814 0.022750895 0.0012886733 -0.0021287964
0.00046946655 0.01129113 0.0057603098 -0.0027750307 0.0041087014 0.0033380098 -0.029363455 0.005780869
-0.0019077676 -0.015646772 0.0087493695 -0.0032062887 -0.010232222 0.037788894 -0.0067991903 0.00844437
0.010349097 0.0041775373 0.011066764 0.0018126178 -0.007888724 0.0047682957 -0.0037919057 -0.003831494
-0.0020003305 0.011405673 0.010584802 -0.007300997 0.0037806288 0.009161398 -0.008441436 -0.001415146
-0.0013268032 0.0013562506 0.0020248739 -0.006513526 0.0044120806 -0.0013361326 -0.00417548 -0.005525251
-0.0044272006 -0.00020033127 -0.0025175335 -0.002859786 0.022122515 0.0064697093 0.0010501402 0.002841485
-0.0019398007 -0.006400486 0.00033896105 0.0082130395 -0.008136786 -0.006738126 0.0011679858 -0.0030529676
-0.0057914723 -0.0035475793 0.00014205046 -0.005201687 -0.00049176865 0.02192488 0.00026348804 -0.00071456993
-0.00032071202 0.006073529 0.0025650603 -0.0018173165 0.0027842124 0.001300992 -0.031280108 0.0062990366
-0.0006136348 -0.012621195 0.003055465 -0.0028431765 -0.010757044 0.021641482 -0.007027938 -0.009427136
0.0071923994 0.0073746946 0.0073100706 0.0012048343 -0.009371586 0.0014815198 -0.006005742 -0.00417274
-0.0004336512 0.006660046 0.008711442 -0.008893894 -0.008066318 0.0076560024 -0.0066462555 0.00018579073
-0.0032990878 0.0013760776 0.0005622347 -0.0073988703 0.0019534314 -0.001296902 -0.002137129 -0.0059507363
-0.003660091 0.0011707388 -0.001434579 -0.0031216666 0.01567962 0.007852657 0.00031209024 0.0032104207
-0.0013381754 -0.0072158673 0.0006158317 0.0062694997 -0.0041183666 -0.0074015805 0.00074162835 -0.0032325096
-0.008105776 -0.0028831684 0.002663819 -0.0043922854 -0.0034338979 0.017319636 -0.00021202143 0.0021098156
-0.00023651269 0.0040305667 0.0005033185 -0.0009800064 -0.00085787015 0.00052201975 -0.02464417 0.0033879983
0.00058355514 -0.009788498 0.0009968411 -0.0026387002 -0.009038363 0.015716556 -0.0035604476 -0.01516289
0.005598945 0.010610989 0.0045106467 2.097043e-05 -0.012299143 0.00017618491 -0.0088700075 -0.004425941
00000000: ad53 e939 b6ed afb7 abf1 8eb9 c5b9 703a
00000010: 86f2 cd3a da62 30ba 55ab ca39 6913 67ba
00000020: e236 183a 9386 6a39 a48d 1c3a b6b6 d139
00000030: c796 8bb8 d8d3 b539 ad56 12ba fc02 083a
00000040: 541c 7139 761e 3938 caf6 3539 f93e e939
00000050: 8659 fcb8 dd4e 53ba 14d7 5e39 a273 79ba
00000060: 78f5 4239 319f 0d3a 2ef5 293a 63ff 433a
00000070: d031 a5b8 4ae4 023a ac4d e9b9 d96e cb39
00000080: 986f 333a 5cc1 5339 abf3 3fba b94d 173a
00000090: 29a5 723a 0244 a9ba 1f68 103a 9d29 86ba
000000a0: e140 20b9 dcff f738 3ff1 6db8 3d7e fdb9
000000b0: 7ed4 56ba 0376 6938 8b7b 2a3b 1acb 4239
000000c0: 3646 fd38 1735 e839 5636 9739 c6ac 6c38
000000d0: 7696 c938 e718 8cb9 6829 d738 ea77 7639
000000e0: a06c edb9 5982 96ba 0ab1 8db9 c637 0cb8
000000f0: c6e0 993a 6f75 7838 dfd8 5d3a 09b3 df39
00000100: f07b d2ba 1793 a63c ade9 223c a7d9 3dbb
00000110: 403b b13c c059 4b3c fcf7 22bc ad78 f6ba
00000120: 54b1 3bba f958 a03a c894 ba3b 25f6 b7bb
00000130: 7016 ea3b 03fe caba cbeb f9bb 9a7f 64bb
00000140: 2f94 c3bb bfd1 dfba d9be b9bb 7a5f 7abb
00000150: 442b 1d3d 3a2f b33b bd72 443b 6c95 3d3b
00000160: 0599 76bb 180f d9bb 4d90 fe3a 6b40 373c
00000170: 86e5 7bbc fb78 90bb 55f9 403a 5de6 87bb
00000180: ac97 69bb 44bd 36bb 751b 4eba 1275 08bc
00000190: e861 523b 1660 ba3c b3e8 a83a 4783 0bbb
000001a0: bc22 f639 6ffe 383c fbc0 bc3b 4add 35bb
000001b0: 49a2 863b 83c2 5a3b a18b f0bc 726d bd3b
000001c0: 0f0e faba a92d 80bc 8459 0f3c 9920 52bb
000001d0: 0da5 27bc 87c8 1a3d becb debb 415a 0a3c
000001e0: 428f 293c b9e3 883b 5f51 353c 5c95 ed3a
000001f0: b53f 01bc 5d3f 9c3b 9f81 78bb cd19 7bbb
00000200: fa17 03bb dcde 3a3c e16b 2d3c 343d efbb
00000210: 6dc4 773b b019 163c f34d 0abc 6c7c b9ba
00000220: 21e8 adba 38c4 b13a bfb3 043b 6b6f d5bb
00000230: 3793 903b 2c21 afba 77d2 88bb 2a0d b5bb
00000240: 0d12 91bb 0410 52b9 34fd 24bb 3f6b 3bbb
00000250: 473a b53c dbff d33b dca4 893a 3538 3a3b
00000260: e940 feba 2bbb d1bb 95b6 b139 fc8f 063c
00000270: 2750 05bc 7fcb dcbb 1a17 993a 4c14 48bb
00000280: 64c6 bdbb 817e 68bb 61f3 1439 ea72 aabb
00000290: 09ea 00ba ce9b b33c c424 8a39 fa51 3bba
000002a0: 3d25 a8b9 7404 c73b 921a 283b 0633 eeba
000002b0: 5577 363b 0c86 aa3a 921f 00bd 2668 ce3b
000002c0: 56dc 20ba 21c9 4ebc 323e 483b 9654 3abb
000002d0: 503e 30bc 7a49 b13c 9e4a e6bb 4674 1abc
000002e0: 38ae eb3b 6ca7 f13b 5189 ef3b 88eb 9d3a
000002f0: 488b 19bc 8e2f c23a d1cb c4bb 7bbb 88bb
00000300: ae5b e3b9 843c da3b 70ba 0e3c b2b7 11bc
00000310: 9728 04bc 34df fa3b d5c8 d9bb d2d0 4239
00000320: 8235 58bb 815d b43a ef62 133a 3972 f2bb
00000330: 2405 003b cffc a9ba 130f 0cbb 65fe c2bb
00000340: 23de 6fbb 7a73 993a 7c08 bcba e094 4cbb
00000350: 8c72 803c 6ea8 003c 0ba0 a339 ec65 523b
00000360: b765 afba 1573 ecbb c46f 213a 6070 cd3b
00000370: 5df3 86bb f588 f2bb d669 423a 83d8 53bb
00000380: 17ce 04bc 8af3 3cbb 7793 2e3b 29ed 8fbb
00000390: 3f0b 61bb e9e1 8d3c 1252 5eb9 d544 0a3b
000003a0: 6400 78b9 d812 843b 22f1 033a 8f73 80ba
000003b0: b1e2 60ba 27d8 083a 92e2 c9bc 2e09 5e3b
000003c0: b9f9 183a f05f 20bc 70a8 823a 0bee 2cbb
000003d0: a415 14bc 02c0 803c 6656 69bb c56d 78bc
000003e0: 5b77 b73b b7d9 2d3c 0cce 933b a8e9 af37
000003f0: 5882 49bc 47be 3839 8253 11bc 7c07 91bb

lstm.bias_ih_l0 f4 [256]
-0.0046090498 0.016741084 0.01543278 0.022381114 0.12867129 -0.017431986 -0.0016323477 -0.0043365275
-0.0041751764 0.009031246 0.026543228 -0.0056550703 0.012379371 0.022398416 0.00859393 0.011061956
0.0005630488 -0.0033083325 -0.005054919 0.03399951 0.14068605 0.008741712 0.0018307851 0.0007553984
-0.0014008795 0.0012611618 0.0022290077 0.06539111 0.047577936 -0.002978553 0.008627656 0.0072681694
0.010096715 0.0031195257 -0.0058986945 0.002323048 0.10143067 0.17173532 0.015745116 -0.0043012034
-0.0014904344 0.011586694 0.0021939508 -0.0015559552 -0.004310386 -0.002786227 0.30222854 -0.004180976
-0.0018793904 0.026734976 -0.0017843737 0.010362316 -0.0038383936 0.18367225 -0.008006349 0.035340846
0.036601685 0.041132566 0.006110192 0.00034511334 0.01507119 -0.0024068065 0.01660366 0.0013440794
-0.0057999324 0.0513956 -0.0155635895 0.02115318 0.12202041 -0.0322143 -0.0047238097 -0.0040725344
-0.0042688446 0.0027471364 0.006827686 -0.004324387 0.006332878 0.012593624 -0.002577486 0.008432513
-0.016372826 -0.0031092914 -0.0013444165 0.018584112 0.14887787 0.007390577 -0.0018578873 -0.0026277623
-0.0046573486 0.00019525594 -0.007396171 0.04249669 0.04114286 0.0085662855 -0.0038815672 0.00095068035
0.003530604 -0.00035182657 -0.0059792977 0.0025810774 0.07789671 0.17093395 0.011948198 -0.0043321024
-0.0013298157 0.007938151 -0.0023008608 -0.001497561 -0.004411185 -0.0031122556 0.3163943 -0.0045505743
-0.001434127 0.037709504 -0.009296827 0.004128706 0.035446376 0.14294052 -0.00754449 0.03804779
0.012062342 0.034330122 0.01981737 -0.007528551 0.006227302 -0.0030667146 0.0042010024 0.0061631706
0.07745989 -0.1436354 -0.025698863 0.03210633 0.10695786 0.03885314 -0.026556136 -0.032094736
0.04794742 -0.07295467 0.051932752 -0.027090915 -0.03142717 0.10069311 -0.04255747 -0.07482029
-0.060165264 -0.009462991 -0.07469282 0.08208165 -0.17550403 0.07538899 0.043338157 -0.029984197
0.0089037465 -0.07787464 0.08378666 0.012110762 0.014724761 0.11166709 0.033790596 0.08940559
-0.09563249 0.0019028937 -0.0022002412 -0.01962604 -0.14718959 0.012389412 -0.08101712 -0.020327132
0.031339016 0.049014594 -0.06278253 0.0032503295 -0.100516275 0.04450567 0.039735816 0.03811616
-0.002192512 0.13460922 0.11822101 0.10310194 0.050297506 -0.12705456 0.02855086 0.11802485
-0.09480118 0.13195416 -0.06988692 -0.013632664 -0.11996699 0.00047507716 -0.055888787 0.028659655
-0.0046028323 0.054475747 -0.00026592868 0.007495501 0.13702512 0.055783067 0.009176361 -0.004395896
-0.0041117435 0.0090225395 0.029173812 -0.003073343 0.015357411 0.025140896 0.009023607 0.016893681
0.0059721805 -0.0033735356 -0.0047952957 0.037330803 0.1776084 0.005635733 0.0024301072 0.0011454126
-0.0012298591 -0.0031920034 0.0023191336 0.07201786 0.045249294 0.009463986 0.013916129 0.0076969936
0.012205269 0.00962027 -0.005819435 0.0036119486 0.11785805 0.14934686 0.021561442 -0.0042955806
-0.001905131 0.013065767 0.013144974 -0.0016015398 -0.004269994 -0.0027394346 0.25560746 -0.00415596
-0.0016174881 0.028583707 -0.0030247783 0.01071216 -0.017967826 0.14445092 -0.007936797 0.016924882
0.023286099 0.03905151 0.015179543 0.003430237 0.023959123 -0.002268255 0.021172998 0.006634964
00000000: 8307 97bb 9924 893c c5d9 7c3c 9958 b73c
00000010: 68c2 033e 86cd 8ebc 80f4 d5ba 6e19 8ebb
00000020: ebcf 88bb cbf7 133c 2f71 d93c 2b4e b9bb
00000030: d8d2 4a3c e27c b73c 8ecd 0c3c 353d 353c
00000040: 9199 133a 9cd0 58bb bca3 a5bb 1243 0b3d
00000050: 0110 103e 6639 0f3c f4f6 ef3a ee05 463a
00000060: b79d b7ba 914d a53a 8b14 123b c6eb 853d
00000070: 15e1 423d d433 43bb 035b 0d3c d329 ee3b
00000080: b16c 253c f570 4c3b d649 c1bb 473e 183b
00000090: e2ba cf3d 62db 2f3e e7fb 803c 1cf1 8cbb
000000a0: ae5a c3ba 1ed6 3d3c 63c8 0f3b 31f1 cbba
000000b0: 233e 8dbb 2299 36bb b3bd 9a3e 9200 89bb
000000c0: e155 f6ba 4f03 db3c a5e1 e9ba b4c6 293c
000000d0: 8f8d 7bbb 9414 3c3e 102d 03bc 90c1 103d
000000e0: a6eb 153d 9f7a 283d 0138 c83b 54f0 b439
000000f0: 27ed 763c 83bb 1dbb 6604 883c d22b b03a
00000100: 5c0d bebb 3184 523d 6dfe 7ebc 6f49 ad3c
00000110: d6e5 f93d 24f3 03bd 30ca 9abb e572 85bb
00000120: aae1 8bbb 4d09 343b c8ba df3b 96b3 8dbb
00000130: 0884 cf3b 7d55 4e3c 0aeb 28bb 8628 0a3c
00000140: 4e20 86bc 41c5 4bbb 2237 b0ba b53d 983c
00000150: 7173 183e a72c f23b 5a84 f3ba 8936 2cbb
00000160: ac9c 98bb 9ebd 4c39 945b f2bb 0211 2e3d
00000170: 6a85 283d 9b59 0c3c e461 7ebb 1437 793a
00000180: b561 673b 5d75 b8b9 fced c3bb 4b27 293b
00000190: 4f88 9f3d 4f09 2f3e 60c2 433c 4ff4 8dbb
000001a0: 364d aeba 050f 023c 0aca 16bb cf49 c4ba
000001b0: b48b 90bb fcf6 4bbb 6ffe a13e fc1c 95bb
000001c0: 51f9 bbba 4875 1a3d b851 18bc 194a 873b
000001d0: 3830 113d 005f 123e c537 f7bb 00d8 1b3d
000001e0: 21a1 453c be9d 0c3d 0a58 a23c 10b2 f6bb
000001f0: 650e cc3b effa 48bb 90a8 893b 6cf4 c93b
00000200: 4aa3 9e3d 2915 13be 6c86 d2bc ed81 033d
00000210: b90c db3d 7824 1f3d 418c d9bc c575 03bd
00000220: 8464 443d 4269 95bd 70b7 543d c4ed ddbc
00000230: c7b9 00bd 3038 ce3d be50 2ebd 613b 99bd
00000240: da6f 76bd a90a 1bbc 8df8 98bd 6d1a a83d
00000250: 54b7 33be 8b65 9a3d 5a83 313d 6ba1 f5bc
00000260: 05e1 113c bd7c 9fbd 5798 ab3d 386c 463c
00000270: 2040 713c b7b1 e43d 0268 0a3d 471a b73d
00000280: f8da c3bd 846a f93a ec31 10bb cac6 a0bc
00000290: deb8 16be f6fc 4a3c 4eec a5bd 1685 a6bc
000002a0: 575d 003d 87c3 483d 2194 80bd 7b03 553b
000002b0: 7adb cdbd 944b 363d 06c2 223d b11f 1c3d
000002c0: 3fb0 0fbb 00d7 093e db1d f23d 1c27 d33d
000002d0: c204 4e3d 971a 02be 7ee3 e93c 03b7 f13d
000002e0: 1f27 c2bd fe1e 073e e020 8fbd 8a5b 5fbc
000002f0: 41b1 f5bd c713 f939 a4eb 64bd a7c7 ea3c
00000300: 5bd3 96bb f621 5f3d 586c 8bb9 d29c f53b
00000310: 5050 0c3e c97c 643d 7358 163c 730b 90bb
00000320: cebb 86bb 46d3 133c ebfd ee3c 246a 49bb
00000330: a69d 7b3c 48f4 cd3c c0d7 133c 9e64 8a3c
00000340: 48b2 c33b 8916 5dbb db21 9dbb 2fe8 183d
00000350: fade 353e f4ab b83b 6f42 1f3b ab21 963a
00000360: 3933 a1ba ee30 51bb 9bfc 173b 1a7e 933d
00000370: 5357 393d d60e 1b3c 7a00 643c 1037 fc3b
00000380: 9cf8 473c 569e 1d3c f6b0 bebb 71b6 6c3b
00000390: 905f f13d 62ee 183e 9fa1 b03c f1c1 8cbb
000003a0: 97b5 f9ba cc11 563c 045e 573c c2ea d1ba
000003b0: 4eeb 8bbb 1688 33bb fbde 823e b82e 88bb
000003c0: e501 d4ba 6128 ea3c 5c3b 46bb 0e82 2f3c
000003d0: 4331 93bc f1ea 133e 5709 02bc 0da6 8a3c
000003e0: 7dc2 be3c 7af4 1f3d 9eb3 783c d4cd 603b
000003f0: ec45 c43c 01a7 14bb ff72 ad3c 1d6a d93b

lstm.bias_hh_l0 f4 [256]
-0.004614465 0.041797295 0.044673912 0.006590587 0.12875795 -0.021581043 0.035932653 -0.004333563
-0.00417349 0.007989427 0.026991768 -0.00747802 0.014446606 0.022394164 0.008592275 0.012380337
0.015443766 -0.0039092763 -0.0041482975 0.03396808 0.19986124 0.01147597 0.00240729 0.0007544319
-0.0014037398 0.0027937365 0.0022765726 0.06553906 0.019381661 -0.0040730443 0.011205683 0.007249279
0.010240155 0.0010008333 -0.005888015 0.003310014 0.1062511 0.17117712 0.014441825 -0.004304064
-0.001580614 0.0107963765 0.0017417293 -0.0015527735 -0.0043116743 -0.0027866994 0.30208397 -0.004187594
-0.001837712 0.069626704 -0.0017587012 0.00941428 0.016946519 0.15980725 -0.00793834 0.045871276
0.0048576756 0.033176206 0.005687037 -0.0045842705 0.02160938 -0.0023815369 0.018286593 -0.000862692
-0.00580184 0.035636578 0.030308751 -0.005789532 0.12268007 0.039678402 -0.014006157 -0.0040914323
-0.0042788363 0.0031344017 0.007979226 -0.004422611 0.005182545 0.012599727 -0.002576933 0.0124244355
0.0068516866 -0.0034935467 -0.0014012348 0.018553326 0.198764 0.0075856256 -0.0016631862 -0.0026283145
-0.004658368 0.0019153035 -0.0073936344 0.04255279 0.012082872 0.0043514986 -0.0059500374 0.0009535178
0.003802682 -0.0049251844 -0.0059717717 0.0028069022 0.073184825 0.17071575 0.0125100175 -0.0043345615
-0.0013313818 0.0037645213 -0.0035428912 -0.0014973141 -0.0044118306 -0.0031118996 0.31826586 -0.004551157
-0.0012251894 0.042396847 -0.009253492 0.004196487 -0.002753708 0.15277211 -0.0074935104 0.0002160232
0.01818372 0.021777257 0.026076445 -0.006772334 0.011403286 -0.0030729973 0.0046470817 0.0046353303
0.06015198 0.010554483 -0.14521757 0.014365847 -0.03604554 -0.040617086 0.110726446 -0.02376821
-0.0197615 -0.05278132 -0.05797414 -0.04977293 -0.0724665 0.087890364 -0.0076051443 0.079007275
0.09984925 0.046987053 -0.037766695 0.05561332 -0.13613765 0.08050662 -0.011390259 -0.052798714
0.00086854823 -0.056805346 0.12721226 -0.069716565 0.11191851 -0.06753143 -0.024956409 -0.020287428
-0.07620818 0.10170501 -0.038771674 -0.016624017 0.01788099 0.0082505075 -0.06900938 -0.06808017
-0.037872586 -0.074599154 -0.017794732 -0.04050754 -0.021814283 -0.014244555 0.025103105 -0.0039213323
-0.017508332 -0.015295033 0.1082101 0.08057697 0.07797281 -0.15609486 -0.055479538 0.06068835
0.04694505 0.12528166 -0.036713917 -0.0755817 -0.13754205 -0.0038569237 -0.16364037 -0.056054298
-0.0046049827 0.023865392 0.03345787 0.038614128 0.13682762 -0.017593628 0.003554854 -0.0044530383
-0.0041124295 0.01059755 0.027636386 -0.0028960719 0.016665122 0.025171598 0.0090220105 0.023301864
0.0066551976 -0.0019210665 -0.0034939258 0.03716258 0.154321 0.012516268 0.0021972659 0.001144428
-0.0012298273 0.002208592 0.002382669 0.07184985 0.022508418 0.027698783 0.00015767853 0.007881497
0.008133745 0.00883792 -0.0058429013 0.0011922391 0.11747939 0.14806211 0.021811565 -0.0042957203
-0.0014977016 0.0061671403 0.011107344 -0.0016021539 -0.0042609503 -0.0027379396 0.26102763 -0.004163397
-0.0019250322 0.06320114 -0.0033500125 0.011019495 0.023233969 0.13147323 -0.007914469 0.0073925797
0.031414695 0.054077074 0.016033135 -0.0012759251 0.021443801 -0.0022231503 0.0073185503 0.009800584
00000000: f034 97bb a433 2b3d fefb 363d daf5 d73b
00000010: 20d9 033e baca b0bc 1e2e 133d 9000 8ebb
00000020: c6c1 88bb 16e6 023c d71d dd3c 2e0a f5bb
00000030: 75b1 6c3c f773 b73c 9dc6 0c3c e6d6 4a3c
00000040: d907 7d3c 6319 80bb 71ee 87bb 1d22 0b3d
00000050: 6da8 4c3e b505 3c3c a0c3 1d3b 11c5 453a
00000060: b1fd b7ba 1f17 373b 8d32 153b 5839 863d
00000070: 4ac6 9e3c 2c77 85bb 0b98 373c 5c8b ed3b
00000080: 53c6 273c 652e 833a 40f0 c0bb d2ec 583b
00000090: 2d9a d93d 0e49 2f3e 689d 6c3c 1b09 8dbb
000000a0: 9b2c cfba 49e3 303c bd4a e43a 6f86 cbba
000000b0: f248 8dbb 0fa1 36bb c0aa 9a3e 1638 89bb
000000c0: 62df f0ba 7298 8e3d 3884 e6ba 5a3e 1a3c
000000d0: 6dd3 8a3c 83a4 233e d00f 02bc 85e3 3b3d
000000e0: 232d 9f3b c6e3 073d 535a ba3b a637 96bb
000000f0: 2806 b13c 8f13 1cbb c4cd 953c 4826 62ba
00000100: 5d1d bebb a9f7 113d 0f4a f83c 1db6 bdbb
00000110: b03f fb3d d285 223d 157a 65bc 6c11 86bb
00000120: 7b35 8cbb 896a 4d3b 4dbb 023c 8deb 90bb
00000130: 57d2 a93b 166f 4e3c c3e1 28bb dc8f 4b3c
00000140: 1d84 e03b fdf3 64bb a3a9 b7ba 25fd 973c
00000150: ca88 4b3e d790 f83b 45ff d9ba cd3f 2cbb
00000160: 39a5 98bb ec0a fb3a 4d46 f2bb d64b 2e3d
00000170: 3df7 453c 0497 8e3b 88f8 c2bb 7ff5 793a
00000180: 6b36 793b 7163 a1bb daae c3bb 01f4 373b
00000190: ede1 953d 1cd0 2e3e d1f6 4c3c f008 8ebb
000001a0: c381 aeba 30b6 763b da2f 68bb 8641 c4ba
000001b0: 1e91 90bb 03f1 4bbb bef3 a23e df21 95bb
000001c0: 8996 a0ba 51a8 2d3d f59b 17bc af82 893b
000001d0: 8e77 34bb 4b70 1c3e 1f8c f5bb 4984 6239
000001e0: 06f6 943c 3866 b23c 459e d53c 75ea ddbb
000001f0: d9d4 3a3c 5764 49bb 8c46 983b f8e3 973b
00000200: ec61 763d b6ec 2c3c eab3 14be bb5e 6b3c
00000210: 7da4 13bd 1a5e 26bd 8cc4 e23d 8db5 c2bc
00000220: dfe2 a1bc 3a31 58bd 4b76 6dbd b3de 4bbd
00000230: 5169 94bd ddff b33d 9334 f9bb 91ce a13d
00000240: c37d cc3d 7f75 403d 40b1 1abd cbca 633d
00000250: ab67 0bbe a8e0 a43d 359e 3abc 7743 58bd
00000260: 49af 633a b9ac 68bd ee43 023e 8fc7 8ebd
00000270: 8835 e53d eb4d 8abd 6271 ccbc d231 a6bc
00000280: 0913 9cbd b74a d03d 0ccf 1ebd 172f 88bc
00000290: 277b 923c 232d 073c ca54 8dbd 9e6d 8bbd
000002a0: 4920 1bbd 71c7 98bd 42c6 91bc 3ceb 25bd
000002b0: deb3 b2bc fe61 69bc 07a5 cd3c 857e 80bb
000002c0: a26d 8fbc 0598 7abc 429d dd3d 8a05 a53d
000002d0: 35b0 9f3d 55d7 1fbe 833e 63bd 5994 783d
000002e0: 7449 403d d649 003e 5561 16bd 94ca 9abd
000002f0: d3d7 0cbe 71c4 7cbb 5791 27be 3199 65bd
00000300: 65e5 96bb 5b81 c33c 1f0b 093d d929 1e3d
00000310: 8a1c 0c3e 8320 90bc 8ef8 683b cbea 91bb
00000320: 8fc1 86bb 59a1 2d3c b465 e23c 06cc 3dbb
00000330: 4b85 883c ab34 ce3c 0ed1 133c 8de3 be3c
00000340: d813 da3b 4ccc fbba 59fa 64bb ca37 183d
00000350: 5306 1e3e 0811 4d3c 0100 103b a200 963a
00000360: 2832 a1ba 06be 103b 8d26 1c3b 0426 933d
00000370: 9363 b83c 8fe8 e23c 8256 2539 6521 013c
00000380: 6643 053c eccc 103c cf75 bfbb e844 9c3a
00000390: 0999 f03d 989d 173e 2bae b23c 1dc3 8cbb
000003a0: 874e c4ba b915 ca3b 94fb 353c 5dff d1ba
000003b0: 719f 8bbb 016f 33bb 6aa5 853e 1b6d 88bb
000003c0: 5d51 fcba 996f 813d e28b 5bbb 1d8b 343c
000003d0: 2a55 be3c eba0 063e b0ab 01bc 743d f23b
000003e0: b2ac 003d ec7f 5d3d ec57 833c f13c a7ba
000003f0: e9aa af3c 46b2 11bb 73d0 ef3b a192 203c

lstm.weight_ih_l1 f4 [256, 64]
0.0013281914 0.0014665979 0.0029556653 -0.0039316867 -0.013942746 0.0009991635 0.0004194675 -0.00067138334
0.00055017736 -0.001095635 -0.0017685826 -0.0018344928 0.00081613887 0.0029993427 0.001378099 -0.00355678
0.002347175 0.0010208907 -0.00091618235 0.0023604897 -0.001124102 0.003040516 -0.00019740078 -0.001261328
0.00060892943 -0.0019504672 0.0016384841 -0.0022851871 -0.0001819736 -0.00085970614 0.0006401889 0.0012121863
-0.0018011972 -0.0018429246 -0.00066055864 -0.00046930843 -0.0053702947 -0.0048195436 -0.002112406 -0.0007382523
-0.00039610578 0.00028862525 -0.0015461893 -0.00032518973 -0.0019525049 -0.00011719219 0.0032013243 0.0028242616
0.00010785425 -5.5724566e-05 0.0026163182 0.0023496 -0.0027850543 -0.0002758873 -0.001862405 -0.0034766535
-0.0019903735 0.0077401246 0.00022336219 -0.0001962215 -0.0022140204 -0.00016734618 -0.0017904026 -0.0010674176
0.0025859622 0.005641146 0.00865376 -0.011277534 -0.024733327 0.005698909 -0.0030431303 -0.00042921436
0.0005528397 -0.0023948073 -0.0048351837 -0.0057135397 0.0041685584 0.005843587 0.0020027778 -0.008678553
0.00043364818 0.0013201447 -0.002968893 0.004973853 0.004980332 0.008040864 -0.0010034117 -0.0016038063
0.0008824057 -0.005815553 0.002654689 -0.0055544805 -0.0038621433 -0.0055927383 0.0035358558 0.001621146
-0.0065160166 -0.0046432186 -4.716245e-05 -0.0049769883 -0.011755057 -0.0041237 -0.005245625 9.911481e-05
-0.000116780975 0.002196417 -0.00081214495 2.3314198e-05 -0.0032960847 -0.00044944935 0.004283802 0.0031500333
-0.0008326475 -0.0060635046 0.004043807 0.0044947336 -0.007585131 0.007091549 -0.0012201944 -0.012721578
0.0018620525 0.015457012 0.0031066993 0.0008027215 -0.007049314 0.00030857036 -0.0061528427 -0.004622953
0.0036002009 0.006000812 0.009268833 -0.012716661 -0.026661076 0.0060291216 -0.0030440998 -0.0012835666
0.00091220095 -0.0031557132 -0.005318861 -0.0064542037 0.00429639 0.0072708917 0.0014262025 -0.010375139
0.0007121707 0.0015587572 -0.0037539103 0.006386429 0.0022430166 0.009595381 -0.00093652913 -0.0023869793
0.0010236711 -0.006969418 0.004742718 -0.0056212805 -0.0045817564 -0.0063106315 0.0044222465 0.0023445266
-0.007851812 -0.005000616 -0.00087713066 -0.006017127 -0.013364163 -0.0012972031 -0.0062355297 -0.0014611854
-0.0004901335 0.0027023004 -0.0010470257 -0.00055722723 -0.0035158074 -0.00027219794 -0.001381031 0.004703026
-0.0010876297 -0.00610081 0.006043304 0.00581593 -0.008049772 0.005216838 -0.0022390485 -0.011606372
0.0021490308 0.018453557 0.0040143034 0.00063021673 -0.009194857 0.00036962776 -0.0077593187 -0.005323394
0.0036640635 0.0060578324 0.009325942 -0.0129337255 -0.026578136 0.005923975 -0.0031499723 -0.0016245062
0.00088997395 -0.0031020439 -0.0050422857 -0.0064167944 0.004273695 0.007381142 0.0012822704 -0.010436232
0.0008896033 0.0017227299 -0.0037699903 0.0064137653 0.0010064098 0.009665137 -0.0007044089 -0.0024516208
0.00096587767 -0.007046799 0.0050968234 -0.0052518775 -0.0047737425 -0.006362337 0.0041321106 0.002386113
-0.007856361 -0.004964645 -0.0010314573 -0.005966747 -0.013297522 -0.0003046911 -0.0061004455 -0.0017533232
-0.0005781034 0.0028221635 -0.0011695018 -0.00076675805 -0.0035588962 -6.1005103e-05 -0.0034440074 0.0047764024
-0.00095606927 -0.0059358603 0.006508572 0.005927805 -0.00807874 0.00486931 -0.0027822456 -0.011199569
0.0018551829 0.019042457 0.0041250284 0.00049132877 -0.0094441045 0.00048552983 -0.007826429 -0.0051547736
00000000: b516 ae3a dc3a c03a d6b3 413b 61d5 80bb
00000010: 1e70 64bc 5df6 823a faeb db39 c6ff 2fba
00000020: c739 103a 699b 8fba c9cf e7ba 5d73 f0ba
00000030: 27f2 553a 9f90 443b 54a1 b43a de18 69bb
00000040: 10d3 193b 68cf 853a f52b 70ba 72b2 1a3b
00000050: 9b56 93ba 6543 473b 5efd 4eb9 2553 a5ba
00000060: 90a0 1f3a d2a6 ffba 67c2 d63a 14c3 15bb
00000070: 2bd0 3eb9 e75d 61ba 5ad2 273a 39e2 9e3a
00000080: 2616 ecba 4a8e f1ba 5729 2dba 830d f6b9
00000090: 4cf9 afbb 43ed 9dbb 4b70 0abb 4687 41ba
000000a0: 6bac cfb9 a052 9739 81a9 caba 3a7e aab9
000000b0: 31eb ffba 14c5 f5b8 4fcd 513b 3f17 393b
000000c0: cf2f e238 ccb9 69b8 8976 2b3b bffb 193b
000000d0: 7585 36bb f7a4 90b9 f11b f4ba 91d8 63bb
000000e0: ed70 02bb dfa0 fd3b 5536 6a39 cfc0 4db9
000000f0: 1919 11bb a679 2fb9 f1ab eaba 97e8 8bba
00000100: 3f79 293b 5dd9 b83b 80c8 0d3c 68c5 38bc
00000110: 8c9d cabc eabd ba3b 416f 47bb 2d08 e1b9
00000120: 72ec 103a 33f2 1cbb 7670 9ebb a538 bbbb
00000130: 6798 883b 907b bf3b 0941 033b 7d30 0ebc
00000140: 465b e339 b508 ad3a c291 42bb b4fb a23b
00000150: 0e32 a33b d4bd 033c e984 83ba cf36 d2ba
00000160: 3e51 673a 6590 bebb 4afa 2d3b 5c02 b6bb
00000170: 031c 7dbb 4a43 b7bb d1b9 673b a27c d43a
00000180: 4f84 d5bb 2426 98bb 4cd0 45b8 0116 a3bb
00000190: 4898 40bc 1a20 87bb 7ee3 abbb dcdb cf38
000001a0: 4fe8 f4b8 c3f1 0f3b 20e6 54ba dc92 c337
000001b0: 2003 58bb 12a4 ebb9 235f 8c3b ca70 4e3b
000001c0: 0746 5aba 5db0 c6bb e981 843b 8f48 933b
000001d0: b18c f8bb 3a60 e83b eeee 9fba 2a6e 50bc
000001e0: 1d10 f43a 683f 7d3c c499 4b3b ba6d 523a
000001f0: effd e6bb 9dc7 a139 c99d c9bb 247c 97bb
00000200: 59f1 6b3b 76a2 c43b 4edc 173c 8b59 50bc
00000210: 5468 dabc f08f c53b 857f 47bb 593d a8ba
00000220: c520 6f3a 15d0 4ebb d749 aebb c97d d3bb
00000230: bbc8 8c3b a940 ee3b 6aef ba3a 7dfc 29bc
00000240: f7b0 3a3a 364f cc3a 2a04 76bb 4045 d13b
00000250: 93ff 123b f235 1d3c 6881 75ba de6e 1cbb
00000260: b42c 863a b75f e4bb cd68 9b3b b832 b8bb
00000270: 8f22 96bb 6ac9 cebb 7ee8 903b a1a6 193b
00000280: e3a4 00bc 35dc a3bb 3eef 65ba 522b c5bb
00000290: 5df5 5abc ea06 aaba 6a53 ccbb 3f85 bfba
000002a0: 4d7c 00ba 1419 313b 5a3c 89ba e312 12ba
000002b0: 7669 66bb cab5 8eb9 b603 b5ba d71b 9a3b
000002c0: cc8e 8eba 4ee9 c7bb e906 c63b 8f93 be3b
000002d0: 31e3 03bc 02f2 aa3b 00bd 12bb a728 3ebc
000002e0: c1d6 0c3b ea2b 973c 6b8a 833b 2135 253a
000002f0: 07a6 16bc 99ca c139 e241 febb de6f aebb
00000300: c920 703b c880 c63b d6cb 183c fae7 53bc
00000310: 64ba d9bc e71d c23b c46f 4ebb 62ed d4ba
00000320: 244d 693a a94b 4bbb c239 a5bb f943 d2bb
00000330: 5a0a 8c3b 82dd f13b db11 a83a bbfc 2abc
00000340: 4434 693a 39cd e13a f111 77bb 902a d23b
00000350: 82e9 833a 865a 1e3c 15a8 38ba 5fab 20bb
00000360: f432 7d3a d6e8 e6bb 4103 a73b f117 acbb
00000370: 0e6d 9cbb 277b d0bb a866 873b 5560 1c3b
00000380: f7b7 00bc 76ae a2bb f731 87ba b484 c3bb
00000390: dadd 59bc f2be 9fb9 3fe6 c7bb c4cf e5ba
000003a0: dd8b 17ba 0cf4 383b f849 99ba 4300 49ba
000003b0: 5f3c 69bb bbdf 7fb8 dbb4 61bb 5e83 9c3b
000003c0: b9a0 7aba 9b81 c2bb dc45 d53b 083e c23b
000003d0: b15c 04bc bc8e 9f3b 5656 36bb 667e 37bc
000003e0: 9c29 f33a edfe 9b3c 3f2b 873b 84cc 003a
000003f0: 72bb 1abc b68e fe39 6c3a 00bc 60e9 a8bb

lstm.weight_hh_l1 f4 [256, 64]
-0.0006762553 -0.00041549664 -2.859709e-05 -9.859848e-05 -0.00014828208 -0.0008571223 0.0020727734 -0.0005290754
-0.0025065576 0.0002441642 0.002929494 -0.0028857829 -0.0017923401 5.8419842e-05 0.00064489304 -0.0018340573
0.0009934957 0.0010661702 -3.9531238e-05 0.005499748 -0.0024077224 0.0027176405 -0.0016417393 0.0014931702
-1.4321762e-05 0.0022785927 7.197379e-05 0.0014638322 0.0009027926 0.00019226193 -0.0014029568 0.001026126
-0.0015336046 0.0024103317 -0.0010364649 0.0021498918 -0.0036416238 -0.00011866687 -0.00056832563 0.0007289419
0.00041459766 -0.0012903825 -0.0007986178 -0.008069977 0.0015181663 -0.0070194434 -0.0012991392 0.0021010642
-0.00040450267 0.0013964718 -0.008195546 0.0010818794 0.0014253585 -2.3348504e-05 -0.00049912004 0.00072345586
0.00028755132 2.904101e-05 -0.0049022497 0.0012453878 0.0057927077 -0.00026896424 0.0062180627 0.0010969958
0.0015014342 -0.0046757334 0.003709603 0.0036056698 -0.004157279 0.0021450373 0.0008600876 0.002236234
-0.0017464795 -0.0034210542 0.0037464416 -0.0034804898 -0.0009043137 -0.0037653248 -0.0018825205 -0.00061474286
-0.0014439651 -0.0016330512 -0.003830685 0.0063697235 -0.0030425629 0.0027465688 -0.0021052936 0.0074687107
0.0038189646 0.0016591488 0.004197075 0.0070600277 -0.0019290519 0.004223067 0.00045506028 -0.0016010714
-0.0011454993 0.0029965243 0.0012068504 0.0014805435 -0.004135185 0.003411284 0.0024603107 -0.0017314975
0.004953969 0.00031963782 0.0017953387 -0.00897556 0.0020369915 -0.009837452 0.0008959587 0.0016016661
-0.0044354126 -0.0007486684 -0.008385473 -0.0013210744 -0.0009318922 -0.0038914587 0.0023382304 -0.0020772875
0.00426085 0.00373043 -0.0059301215 -0.0006374264 0.0072458377 0.0027538193 0.0073827337 -0.0009806657
0.002540196 -0.006530591 0.0053185895 0.0052656517 -0.0058062435 0.0034518433 0.00031635188 0.003554562
-0.0013428098 -0.0050214324 0.004638654 -0.004460736 -0.000429313 -0.0053964746 -0.0030349696 -4.5533234e-06
-0.002560245 -0.0028131483 -0.0052536987 0.00779056 -0.0039010332 0.0025368088 -0.0021040025 0.009789959
0.0053357505 0.0012188135 0.005921333 0.009573276 -0.0030700706 0.006011522 0.0013414216 -0.002751877
-0.0008280407 0.0030168365 0.0022443628 0.001090676 -0.005195807 0.004977755 0.0037569103 -0.002860855
0.006852329 0.001140195 0.002980997 -0.0101964995 0.0020060744 -0.011375804 0.0018129739 0.0013350181
-0.006182086 -0.0017194861 -0.0092907995 -0.0024251027 -0.0018231069 -0.0054835975 0.0035174135 -0.0032896788
0.0059453472 0.005265627 -0.0072803823 -0.001408493 0.007867525 0.004063378 0.008235627 -0.0019024732
0.0025311932 -0.0066733016 0.005440885 0.005395256 -0.0058884798 0.0035258739 0.0003840959 0.003598933
-0.0014378115 -0.0051092105 0.0052295304 -0.0048522195 -0.00051856425 -0.005515075 -0.003052145 -7.269434e-05
-0.002582177 -0.002856327 -0.005329715 0.007773038 -0.0043951864 0.0026481356 -0.002226471 0.009959975
0.005414136 0.0013249968 0.006063822 0.009488598 -0.003116839 0.0061691897 0.0013323328 -0.0027966101
-0.0009409499 0.0031483597 0.0022606642 0.0011942964 -0.0055755493 0.0050318735 0.0038076632 -0.00288501
0.007050881 0.0011116934 0.0030057756 -0.010512363 0.0021768697 -0.012689181 0.0018141802 0.0014529009
-0.006378508 -0.0017354783 -0.009187792 -0.0024512166 -0.0018216484 -0.005589659 0.0035349955 -0.0033202944
0.0060830573 0.0053180717 -0.0071804016 -0.0013762015 0.008110647 0.0041240747 0.008824629 -0.0018798235
00000000: ba46 31ba 04d7 d9b9 c8e3 efb7 a8c6 ceb8
00000010: 2b7c 1bb9 81b0 60ba 5ed7 073b a6b1 0aba
00000020: 0f45 24bb 2a03 8039 c1fc 3f3b 671f 3dbb
00000030: f4ec eaba d407 7538 0a0e 293a c064 f0ba
00000040: 2f38 823a bcbe 8b3a 58ce 25b8 3b37 b43b
00000050: e1ca 1dbb 711a 323b a12f d7ba 7ab6 c33a
00000060: 8047 70b7 7154 153b a2f0 9638 0fde bf3a
00000070: 63a9 6c3a eb99 4939 6be3 b7ba 137f 863a
00000080: 3b03 c9ba a8f6 1d3b fed9 87ba 33e5 0c3b
00000090: 4fa8 6ebb cadc f8b8 b0fb 14ba 7616 3f3a
000000a0: 5b5e d939 0d22 a9ba 555a 51ba f037 04bc
000000b0: 35fd c63a 5c03 e6bb e147 aaba 02b2 093b
000000c0: 6e13 d4b9 d109 b73a 9d46 06bc d9cd 8d3a
000000d0: 18d3 ba3a 88dc c3b7 61d7 02ba 4da6 3d3a
000000e0: 7cc2 9639 189d f337 0da3 a0bb 483c a33a
000000f0: c1d0 bd3b c503 8db9 e4c0 cb3b 12c9 8f3a
00000100: c6cb c43a e536 99bb d01c 733b 1a4d 6c3b
00000110: c939 88bb c193 0c3b 8077 613a c88d 123b
00000120: 21ea e4ba c433 60bb dc86 753b ee18 64bb
00000130: 770f 6dba abc3 76bb e8be f6ba b226 21ba
00000140: 6e43 bdba 1b0c d6ba 3b0c 7bbb 1db9 d03b
00000150: bc65 47bb c7ff 333b f7f8 09bb 16bc f43b
00000160: 9847 7a3b cc77 d93a 9e87 893b ce57 e73b
00000170: 3ed8 fcba a761 8a3b 2895 ee39 0bdb d1ba
00000180: 9424 96ba 5661 443b 2e2f 9e3a cc0e c23a
00000190: 7280 87bb d98f 5f3b 2a3d 213b 6af3 e2ba
000001a0: e754 a23b 1095 a739 9251 eb3a 3a0e 13bc
000001b0: 0c7f 053b 442d 21bc c5de 6a3a ffee d13a
000001c0: f056 91bb 4942 44ba 3963 09bc e727 adba
000001d0: 3a4a 74ba d807 7fbb ff3c 193b 1a23 08bb
000001e0: 9a9e 8b3b 3b7a 743b 7751 c2bb f618 27ba
000001f0: 7e6e ed3b 6c79 343b dcea f13b ae89 80ba
00000200: 6b79 263b 91fe d5bb 9047 ae3b 7d8b ac3b
00000210: 4d42 bebb 5238 623b 08dc a539 a8f3 683b
00000220: 3801 b0ba d48a a4bb daff 973b 5e2b 92bb
00000230: 6a15 e1b9 e9d4 b0bb 57e6 46bb c0c8 98b6
00000240: c9c9 27bb cc5c 38bb 3827 acbb f447 ff3b
00000250: 7aa8 7fbb 9740 263b 4ee3 09bb 1066 203c
00000260: 85d7 ae3b 98c0 9f3a be07 c23b 3bd9 1c3c
00000270: 3d33 49bb 4dfc c43b a4d2 af3a d658 34bb
00000280: df10 59ba 1eb6 453b 2916 133b 04f5 8e3a
00000290: 9741 aabb 6f1c a33b 7f36 763b 2f7d 3bbb
000002a0: 8089 e03b 9872 953a d55c 433b 380f 27bc
000002b0: 5878 033b 9561 3abc 4fa1 ed3a c6fb ae3a
000002c0: 1993 cabb 6160 e1ba 7038 18bc 79ee 1ebb
000002d0: 51f5 eeba c0af b3bb 6884 663b a797 57bb
000002e0: 30d1 c23b 488b ac3b 4690 eebb 2f9d b8ba
000002f0: cbe6 003c 1626 853b b9ee 063c 685c f9ba
00000300: 60e2 253b b6ab dabb 7449 b23b b0ca b03b
00000310: 26f4 c0bb 5912 673b 7b60 c939 14dc 6b3b
00000320: f374 bcba 2a6b a7bb 7b5c ab3b 5eff 9ebb
00000330: 42f0 07ba cdb7 b4bb 7f06 48bb 7a73 98b8
00000340: be39 29bb 3731 3bbb e4a4 aebb f8b4 fe3b
00000350: 7f05 90bb 588c 2d3b fce9 11bb 2a2f 233c
00000360: 1169 b13b 84ab ad3a 07b3 c63b 1176 1b3c
00000370: e243 4cbb ea26 ca3b aca1 ae3a 5547 37bb
00000380: 14aa 76ba b654 4e3b a727 143b f089 9c3a
00000390: 19b3 b6bb 6ae2 a43b fd89 793b 7012 3dbb
000003a0: 140b e73b 3eb6 913a 8cfc 443b 0c3c 2cbc
000003b0: d0a9 0e3b 48e6 4fbc c9c9 ed3a 446f be3a
000003c0: ce02 d1bb fd78 e3ba 6588 16bc 97a4 20bb
000003d0: 61c4 eeba 7529 b7bb 62ab 673b 4c99 59bb
000003e0: 6254 c73b 3843 ae3b 9349 ebbb a961 b4ba
000003f0: 85e2 043c 3f23 873b 2d95 103c 6964 f6ba

lstm.bias_ih_l1 f4 [256]
0.01972263 0.025449527 0.036880653 0.053021803 0.05380252 0.04790775 0.013269809 0.024306616
0.015223245 0.05520737 -0.0036413101 -0.003218319 0.0074338214 0.05014432 0.024229644 0.010727204
0.03282339 0.04444549 0.044318605 -0.006932496 -0.0025116322 0.005564452 -0.0008503485 0.072234586
0.04938051 0.0055272807 0.042818047 0.07947568 0.042241372 0.044360608 0.016441444 0.034000974
0.00046615434 0.00094976416 0.019319216 0.0076651038 -0.0026680294 0.054668617 0.0442231 0.014425033
0.061873928 0.011698434 0.031354707 -0.013191219 -0.0014579702 -0.0020802787 0.020869557 0.00503534
0.06600715 0.036300156 -0.008910232 0.023469554 0.045353495 0.058178324 0.044106815 0.039052047
0.04319473 0.04841813 -0.0023947468 0.020456754 -0.0071324455 0.016324729 -0.0039843787 0.019122224
0.0059244973 0.014185444 0.033841603 0.03688198 0.024978044 0.024306778 0.0039929543 0.009293639
0.0040795538 0.03180883 -0.0030013537 -0.0024977436 0.0016690609 0.029031463 0.011746648 0.003111361
0.014802475 0.02098621 0.033843998 -0.006084484 -0.002035863 -5.8980557e-05 -0.0014954195 0.040971335
0.045387093 0.00012577546 0.031925507 0.057409126 0.020666162 0.031006362 0.006909354 0.017732078
-0.0011083116 -0.0013287592 0.0086745545 0.0013034353 -0.0022535715 0.016566815 0.020299627 0.0054784524
0.03149988 0.004637085 0.014528612 -0.011637899 -0.0016266573 -0.0014890913 0.009280933 0.0003837071
0.03288807 0.016892063 -0.007937533 0.010467431 0.022709755 0.03002772 0.021408154 0.018566733
0.03380904 0.034993824 -0.0018406697 0.009166784 -0.005347236 0.011333984 -0.0031993892 0.0075377296
0.09675378 -0.10698081 0.04426923 0.05758429 -0.066948205 0.09184399 -0.0742956 0.0716925
-0.015069904 -0.015201429 -0.013081726 0.011495292 0.018026806 -0.02188185 -0.11075437 0.050830625
-0.11358906 -0.016095016 -0.036184337 -0.011553643 0.00838336 -0.009633282 0.03506463 0.12988281
0.008613212 -0.008966124 0.0436453 0.05592643 0.021406773 0.045832 0.07475793 -0.05653819
0.010055816 -0.0077620298 0.03352337 -0.055298686 0.01123942 0.11603887 0.071309716 -0.06664183
0.07307078 0.053850047 0.07320181 0.019291013 -0.0003454403 0.0072670854 0.08544854 -0.05888525
-0.13281418 -0.015744837 0.013174078 -0.062123615 -0.030792816 -0.06300086 0.036155317 0.023414746
0.09109313 0.09385589 0.00890122 -0.0030983253 -0.015228661 0.08671275 -0.009553573 -0.0969449
0.023065848 0.034887597 0.029070355 0.050336048 0.06767438 0.053378396 0.0137244025 0.016577274
0.015420857 0.06069478 -0.0035759695 -0.0030548275 0.0076737627 0.06452792 0.029405938 0.010137044
0.030074842 0.0470304 0.061158177 -0.0068484866 -0.0025171554 0.0056506475 -0.0008314823 0.078410015
0.07130465 0.0053792256 0.040886182 0.08248604 0.038955975 0.056691304 0.016574753 0.031288914
0.00044491648 0.0009967665 0.016709778 0.0076652206 -0.0024208608 0.03751501 0.06141256 0.014258115
0.0548216 0.012059338 0.035015006 -0.013622489 -0.0013730044 -0.0023999696 0.022600284 0.00500647
0.075125314 0.038053654 -0.009340046 0.02243513 0.043440964 0.04468839 0.04673019 0.042474397
0.035245787 0.06083896 -0.0020740812 0.021596743 -0.0072364127 0.03184029 -0.003862095 0.018841775
00000000: 5a91 a13c 877b d03c 2b10 173d 642d 593d
00000010: 0860 5c3d eb3a 443d 9d69 593c ab1e c73c
00000020: eb6a 793c 2021 623d 0ca3 6ebb 6fea 52bb
00000030: 6a97 f33b 2164 4d3d 3f7d c63c 28c1 2f3c
00000040: d271 063d 790c 363d 6d87 353d fe29 e3bb
00000050: 329a 24bb 0256 b63b ece9 5eba baef 933d
00000060: 3843 4a3d 311e b53b fa61 2f3d 25c4 a23d
00000070: 4a05 2d3d 78b3 353d 35b0 863c 9b44 0b3d
00000080: 2d66 f439 98f9 783a 5543 9e3c 8d2b fb3b
00000090: 1bda 2ebb 33ec 5f3d 4823 353d f956 6c3c
000000a0: 846f 7d3d caaa 3f3c cb6d 003d fc1f 58bc
000000b0: 5d19 bfba 4955 08bb a2f6 aa3c 7eff a43b
000000c0: c22e 873d 79af 143d 39fc 11bc 3943 c03c
000000d0: 96c4 393d 654c 6e3d 59a9 343d 0af5 1f3d
000000e0: f5ec 303d 1752 463d 2ff1 1cbb ec94 a73c
000000f0: 4ab7 e9bb 70bb 853c 648f 82bb 36a6 9c3c
00000100: 4922 c23b 116a 683c 7e9d 0a3d 8f11 173d
00000110: c19e cc3c 021f c73c 54d7 823b 5944 183c
00000120: c7ad 853b fa49 023d 5cb2 44bb 2fb1 23bb
00000130: 64c4 da3a 64d3 ed3c 0375 403c fae7 4b3b
00000140: 1586 723c 46eb ab3c 01a0 0a3d 5a60 c7bb
00000150: 1d6c 05bb e461 77b8 f401 c4ba 8fd1 273d
00000160: d1e7 393d 98e2 0339 52c4 023d d525 6b3d
00000170: 154c a93c 0e01 fe3c dd67 e23b dd42 913c
00000180: c444 91ba c329 aeba b81f 0e3c 08d8 aa3a
00000190: a8b0 13bb 21b7 873c 674b a63c 9784 b33b
000001a0: 0506 013d b0f2 973b 6a09 6e3c e3ac 3ebc
000001b0: 9035 d5ba 9d2d c3ba 0e0f 183c 4c2c c939
000001c0: a4b5 063d 3961 8a3c 6d0c 02bc 967f 2b3c
000001d0: cf09 ba3c b1fc f53c 2760 af3c 4319 983c
000001e0: 597b 0a3d af55 0f3d a042 f1ba 4730 163c
000001f0: de37 afbb 2db2 393c d8ac 51bb 0fff f63b
00000200: d926 c63d c118 dbbd a753 353d 81dd 6b3d
00000210: 241c 89bd b418 bc3d 4b28 98bd 84d3 923d
00000220: c2e7 76bc 6a0f 79bc bc54 56bc c056 3c3c
00000230: f4ac 933c 9141 b3bc 30d3 e2bd c633 503d
00000240: 62a1 e8bd b2d9 83bc 0736 14bd 7e4b 3dbc
00000250: 5c5a 093c ead4 1dbc ee9f 0f3d 0000 053e
00000260: 6e1e 0d3c a6e6 12bc 6ac5 323d 1d13 653d
00000270: 425d af3c 56ba 3b3d b01a 993d 9794 67bd
00000280: 26c1 243c a058 febb cd4f 093d e080 62bd
00000290: 8b25 383c c9a5 ed3d d40a 923d 837b 88bd
000002a0: 22a6 953d de91 5c3d d5ea 953d 3008 9e3c
000002b0: 361c b5b9 bb20 ee3b a5ff ae3d a931 71bd
000002c0: 7100 08be 51fb 80bc 17d8 573c 5575 7ebd
000002d0: 3741 fcbc 9806 81bd 9917 143d 48d0 bf3c
000002e0: 098f ba3d 8437 c03d 6cd6 113c 460d 4bbb
000002f0: a281 79bc 7496 b13d 9786 1cbc 0c8b c6bd
00000300: 97f4 bc3c 4ce6 0e3d f424 ee3c 2c2d 4e3d
00000310: de98 8a3d 4ea3 5a3d 51dc 603c 10cd 873c
00000320: c3a7 7c3c 179b 783d d05a 6abb 8033 48bb
00000330: 3074 fb3b 3727 843d b9e4 f03c d815 263c
00000340: 845f f63c f3a2 403d ff80 7a3d 4569 e0bb
00000350: dcf6 24bb 1129 b93b d5f7 59ba 6e95 a03d
00000360: 2c08 923d 3744 b03b 4578 273d 71ee a83d
00000370: 4d90 1f3d 2435 683d c7c7 873c ce28 003d
00000380: ae43 e939 efa5 823a f2e2 883c 882c fb3b
00000390: 4ea7 1ebb 57a9 193d bd8b 7b3d de9a 693c
000003a0: 9d8c 603d 8894 453c e56b 0f3d dc30 5fbc
000003b0: 62f6 b3ba cf48 1dbb 3b24 b93c 500d a43b
000003c0: 4ddb 993d 26de 1b3d fe06 19bc e1c9 b73c
000003d0: 27ef 313d 2c0b 373d 2868 3f3d a2f9 2d3d
000003e0: e35d 103d 4632 793d 4fed 07bb a7eb b03c
000003f0: 6e1f edbb f76a 023d 341b 7dbb 115a 9a3c
