checkpoints/checkpoint.pth (torch, 214882 bytes, 9 tensors)

lstm.weight_ih_l0 f4 [256, 10]
00000000: 3449 dbbb b3c6 943a b93d f2bb 576d d2bb
00000010: b1fe 07bc f95c 6ebb f0d9 6cbb 4c16 74ba
00000020: ed8a 6bbc 52b8 6abc 0411 19bc e936 aebb
00000030: fc79 1dbc 891e 1abc 1c05 19bc 32c6 59bc
00000040: d020 68bc 15d4 c13a ef94 3abc 9d9c 3abc
00000050: 29c1 d23c e68a c43a ffa9 d03c a3aa c43c
00000060: fca0 ee3c cd53 8f3b 1502 d83b 9f5f f0ba
00000070: b6ff be3c 5511 d53c 8fb6 f03d 1bc0 38bd
00000080: 3d28 ea3d 6837 e23d b4ad 1b3e 77c5 0bbd
00000090: c669 c9bb 5d9d d2bb 1474 833e 6dc7 8b3e
000000a0: 1542 3bbc 3bcd d3b9 2663 4bbc 8b5a 3ebc
000000b0: d0e2 4cbc ac0f f1bb ad8d ebbb ccac 9d3a
000000c0: fe0b 57bc f982 4dbc b8e5 723d ef11 993a
000000d0: b0a1 763d cb8b 5a3d cc61 943d 834b 853b
000000e0: b639 e63b 15c2 30bb 5169 803d 61a3 8b3d
000000f0: 3fd2 b0bc 6af1 06bc b04c b6bc a6fc adbc
00000100: add6 c0bc fe4c 33bc dd32 1bbc b49f 0dbb
00000110: 5601 cbbc a6e6 c0bc 20dc cdba 846c e2ba
00000120: 6c52 c8ba 8208 ceba 3949 d0ba 3d08 63ba
00000130: 2479 8eba 096d fc37 bbd0 41bb c52e 41bb
00000140: dd68 01bb 05e6 aeb9 17b9 14bb bd46 fbba
00000150: 494f 1bbb 8556 dfb8 10e1 27b9 2000 dbb6
00000160: fab7 bfbb ae6b c1bb 1abd edba f660 32ba
00000170: 8960 03bb cdf8 efba 6afa 05bb 5cca c4b9
00000180: 62b3 f5b9 08fd b737 de49 9dbb 1acd 9dbb
00000190: 47e8 e3bb 623f 3dbb 7820 ebbb a397 dbbb
000001a0: 5f20 00bc fce0 e3bb 0e0d eabb bc4b 17ba
000001b0: a690 3bbc 3308 3abc c407 d0bc a72d 02bc
000001c0: c954 dabc a1c1 ccbc 5cbe e6bc 41fa 7abc
000001d0: 0154 6cbc f097 8dba 0451 f7bc 4160 f2bc
000001e0: a315 5c3d d9c5 2e3b 04ec 5c3d faf8 4d3d
000001f0: 53ca 703d 5857 f93b 8e59 3a3c ba87 87bb
00000200: 2d60 703d 2a77 813d da3c b73c 8641 37bb
00000210: 4e27 e63c d30a d73c 8d48 cb3c 7d55 173c
00000220: cc9d 883c 260e 21bc cd16 a33c 12aa ad3c
00000230: c856 aabb 7ffe abba f4ec adbb 5c14 aabb
00000240: 6607 a4bb 7c8f c3bb 2277 ddbb 9432 1439
00000250: 9826 14bc c3e7 14bc 07a9 5b3d c4d4 87bb
00000260: 469b 833d e9df 373d da11 6c3d b08d abbd
00000270: 33fc 8ebd a43a acba 94e2 e13c be97 433d
00000280: 98cb 4cbc c757 18bb eef8 54bc e67b 49bc
00000290: 6c4b 5cbc c4cd 51bc f3b0 59bc f3ec 06ba
000002a0: f7f8 89bc cae2 86bc 9028 023e fd15 dbbc
000002b0: efa1 e33d 4b2d 113e 9167 9d3d 9e14 04be
000002c0: 0a96 fdbd fef4 23bb f34f ef3d 4f4e e13d
000002d0: fc90 f9bb b030 24bb 8652 03bc fd84 fabb
000002e0: 2e14 0abc ab0b e6bb dfac febb 228e 82b9
000002f0: f64a 2ebc a9b3 2bbc dfc5 1abc 8768 82ba
00000300: bb6c 22bc 00f7 1abc 34b0 22bc fb97 cabb
00000310: e6af e2bb 4e9b 0839 7bad 5ebc fba3 5ebc
00000320: 5793 aa3d a804 443c 8339 b33d 6338 ac3d
00000330: e53f ae3d e6c0 113d 4bde 523d c831 94bc
00000340: ff71 af3d 9075 bc3d eac9 0dbc cfc9 ebbb
00000350: d0fd 07bc dcbd 0cbc 6c1c 06bc af83 39bc
00000360: bea9 42bc 4047 013a d1bd 20bc fd6b 21bc
00000370: cb18 3fbc cdd7 f3ba 655f 4bbc ab4e 3cbc
00000380: 23eb 56bc 95ff 14bc 6b2d 1bbc eae3 42b8
00000390: db46 8abc 9a08 88bc ce8f d2ba 1cd8 ffb9
000003a0: 1bb5 e3ba 3814 daba d081 e4ba d342 bfb9
000003b0: 7fec f0b9 37df 7338 aabe 75bb 714d 75bb
000003c0: b6ca 04bb 1c52 c4b9 9ad0 12bb 8de8 07bb
000003d0: 97ff 12bb fb90 66ba 9e3c 83ba a244 f038
000003e0: 41c5 7dbb 84d6 7cbb d338 893d 03f1 cdbb
000003f0: f7aa 833d 6e0c 7c3d af45 a63d ac9d 06bc
-0.006692076 0.0011350721 -0.007392612 -0.0064217257 -0.008300469 -0.0036371334 -0.0036140643 -0.0009311184
-0.014376384 -0.014326172 -0.009342436 -0.0053166044 -0.009611603 -0.009406694 -0.009339597 -0.013291882
-0.014167979 0.0014787937 -0.011388048 -0.011389879 0.025726872 0.0014995008 0.025471685 0.024007147
0.029129498 0.0043740035 0.006592045 -0.0018339044 0.023315292 0.026009241 0.1175357 -0.04510508
0.11433456 0.11045724 0.15202981 -0.034123864 -0.0061466424 -0.0064274506 0.25674498 0.27300587
-0.011429329 -0.00040397965 -0.012413776 -0.011618267 -0.012505248 -0.0073566046 -0.00718852 0.0012029647
-0.013125418 -0.012543433 0.059301108 0.0011678318 0.06021279 0.053355973 0.07245216 0.0040678396
0.0070259226 -0.002697115 0.062700875 0.068182714 -0.021584628 -0.008236269 -0.022253364 -0.021238636
-0.023539865 -0.010943649 -0.009472576 -0.0021610083 -0.02478091 -0.023547482 -0.0015705861 -0.0017274772
-0.0015283353 -0.0015719088 -0.0015890963 -0.00086605904 -0.0010869843 3.0091514e-05 -0.0029573876 -0.002947734
-0.0019746341 -0.00033359244 -0.002269333 -0.0019170862 -0.002369838 -0.00010649584 -0.00016010203 -6.526723e-06
-0.005850789 -0.005902729 -0.0018138022 -0.00068046094 -0.0020046553 -0.0018308401 -0.0020443448 -0.00037534803
-0.00046863692 2.1933127e-05 -0.0048000654 -0.00481571 -0.00695518 -0.002887689 -0.0071755014 -0.006701426
-0.007820218 -0.0069543105 -0.0071426695 -0.0005771478 -0.011448061 -0.011354494 -0.025394328 -0.007945455
-0.026651757 -0.024994673 -0.028166942 -0.015318454 -0.014424325 -0.0010802727 -0.030189998 -0.029586913
0.053731572 0.002666822 0.05393602 0.05028627 0.0587867 0.007609289 0.011373891 -0.004136053
0.05868547 0.06321557 0.022367883 -0.002796264 0.028094914 0.026250279 0.024814868 0.009236691
0.016676806 -0.009830033 0.019908333 0.02119926 -0.0051983334 -0.001312211 -0.005307788 -0.0051904153
-0.005005765 -0.0059680324 -0.0067585865 0.00014133222 -0.009042405 -0.009088459 0.053627994 -0.0041452367
0.064261004 0.04489127 0.057634212 -0.08376634 -0.06981697 -0.0013140035 0.027573861 0.047752135
-0.012499712 -0.0023245679 -0.012998803 -0.012297606 -0.013445716 -0.012805406 -0.013286817 -0.00051470025
-0.016842349 -0.016465563 0.12710786 -0.026743883 0.11114871 0.14177434 0.07685769 -0.1289849
-0.12382133 -0.0025017853 0.11685171 0.11001264 -0.0076161604 -0.0025053434 -0.008015281 -0.007645248
-0.008427663 -0.007020434 -0.0077720727 -0.0002490143 -0.010637989 -0.010479846 -0.00944659 -0.0009949364
-0.009913619 -0.009458303 -0.009929705 -0.0061826683 -0.0069179414 0.00013027826 -0.013591166 -0.013588901
0.08328884 0.011964001 0.08751204 0.084091924 0.08508281 0.035584353 0.051481526 -0.018090144
0.08566665 0.09202111 -0.008654097 -0.0071956883 -0.00830026 -0.008590188 -0.008185487 -0.0113229
-0.01188129 0.00049315766 -0.009810881 -0.009852407 -0.011663626 -0.0018603742 -0.012412881 -0.011493365
-0.013117584 -0.009094139 -0.009471278 -4.6465466e-05 -0.01687949 -0.016605664 -0.0016064586 -0.00048798404
-0.0017372699 -0.0016638106 -0.0017433707 -0.00036480147 -0.0004595257 5.81436e-05 -0.0037497678 -0.0037430192
-0.0020262427 -0.0003744521 -0.0022402168 -0.0020737976 -0.0022430175 -0.00087954075 -0.0010012572 0.00011456876
-0.0038722309 -0.003858001 0.067002915 -0.0062848344 0.06429093 0.06153529 0.0811876 -0.008216303

lstm.weight_hh_l0 f4 [256, 64]
00000000: 94f7 f3b8 b674 f6b8 78e4 eeb9 d49b 39ba
00000010: 2f82 f3b9 dcef 353a eb03 c3b9 ea03 a5b8
00000020: 94d8 e8b6 4433 f9b6 3ac2 fb37 c61d 4739
00000030: 0d4c 6d3a 362d b13a e11c 61b8 9542 0bbb
00000040: 5794 9cb9 133d 993a c9a9 cc39 0b05 3f38
00000050: ba5d 8c3a 09cd 81b8 7d6c 59b9 5e3f 3b38
00000060: 1b30 8438 0cc7 eeb9 66c5 683a fd86 ef37
00000070: 3643 1fba 6423 38ba 9221 e738 10fe 54ba
00000080: 811b c4b9 f1ba 1839 4827 6f36 eb0a 44b9
00000090: 22f9 a538 f66f 0739 bba6 4aba 4837 2238
000000a0: 9469 ac38 20be 2039 2a84 9d39 3541 97b8
000000b0: c807 a139 af9c 04b6 f3b4 6eba 7a2a ceb8
000000c0: f0e3 0339 84fa 4339 cc72 08b9 42a7 36b7
000000d0: 5479 b6b7 0486 09ba 7d92 b5b8 9190 36b9
000000e0: 8962 9c39 89e6 4139 ba71 303a 507e f938
000000f0: d8f7 cfb9 fdb6 0cb7 c845 0839 1670 f8b8
00000100: 7393 22ba f0b6 8b39 379a 1c39 0166 123b
00000110: e85f 3ab9 67d8 83ba 4482 e7b9 4893 7a39
00000120: 7edc 9db8 37d7 39b9 a273 903a dfa0 c239
00000130: 9107 23ba 935e b8b9 2c40 b2ba f4a2 d2bb
00000140: 8031 aab9 01c3 5c3b 3444 303a 28e6 69b9
00000150: 4ef1 5aba 5064 89ba 7134 8bba e6bb 8938
00000160: 1002 c536 f245 c639 7d4a b73a 2d20 96ba
00000170: 63a3 21b9 95b6 023a 3b4f b039 db4e 9e3a
00000180: 2066 03b8 60a1 dc39 d563 8bb8 1b82 023a
00000190: a444 933a dec8 9138 3a49 2f3a 4461 37b9
000001a0: ce4c 88ba 618f d2bb 6606 82ba f67e a939
000001b0: 2511 ab3a ce27 ddb8 91eb 76ba 0cfc b5b9
000001c0: eced e039 f44b e83a d27e 9e39 2a72 ce39
000001d0: 5ccd c0ba 0486 5a3a 41af 3db9 6e4b e739
000001e0: 576f ba3a fe4b 143a 0ede bfba cd91 9ab8
000001f0: fe93 42ba ab0f acb6 44b3 2bb9 f408 92ba
00000200: d08c 07b9 f921 8b3a a948 1f3a 64f0 11bb
00000210: ba9c 21b9 e04f 26b7 8065 943b 0706 b5ba
00000220: 0398 db39 66b2 5d3a 1e56 d7ba 0766 8ebb
00000230: fc17 7fba d40f b63a 4eae 323b 79b7 9f3c
00000240: 9a36 813a 4ab9 1bbc 3f9c 4dba 163e 04b9
00000250: ba1c 533a 0394 fa3a a709 c83a cc9a 75ba
00000260: dfbf 05ba 389c ab3a 1abd 843a 8cd3 fa3a
00000270: f1d4 a6b9 bdbf 8239 5d6d 03bb fd2b 883b
00000280: b768 0abb 4c77 ccb9 2553 9439 c73a c2ba
00000290: eeb6 a6ba d843 3cbb 047c 353a f518 c239
000002a0: d42a ba3a b242 b93b a1fc 8e3b 0fd1 9c3a
000002b0: 732b b4ba c4b1 b9b7 25e0 4cba 6458 e3b9
000002c0: 2d2a 1cbb fc7f 073b b9da 82b9 c891 f23a
000002d0: adea 8a3a 6579 e13b 5684 7dba 6cf1 eaba
000002e0: fc94 aeba 7413 12ba c7e4 3f39 e3dc 403a
000002f0: 5f18 a83a c284 2eb9 a035 16ba 4659 843a
00000300: 9dec 7f3b 6266 5e3c b40e abbc 0ff8 543d
00000310: 29c0 b9bb ef67 043d 13b8 913c b4dc 1cbc
00000320: be95 003b 3203 953b e1f5 39bc 2b45 43bc
00000330: 5eed c53c 763b b63c cbb7 633c 731a ca3d
00000340: 35cc c03b 0844 63bd 1497 08bc 6c81 1eba
00000350: e3a5 083d 2018 8b3c 52fe ea3b 8009 e1bb
00000360: 8e03 c8bb df63 edbc a5a8 00bc 4123 713c
00000370: 09ed aebb 54a2 c8bc ae68 40bc 3236 ad3c
00000380: 0061 213d ee2c d2bb 8613 023b c27c a0bb
00000390: e593 babb e09e 3ebc de63 e5bc 4b51 973b
000003a0: aa8c 773c 7729 c0bc 9258 7f3c b755 033c
000003b0: 45b2 eebb e4e2 07bb 4608 e33b 07e0 593b
000003c0: 366d 05bc 5d5e 77bb ccec 8939 70c3 3f3c
000003d0: bf73 383c f565 3f3d a5fc 7cbb 3327 2bbc
000003e0: 2a64 27bc 61e5 fbbb 5253 e63c 6c50 f83b
000003f0: 899d d53b f346 5bba cc48 1fbc a218 313c
-0.00011633258 -0.00011751933 -0.0004556512 -0.000708041 -0.00046445566 0.0006940344 -0.00037196217 -7.868542e-05
-6.939352e-06 -7.4267464e-06 3.0011975e-05 0.0001898921 0.0009052165 0.0013517502 -5.3671076e-05 -0.0021249403
-0.0002986516 0.0011691175 0.00039036412 4.5542645e-05 0.0010709085 -6.18939e-05 -0.00020735148 4.464329e-05
6.303211e-05 -0.000455432 0.00088795123 2.8553879e-05 -0.0006075384 -0.00070243166 0.00011021191 -0.00081250165
-0.00037404525 0.0001456549 3.563664e-06 -0.00018696084 7.914218e-05 0.00012916312 -0.0007730533 3.8675294e-05
8.2212646e-05 0.00015329616 0.00030043843 -7.212387e-05 0.0003071411 -1.9760735e-06 -0.0009105943 -9.830757e-05
0.00012578047 0.00018689974 -0.00013012736 -1.0886988e-05 -2.1752589e-05 -0.0005246105 -8.658038e-05 -0.00017410728
0.00029828053 0.00018491795 0.0006730814 0.00011896773 -0.00039666775 -8.387256e-06 0.00012995966 -0.00011846439
-0.0006201781 0.00026648445 0.00014934769 0.002233863 -0.0001777407 -0.0010059 -0.0004415681 0.00023896724
-7.527413e-05 -0.00017723149 0.0011020789 0.00037122422 -0.0006219084 -0.00035165678 -0.0013599447 -0.006428117
-0.00032461807 0.0033685567 0.000672403 -0.00022306351 -0.0008351997 -0.0010482166 -0.0010620487 6.567668e-05
5.8712976e-06 0.00037817616 0.0013983991 -0.0011453681 -0.00015415023 0.0004986313 0.00033628367 0.0012077944
-3.1327945e-05 0.00042081904 -6.646632e-05 0.00049784937 0.0011235666 6.951553e-05 0.0006686632 -0.00017488474
-0.0010398866 -0.0064257835 -0.000992012 0.00032328785 0.0013051374 -0.000105455154 -0.00094192574 -0.000347108
0.00042901875 0.0017722831 0.00030230597 0.0003937644 -0.0014709639 0.000833601 -0.00018089732 0.00044115953
0.0014223856 0.00056570757 -0.0014638321 -7.37045e-05 -0.0007422565 -5.1278234e-06 -0.00016374612 -0.0011141584
-0.0001292706 0.0010614983 0.0006076196 -0.0022268528 -0.00015412542 -9.912968e-06 0.0045287013 -0.0013811
0.00041884193 0.00084570644 -0.0016428863 -0.0043456587 -0.0009731052 0.0013890215 0.0027264538 0.019496666
0.0009858191 -0.009504626 -0.0007843412 -0.0001261163 0.0008053292 0.0019117597 0.0015261666 -0.0009369075
-0.00051021384 0.0013092821 0.0010127157 0.0019136532 -0.0003182064 0.00024938388 -0.00200542 0.0041556344
-0.0021119544 -0.00038998795 0.00028290707 -0.0014818542 -0.0012719312 -0.0028726961 0.0006923082 0.00037021158
0.0014203438 0.0056537027 0.004363612 0.001196416 -0.0013745859 -2.2136497e-05 -0.00078153826 -0.0004336267
-0.002382885 0.002067565 -0.00024958493 0.0018506581 0.0010598503 0.0068809264 -0.00096709037 -0.0017924733
-0.0013319547 -0.0005572357 0.00018300406 0.00073571334 0.0012824646 -0.00016643389 -0.00057300366 0.0010097406
0.0039050945 0.013574215 -0.020881034 0.05199438 -0.005668659 0.03232568 0.017787969 -0.009574104
0.0019620503 0.0045475 -0.011350126 -0.011918346 0.024161037 0.02224515 0.0138988 0.09868326
0.0058837184 -0.0554848 -0.008336801 -0.0006046507 0.033361327 0.016979277 0.0071714306 -0.0068675876
-0.0061039394 -0.028978286 -0.007852708 0.014717878 -0.0053383154 -0.024491467 -0.011743708 0.021144006
0.039399147 -0.0064140474 0.0019848063 -0.004897685 -0.0056939 -0.011634558 -0.028001722 0.004617845
0.0151092205 -0.023457272 0.015585082 0.0080160415 -0.007284435 -0.0020734603 0.0069284765 0.0033245103
-0.008143714 -0.0037745454 0.00026307104 0.011704311 0.011258065 0.046728093 -0.0038602736 -0.010446358
-0.010216752 -0.007687256 0.028115902 0.0075779464 0.006519024 -0.0008364759 -0.009721946 0.010809096

lstm.bias_ih_l0 f4 [256]
00000000: bffa 85bc b414 89bc e586 e13c abf1 be3d
00000010: c900 8ebc 4b15 573d b30e e7bc b6b0 8bbb
00000020: b1a3 0bbc 1bff ddbb 0581 7ebc 9717 17bd
00000030: 9bbe 803d a741 863d 0728 27bc fef2 d73e
00000040: bfdc c5bc be77 5a3e 3515 7bbc a55e 80bc
00000050: 34e8 093e 4ac8 6cbc c729 b6bc 47e4 a4bb
00000060: 5913 afbb 7713 643d eff7 743b cb13 1ebc
00000070: cb02 5fbc 60eb 383d 7ef7 6dbb 5598 033e
00000080: 0fb2 af3d f006 30bc 4ed4 8eba 1b23 4abb
00000090: d5ea 81bc d42c 87bc 8f73 7e3d 7e20 13bb
000000a0: ca91 7cbc 4175 293e 3083 1bbb 259c aabc
000000b0: 8cfb b0bc 1ed2 c3b9 51b9 a93b e7ff abbb
000000c0: e775 3fbb 84cd 033d 0383 1bba b17c 09bd
000000d0: 3950 aabc 205c 143e c8f4 c7ba 7f8b b4bc
000000e0: bb07 9dbc 6a0e 84bc 039d 0d3e 935c f1bb
000000f0: 938b c3bc 5ecf 87b9 c2db e6bb 147d 68bc
00000100: 0e1d 07bc cd4f 70bc 4715 9b3b 9255 703d
00000110: b0e0 55bc bb41 5c3c 37a8 a4bc a95c f7ba
00000120: c34b 2abb 9ccc 1dbb c5c6 1fbc 868e d2bc
00000130: 9beb a53c 8275 ed3c 29ed 12bc d8cd ba3e
00000140: fdf7 8fbc dadb 653e e695 27bc db7c 3bbc
00000150: 5c09 4a3d 5908 5bbc 2c63 62bc 788c 0dbb
00000160: 3250 44bb 1a72 1b3c f87e 46ba 72bf 08bc
00000170: d9b3 1cbc 36f8 1a3c e109 0dbb abb9 bc3d
00000180: 337b 373d cc93 00bc cb44 e9b9 7980 35bb
00000190: 1edc 30bc cfea 3bbc fa1d 153c dd54 c7ba
000001a0: d829 58bc fa8e 323e 2789 25bb 051f 79bc
000001b0: 5d1f 7abc 4ad3 99b9 0d1a 0a3b c181 7cbb
000001c0: 55a3 eeba 99f9 8a3c 74c5 bbb9 99c7 e0bc
000001d0: 7e61 9fbc f493 f63d cab2 bbba dedf 82bc
000001e0: d44d 7dbc 70ef 2abc fa68 cdbb 4faa 9ebb
000001f0: e839 8abc e1a2 23b9 ed8f a5bb 7425 46bc
00000200: f985 07bc 5471 acbb 1c10 b73d 733d 41be
00000210: 1547 e6bb 17ed 1fbe bf0f a23b a979 113b
00000220: 8038 b4bb 7afb 77bb 32f3 023c d4a2 40bb
00000230: 2f22 89bd f8fb 8f3d e353 b7bb ffa2 a2bd
00000240: 9e22 09bc 30b0 773d 3920 483c 1b3b 00bb
00000250: 64b2 47bd f84e f3bb df1a dbbb 103e d83a
00000260: 0e5c f8ba 4fd2 773d 093f 103e 40bf 6fbb
00000270: a669 78bb a2a5 133d cbf6 673b 0642 0f3b
00000280: 1038 66be 8b1b 8cb9 6d7d 8c3b b0ad 03bc
00000290: 8601 e63b e576 09bb dcdd 893d d055 04bb
000002a0: ed9c 14bb 9a13 ba3d 622d 2f3b 0292 85bb
000002b0: ad92 c43b 5990 113b 5e90 77bd c7c6 07bc
000002c0: 1054 df3b ab8a 9e3d d3ba b4bc db18 b3bb
000002d0: 2fed 0fbc 65b6 a2bc a0fd 9dbc d21f 153c
000002e0: 6120 043c 861f d13b cfb6 19be 825b 60ba
000002f0: fd30 c5bb 1d14 963b 3781 6dba 3edf 09bc
00000300: 5286 87bc 886f 89bc e7c0 f13c 6525 043e
00000310: 66d6 8ebc 7cf2 723d da36 eabc 3a05 8dbb
00000320: 02be 0dbc 9144 e1bb ca65 80bc 9bd7 18bd
00000330: 0ced 8d3d 6782 8d3d b140 27bc c3a7 9d3e
00000340: 34e0 c6bc 5292 163e 017f 7cbc add4 80bc
00000350: de6a 173e f909 6dbc d26f b7bc d231 a7bb
00000360: 0520 b1bb 7b80 853d 9558 7d3b aefa 1dbc
00000370: 4a4a 60bc 5eda 493d 940b 6fbb 6651 053e
00000380: fcba c43d 467a 30bc 0f0c 8fba 692a 4abb
00000390: 718e 82bc d783 89bc 1aed 8d3d e7c4 13bb
000003a0: 35ea 7cbc e3e8 303e 85ca 1bbb 2a26 abbc
000003b0: 908f b1bc 1703 c4b9 3a48 ac3b 9a90 acbb
000003c0: b901 41bb d250 083d 8219 1dba 9dff 09bd
000003d0: 94d3 aabc 916a 093e 45c9 c7ba df22 b7bc
000003e0: da47 9dbc 8004 85bc 6842 223e d3cf f2bb
000003f0: 56c6 c4bc 05d9 88b9 576c e7bb 06c5 68bc
-0.016354917 -0.016733505 0.027530143 0.09323438 -0.017334359 0.05251054 -0.028205251 -0.004263009
-0.008522914 -0.0067747957 -0.01553369 -0.03688773 0.06286355 0.06555491 -0.010202414 0.42177576
-0.024153112 0.2133474 -0.01532488 -0.01567013 0.13467485 -0.0144520495 -0.022236718 -0.0050320956
-0.0053428826 0.055682626 0.0037379225 -0.009648274 -0.013611506 0.045146346 -0.0036310847 0.12851079
0.08578884 -0.0107438415 -0.0010897012 -0.0030843678 -0.015859047 -0.016500868 0.062121924 -0.0022449787
-0.015415618 0.16548635 -0.0023729317 -0.020826409 -0.021604322 -0.00037349848 0.005179562 -0.005249012
-0.0029214562 0.032178417 -0.0005932303 -0.03356618 -0.020790206 0.14488268 -0.0015255446 -0.022039173
-0.019168725 -0.016120154 0.13829426 -0.007365772 -0.023870265 -0.00025903707 -0.00704524 -0.014189977
-0.008246673 -0.0146674635 0.004732761 0.058675356 -0.013054058 0.013443406 -0.020099742 -0.0018872219
-0.00259851 -0.0024078256 -0.00975198 -0.025702726 0.020253947 0.028986696 -0.008967676 0.3648517
-0.017574305 0.22447148 -0.01022861 -0.011443342 0.049325332 -0.013368689 -0.01381759 -0.0021598618
-0.0029955027 0.009487653 -0.00075720204 -0.008346425 -0.009564363 0.009458592 -0.002152078 0.09215101
0.044795226 -0.0078477375 -0.00044492478 -0.0027694984 -0.0107946675 -0.011469557 0.009101385 -0.0015207786
-0.01319357 0.17437354 -0.002525875 -0.01520515 -0.015266267 -0.00029339857 0.0021072656 -0.0038529488
-0.0018206636 0.01696472 -0.00035814533 -0.027438926 -0.019455668 0.120399386 -0.0014320251 -0.015975889
-0.01546045 -0.010433063 -0.0062686177 -0.0048420797 -0.016873315 -0.00015605568 -0.0050525577 -0.01209389
-0.008271688 -0.005262533 0.089386195 -0.18871097 -0.0070275166 -0.15617786 0.0049457247 0.002219776
-0.0054998994 -0.00378391 0.007992553 -0.0029393928 -0.06695973 0.07030481 -0.005594717 -0.07941245
-0.00837007 0.06047076 0.012214714 -0.001956648 -0.04875411 -0.0074251853 -0.006686553 0.0016497988
-0.0018948333 0.0605033 0.14086546 -0.00365825 -0.0037904768 0.03604663 0.0035394903 0.0021859421
-0.22482324 -0.00026723402 0.004287413 -0.008037016 0.0070192246 -0.0020975408 0.067317694 -0.002019275
-0.0022676543 0.0908577 0.002672993 -0.0040762434 0.0059989304 0.0022211282 -0.060440414 -0.008287138
0.006815441 0.077412926 -0.022061741 -0.0054656095 -0.008784576 -0.019862363 -0.019285977 0.009101825
0.00806436 0.0063819317 -0.15011142 -0.00085585576 -0.0060178027 0.0045800344 -0.0009060087 -0.0084150415
-0.016543541 -0.016776815 0.029510928 0.1290489 -0.017436218 0.059313282 -0.028590608 -0.0043036016
-0.008651258 -0.006874629 -0.015673537 -0.037314992 0.06929979 0.06909638 -0.010208295 0.30792055
-0.02427683 0.14704254 -0.0154111395 -0.015726412 0.1478686 -0.01446771 -0.022392187 -0.0051023746
-0.0054054284 0.06518646 0.0038657535 -0.009642286 -0.013689587 0.049280517 -0.0036475407 0.13019332
0.09605977 -0.01077134 -0.0010913628 -0.0030848032 -0.015937062 -0.016786499 0.06929989 -0.0022547783
-0.015436699 0.17276339 -0.0023771834 -0.020892221 -0.021674901 -0.00037386335 0.0052576335 -0.0052662613
-0.002945049 0.0332802 -0.00059928757 -0.033691037 -0.020852841 0.13419558 -0.0015242478 -0.022355495
-0.0191993 -0.016237497 0.15845644 -0.0074100285 -0.024020355 -0.00026101634 -0.0070624757 -0.01420713

lstm.bias_hh_l0 f4 [256]
00000000: cafa 85bc b014 89bc 7789 e13c 63b9 bc3d
00000010: c500 8ebc 5079 573d b50e e7bc 9cb0 8bbb
00000020: b1a3 0bbc 15ff ddbb ff80 7ebc 8b17 17bd
00000030: a2c9 803d 0642 863d 0a28 27bc f14b d83e
00000040: b1dc c5bc 1913 5e3e 2f15 7bbc a05e 80bc
00000050: 34e8 093e 32c8 6cbc cb29 b6bc 42e4 a4bb
00000060: 5713 afbb 096a 653d 3f76 743b c613 1ebc
00000070: ca02 5fbc 8aeb 383d 85f7 6dbb 59ab 033e
00000080: 8339 a33d ee06 30bc 48d5 8eba 1d23 4abb
00000090: d5ea 81bc cb2c 87bc a7a5 7e3d 8020 13bb
000000a0: ac91 7cbc b24a 1f3e 2f83 1bbb 7c9b aabc
000000b0: 8cfb b0bc 17d2 c3b9 79c8 a93b e2ff abbb
000000c0: e375 3fbb 83cd 033d 0383 1bba c47c 09bd
000000d0: 2e50 aabc 0b46 143e 64f5 c7ba 818b b4bc
000000e0: a707 9dbc 690e 84bc cd51 0d3e 215d f1bb
000000f0: 948b c3bc 58cf 87b9 a4db e6bb a77c 68bc
00000100: fb1c 07bc aa51 70bc 2b04 9b3b f5d8 843d
00000110: b1e0 55bc 6abd 5b3c 35a8 a4bc 9e5c f7ba
00000120: b64b 2abb b6cc 1dbb ccc6 1fbc 7d8e d2bc
00000130: caa5 a53c cc75 ed3c 2ded 12bc fd75 ba3e
00000140: fff7 8fbc 956f 663e ed95 27bc e27c 3bbc
00000150: 8409 4a3d 8c09 5bbc 5463 62bc 7c8c 0dbb
00000160: 3e50 44bb 2a55 103c 0c5c 46ba 69bf 08bc
00000170: ceb3 1cbc 00f3 1a3c 030a 0dbb 99a4 bc3d
00000180: c5eb 393d ce93 00bc 7048 e9b9 7c80 35bb
00000190: 29dc 30bc cfea 3bbc ed89 143c f054 c7ba
000001a0: c529 58bc 4574 233e 2989 25bb 061f 79bc
000001b0: 5d1f 7abc 49d3 99b9 6616 0a3b c681 7cbb
000001c0: 65a3 eeba 99f9 8a3c 84c5 bbb9 c7c7 e0bc
000001d0: 8461 9fbc 089d f63d cbb2 bbba d8df 82bc
000001e0: d64d 7dbc 5bef 2abc cb72 26bb d5a9 9ebb
000001f0: e739 8abc c6a2 23b9 c98f a5bb 9c25 46bc
00000200: 3c54 07bc 1c92 d0bb 5720 a93d da36 5fbe
00000210: 87fb e7bb 5eef 9ebd ee98 9d3b 1d75 113b
00000220: b40b aebb f175 78bb 72d9 023c 94e7 3fbb
00000230: 796c cabd 9e95 8e3d f491 b7bb d1e0 f73c
00000240: 75d3 0ebc 2aa5 d0bc d526 423c b1f7 12bb
00000250: 1bf4 c33c 0a03 f3bb 27c2 e1bb 4165 d13a
00000260: aeab f9ba 25d5 363e c217 5f3d 1204 6ebb
00000270: 2389 77bb cdc4 043e c79f 673b 41ad 68bd
00000280: 4164 10be 7b43 8cb9 3341 69bc ad36 57bd
00000290: ccf5 983b a41f 09bb 1d60 2d3e 7bdc 893b
000002a0: a0f2 fdba 3bbd 3d3e 1570 2e3b b375 1bbc
000002b0: 384b 8e3b d346 ae3a c093 e7bd 3937 08bc
000002c0: 8953 df3b b156 313d 6161 59bc 122c d8bb
000002d0: e4b4 1dbc dce9 7dbd 9987 46bc 382d 153c
000002e0: 3705 043c b55e e93b 9bf0 eebd abf8 e1ba
000002f0: 6d46 c5bb ef43 4b3a 48da 0db9 3d0b 0cbc
00000300: 4e86 87bc a36f 89bc 0ab9 f13c 1d05 033e
00000310: 68d6 8ebc 4b07 733d d236 eabc 4205 8dbb
00000320: fdbd 0dbc 8644 e1bb cf65 80bc 8ed7 18bd
00000330: 00da 8d3d d383 8d3d 9e40 27bc 55f1 9c3e
00000340: 23e0 c6bc 78b1 1d3e fb7e 7cbc aed4 80bc
00000350: da6a 173e e809 6dbc c96f b7bc d031 a7bb
00000360: f51f b1bb 8fbf 833d 87e1 7c3b bcfa 1dbc
00000370: 404a 60bc b7da 493d 980b 6fbb 3a38 053e
00000380: cff2 a93d 487a 30bc 2f0d 8fba 752a 4abb
00000390: 708e 82bc d883 89bc ae06 8e3d e7c4 13bb
000003a0: 31ea 7cbc 82ec 3b3e 89ca 1bbb e226 abbc
000003b0: 8d8f b1bc 1203 c4b9 3e0a ac3b 9b90 acbb
000003c0: cd01 41bb ce50 083d 8319 1dba c0ff 09bd
000003d0: 94d3 aabc 735d 093e b0c8 c7ba df22 b7bc
000003e0: e947 9dbc 8304 85bc 00d0 213e f2cf f2bb
000003f0: 56c6 c4bc 04d9 88b9 556c e7bb 57c5 68bc
-0.016354937 -0.016733497 0.027531369 0.09215047 -0.017334351 0.052605927 -0.028205255 -0.004262997
-0.008522914 -0.006774793 -0.015533685 -0.036887687 0.062884584 0.06555562 -0.010202417 0.4224544
-0.024153085 0.21686973 -0.015324875 -0.01567012 0.13467485 -0.014452027 -0.022236725 -0.0050320933
-0.0053428817 0.056009326 0.0037301925 -0.009648269 -0.013611505 0.045146503 -0.0036310863 0.12858333
0.07969954 -0.01074384 -0.0010897303 -0.0030843683 -0.015859047 -0.016500851 0.062169697 -0.0022449791
-0.01541559 0.15555838 -0.0023729315 -0.020826094 -0.021604322 -0.00037349827 0.005181369 -0.0052490095
-0.0029214553 0.032178413 -0.0005932303 -0.03356625 -0.020790186 0.14479844 -0.0015255627 -0.022039177
-0.019168688 -0.016120153 0.13800736 -0.007365838 -0.023870267 -0.0002590369 -0.007045226 -0.014189876
-0.008246656 -0.014667908 0.0047307215 0.06486694 -0.013054059 0.013411859 -0.020099739 -0.0018872207
-0.0025985069 -0.0024078316 -0.009751987 -0.02570271 0.020220656 0.028986834 -0.00896768 0.36418143
-0.017574308 0.22503503 -0.010228616 -0.011443349 0.04932548 -0.013368975 -0.013817627 -0.0021598628
-0.0029955055 0.008809367 -0.00075668166 -0.008346417 -0.009564353 0.00945735 -0.002152086 0.09211082
0.045390863 -0.007847739 -0.00044495193 -0.002769499 -0.010794678 -0.011469557 0.009066087 -0.0015207808
-0.013193552 0.15962322 -0.0025258756 -0.0152051505 -0.015266267 -0.00029339854 0.002107048 -0.00385295
-0.0018206654 0.01696472 -0.0003581458 -0.027439011 -0.019455679 0.1204167 -0.0014320252 -0.015975878
-0.015460452 -0.010433043 -0.0025398012 -0.004842023 -0.016873313 -0.00015605529 -0.005052541 -0.012093928
-0.008259829 -0.006365074 0.082581215 -0.21798268 -0.007079545 -0.077604994 0.0048094904 0.002219505
-0.0053114537 -0.0037912095 0.007986413 -0.0029282318 -0.09883971 0.06962131 -0.0056021158 0.030258568
-0.0087174075 -0.025469381 0.011850079 -0.0022425468 0.02392011 -0.007416134 -0.0068896 0.0015975611
-0.0019048357 0.17854746 0.054466017 -0.0036318344 -0.003777095 0.12965699 0.0035343037 -0.056805853
-0.14100744 -0.00026753158 -0.014236736 -0.052542377 0.004667973 -0.00209234 0.16931196 0.0042071915
-0.0019374676 0.18529217 0.00266171 -0.009488511 0.004342463 0.0013296254 -0.11307478 -0.008313947
0.006815378 0.043295566 -0.013267846 -0.0065970505 -0.009625647 -0.061990604 -0.01211729 0.009105019
0.008057884 0.0071218857 -0.116669856 -0.0017240247 -0.0060203583 0.00077539583 -0.00013528124 -0.008547601
-0.016543534 -0.016776865 0.029507179 0.1279492 -0.017436221 0.059333127 -0.028590593 -0.0043036053
-0.008651254 -0.0068746237 -0.015673546 -0.037314944 0.06926346 0.06909909 -0.010208277 0.30652872
-0.024276799 0.1539973 -0.015411134 -0.015726414 0.14786854 -0.014467694 -0.02239217 -0.0051023737
-0.005405421 0.06433021 0.0038586573 -0.009642299 -0.013689578 0.04928085 -0.0036475416 0.1300973
0.08298265 -0.010771342 -0.0010913963 -0.003084806 -0.01593706 -0.0167865 0.06934868 -0.0022547783
-0.015436695 0.1835194 -0.0023771843 -0.020892564 -0.021674896 -0.0003738632 0.0052502444 -0.0052662618
-0.0029450536 0.033280186 -0.0005992876 -0.033691168 -0.020852841 0.13414554 -0.0015242305 -0.022355495
-0.019199328 -0.016237503 0.15802002 -0.007410043 -0.024020355 -0.0002610163 -0.0070624747 -0.014207206

lstm.weight_ih_l1 f4 [256, 64]
00000000: 417a fcb9 1b67 57bb ae91 8cba 0ca8 f33a
00000010: e8a2 19ba f6b7 d33b 0315 64ba 6e15 81b9
00000020: 24d9 fcb9 679b feba 0e7d a03a d67c ddb9
00000030: 6467 893b 90e3 533a 12f9 a8b9 1918 8f3c
00000040: b5d8 2cbb 4df8 a1bb 9fc9 0d3b 4671 c23a
00000050: 91cf 5a3b 52c5 60bb 3e2a 99ba ea55 cc39
00000060: 2473 af3a 7029 93bb 3482 72ba 483f ceba
00000070: a37a 153b acf9 5839 c737 a139 f0d3 91b7
00000080: d439 eeba 4abf 9b3a a860 1b3a 9681 4c3a
00000090: ea03 163b a730 153b 10f8 fc3a 24a2 0ab9
000000a0: 554d 2bbb 9688 a23b 16e9 f4b9 f49d 84bb
000000b0: bec8 823b a650 c3b9 20a4 993a 834c 3bbb
000000c0: e713 9339 2988 223a 57d5 373a 023e 57bb
000000d0: 046a 9bbb cb76 bf3b c7b8 4b3a 9f2a 0d3b
000000e0: 5cb2 d93a 0c4a 6e3b 2cc5 e43a 27ed ddba
000000f0: 0060 2cbb 075a 6b38 1806 b53a 084c 36bb
00000100: aa29 dab9 eb30 62bb d418 a1ba e8a7 063b
00000110: 1ae6 c1b9 0e1a ec3b 9231 89ba 1ec9 f0b8
00000120: e331 0fba 6579 0dbb a820 c83a 6c75 0dba
00000130: cb0e 9f3b 5c85 bc3a f4e5 94ba f3dd 963c
00000140: aa6a 38bb fe27 b6bb 67ce 113b 521e bd3a
00000150: 7efb 953b 60ff 79bb 782c 8cba 3403 103a
00000160: 26f7 c73a e7c0 9cbb 8de6 77ba f88b d0ba
00000170: 7158 283b 357c 55b9 81fb e539 5637 06ba
00000180: b8e9 faba 2b85 a03a 5b1c 4b3a 084f 773a
00000190: ea80 3c3b cb8a 633b 7bbd be3a 7c70 e7b8
000001a0: 0ff9 3dbb 8c73 ab3b 52df 9dba 7ce9 a0bb
000001b0: a1c8 933b 588f b6b9 77fe a73a 00c6 5abb
000001c0: c3e8 8d39 5382 063a 85f6 4f3a 23b6 67bb
000001d0: 31a6 b9bb 79fd c13b f63a 733a 4727 593b
000001e0: 1b6a 053b b66d 913b af8f 263b 2f5c 07bb
000001f0: 3646 2ebb 8667 8938 0a39 b83a 1a68 4bbb
00000200: c043 8939 72b7 88b9 0857 6eba b853 5238
00000210: 58af bbb7 0690 b13a fe7d 6039 0263 a0b9
00000220: 7918 e8b6 77ea 7038 0962 3339 33ce 22ba
00000230: cb31 973a 28dc 00b9 0a76 8036 4da3 813b
00000240: 2045 a9b9 d8e3 fdba 3245 8939 bc3e 4e39
00000250: 5641 3db9 4da1 1b39 8a8b 48b8 7c5e 41b9
00000260: 3b34 36b9 dce3 83ba 9bf6 edb9 93e3 9d39
00000270: 761e 0bb8 f0f7 5736 0ea0 b0b9 c472 41ba
00000280: 24d5 e1b9 7b9f 18b9 c21d cd38 206d 6fb9
00000290: 6a2e 243a 98b2 213a 6c9c 5338 d967 0439
000002a0: 52e1 bb38 4cb8 a03a 7af4 3639 a260 07ba
000002b0: c271 bf39 ec89 9737 5ed8 d139 cbf7 4db9
000002c0: ea67 35b9 ae7f b539 a7cd c8b8 069d 29ba
000002d0: a66a 11b9 842d af3a 5e98 d7b8 7c85 123a
000002e0: 052a b939 d926 ed39 dea7 0ab9 8866 de38
000002f0: 2f05 6eb8 dec5 b037 78f1 2737 3808 d3b9
00000300: b06d 1433 1d12 54b5 aaba 83b4 328e b935
00000310: e2d5 bab4 80e1 67b3 29ff 8c35 7d31 80b4
00000320: 73e4 4934 2a97 aab3 8cf5 e7b4 4a57 c7b5
00000330: 0082 8a34 fd9a 5d35 a09e 4434 af31 a0b6
00000340: 4bed a5b4 181d aeb3 4b21 cfb4 43ea 37b5
00000350: b37f 20b5 37d5 21b5 cf5e a734 8caf 26b2
00000360: c8bf 0bb4 183a db34 9c44 ce34 fa82 09b4
00000370: 4e72 7e34 fcd7 3f35 c605 dab4 17a5 0735
00000380: 98df c635 0419 7a34 4a34 4c33 ba99 5cb4
00000390: 1e74 68b5 88dd c034 04ca 2d35 680b 9333
000003a0: 803a 8cb5 abcd 59b6 89dc 7a34 b123 8835
000003b0: c0b2 0835 0837 a7b4 c9a6 28b5 82e8 2235
000003c0: df02 ccb4 c52f 69b6 c766 1e34 0fea cfb5
000003d0: db10 40b5 c64a d3b4 74c0 17b3 e585 0834
000003e0: 3968 b6b5 ac9c 5fb5 7587 4e35 8237 9334
000003f0: f22c 0035 7ceb ce32 bc08 3233 cb6a e234
-0.00048156272 -0.0032867852 -0.0010724568 0.0018589511 -0.0005860762 0.006461139 -0.0008700641 -0.00024620764
-0.00048226968 -0.0019424976 0.00122443 -0.00042245415 0.0041932333 0.00080829207 -0.0003222903 0.017467545
-0.0026374285 -0.00494293 0.0021635068 0.0014834784 0.003338788 -0.00342973 -0.0011685563 0.00038973923
0.0013385755 -0.0044910237 -0.0009250969 -0.0015735412 0.0022808693 0.00020692375 0.0003074987 -1.7384038e-05
-0.0018175193 0.001188257 0.00059271837 0.0007801292 0.0022890517 0.0022764595 0.0019300003 -0.00013221108
-0.0026138623 0.00496013 -0.0004671297 -0.00404715 0.0039912155 -0.00037253386 0.0011721887 -0.002857954
0.00028052853 0.0006200099 0.0007012686 -0.0032843356 -0.0047428627 0.0058430186 0.00077713694 0.0021540297
0.0016608941 0.0036360053 0.0017453781 -0.0016931639 -0.0026302338 5.611221e-05 0.001381102 -0.0027816314
-0.00041611242 -0.003451402 -0.0012290725 0.0020546857 -0.00036983268 0.0072052544 -0.0010467044 -0.00011481553
-0.0005462451 -0.002158725 0.0015268521 -0.00053962204 0.0048540584 0.0014383006 -0.0011360035 0.01841638
-0.0028139749 -0.0055589667 0.002224827 0.0014428592 0.0045770993 -0.00381466 -0.0010694405 0.00054936414
0.0015256151 -0.004783738 -0.0009456657 -0.0015910855 0.002568748 -0.00020359534 0.0004386567 -0.000511994
-0.001914314 0.0012246718 0.0007748061 0.0009434079 0.0028763362 0.0034720178 0.0014552319 -0.0001103589
-0.0028987562 0.00523228 -0.0012044704 -0.004910646 0.004510001 -0.00034820545 0.0012816925 -0.0033382177
0.00027067037 0.0005131114 0.00079331576 -0.0035356365 -0.0056655635 0.005920109 0.00092785 0.0033134983
0.0020357433 0.0044381274 0.0025415232 -0.002065431 -0.0026592142 6.551952e-05 0.0014055085 -0.003103739
0.00026181154 -0.0002607662 -0.0009091948 5.014587e-05 -2.2373788e-05 0.0013546951 0.0002140924 -0.00030591345
-6.916988e-06 5.743882e-05 0.00017107291 -0.00062105356 0.0011535225 -0.00012289046 3.828439e-06 0.0039562345
-0.00032285694 -0.0019370271 0.0002618223 0.00019669061 -0.00018048784 0.00014842041 -4.781367e-05 -0.00018441112
-0.0001737633 -0.0010062414 -0.00045387898 0.0003011493 -3.316855e-05 3.2181815e-06 -0.00033688586 -0.0007379467
-0.00043074146 -0.0001455526 9.7807046e-05 -0.00022833468 0.000626302 0.0006168275 5.0452e-05 0.00012627187
8.958824e-05 0.0012261956 0.00017447947 -0.0005164241 0.00036515115 1.8064828e-05 0.00040024793 -0.00019642634
-0.00017300216 0.0003461814 -9.575049e-05 -0.00064702367 -0.00013868007 0.0013365005 -0.000102803795 0.0005589349
0.00035317257 0.00045233106 -0.00013223241 0.00010604883 -5.674845e-05 2.1072974e-05 1.0010197e-05 -0.0004025118
3.4558695e-08 -7.900251e-07 -2.4536467e-07 1.3824958e-06 -3.480082e-07 -5.398897e-08 1.0505074e-06 -2.3877865e-07
1.8802693e-07 -7.9437385e-08 -4.3205762e-07 -1.485206e-06 2.579909e-07 8.2554453e-07 1.831163e-07 -4.7741555e-06
-3.0906298e-07 -8.1077985e-08 -3.8580978e-07 -6.851371e-07 -5.979047e-07 -6.028744e-07 3.1175156e-07 -9.7023864e-09
-1.3015153e-07 4.0834198e-07 3.842041e-07 -1.2806768e-07 2.3697177e-07 7.1467343e-07 -4.0609865e-07 5.0531656e-07
1.4817224e-06 2.3292165e-07 4.7545008e-08 -2.0545022e-07 -8.659571e-07 3.5923972e-07 6.4741494e-07 6.847296e-08
-1.0447839e-06 -3.2455234e-06 2.3363295e-07 1.0143177e-06 5.0924064e-07 -3.1146214e-07 -6.282758e-07 6.0688046e-07
-3.800005e-07 -3.474751e-06 1.4752287e-07 -1.5490822e-06 -7.15501e-07 -3.9356217e-07 -3.5332462e-08 1.2714698e-07
-1.359039e-06 -8.330196e-07 7.6938096e-07 2.742127e-07 4.774912e-07 2.4088642e-08 4.14518e-08 4.2173482e-07

lstm.weight_hh_l1 f4 [256, 64]
00000000: 5c49 ebba a043 d7ba 39c0 abba 7681 ac38
00000010: b0b7 83ba b216 d33a 6cc1 4539 7321 233a
00000020: a024 c43a a39c 0939 e71a 7e39 d7a2 553b
00000030: d69e cd3a 227b af3a db31 b339 c287 98ba
00000040: ad6d f63a b38e 093b d06e cbba a2ff e33a
00000050: 6f51 eeba f6a3 d63a fd53 20ba 3b53 2cb8
00000060: 6828 daba 239f fc3a 88d3 f1ba 6095 b1b9
00000070: 8599 5cba e0d8 f4ba ecde fcba 9dc2 75b9
00000080: 3852 dd3a 9095 ef3a f9d0 03b6 d6ea ea39
00000090: 0aa3 98b9 34b4 ba3a 259e ac39 b8b5 92b9
000000a0: c4aa f7ba f3dd a2ba a754 bcba d178 d9b9
000000b0: 6acf 903a 9891 de3a 501d 85ba ee45 67b8
000000c0: 73a6 fbba d5f9 c638 5ca4 93ba 9a22 f03a
000000d0: cce9 633a 1ad3 b3ba 50a3 293a 2929 883a
000000e0: 77af 8f3a 2a28 b2b9 263a 383a fde4 deba
000000f0: 8130 feba f749 8eba 7870 55ba 7dae f8b9
00000100: 3e57 ddba f8bb c1ba 85a9 c2ba d313 e038
00000110: 2683 17ba 04c5 b73a 19c9 5b39 7cc0 f838
00000120: 0540 a53a d491 1e39 8066 9239 416d 3b3b
00000130: 9c6b b43a 0c62 893a 6a18 da39 f9ef 51ba
00000140: 4e4a 023b 4753 2b3b f091 acba 84b6 d53a
00000150: 2b62 e2ba 6069 b93a e473 39ba 6435 b5b8
00000160: 7b32 f1ba 0921 053b 2a2a e4ba 307a d8b9
00000170: 80df 7cba 225f 1bbb b4c3 03bb a045 46ba
00000180: af33 f43a 40a4 e33a 1f69 2cb6 b3e1 f0b8
00000190: 35c7 98b9 4c81 e93a 2f87 d239 5c7c 9f39
000001a0: c73c 04bb 45d0 6dba 2612 d4ba e335 01ba
000001b0: 230e a53a b751 ce3a 9bf1 1eba 5712 a1b8
000001c0: 50da feba f439 d338 94a5 b5ba f1a4 e33a
000001d0: 689b f339 e8d4 86ba ecdd 0139 06cf 213a
000001e0: ca2b 3b3a edbf d8b9 721f 543a f6d4 ccba
000001f0: edfa 04bb 3848 34ba 70dc 74ba 389c 03ba
00000200: b4b2 e737 084d 42b7 880f 5b39 b415 4737
00000210: 0c17 88b9 df58 8138 7660 f437 e898 9c39
00000220: 6a46 9b38 3c7b 8e37 7612 3338 f573 423a
00000230: 868e 0638 12f0 f438 eab9 0b38 e46a 45b9
00000240: 3265 57b9 e1de ff39 785a b4b8 ace4 0db8
00000250: dc16 2938 ae24 b938 56a6 5137 87c7 6236
00000260: d5bc 8239 3ab4 52b9 b013 b137 32ee 0fb8
00000270: 3e25 9c38 ffc1 efb9 b68a 4039 9360 4ab8
00000280: d145 83b9 fce9 22b8 6b8e e9b4 800c c239
00000290: f106 03b9 a112 a339 3e7c e637 99f7 bfb9
000002a0: b61e 6739 d5fc 2ab9 964e 7539 4db4 d1b7
000002b0: 2ebf 24b9 a4ce cbb7 ea04 71b9 babf c7b6
000002c0: c891 1039 c0c7 c637 0736 ceb8 3062 0cb8
000002d0: d4ec 3e39 3bd1 5db9 6210 b739 585c 8839
000002e0: d0a8 5539 aa96 01b8 7097 04b8 3871 0f37
000002f0: 7a5f 4639 c20a 70b9 4c58 8038 0672 6fb8
00000300: 60d9 db35 912b d235 b832 1434 9523 d1b2
00000310: 04d2 2435 71c2 c6b5 a5bb 6733 281e 70b4
00000320: 8945 bbb5 c4b1 34b3 4e7d d532 0a6b b3b3
00000330: b0ea c9b5 9eac a1b5 b7fc 71b3 458e 7335
00000340: 3957 a9b5 a67c 9bb4 b994 bc35 fe7d dab5
00000350: 3c6e dc35 cdf9 c1b5 6f8d a0b3 6bd6 2333
00000360: 4e6f 5535 fdbd abb5 dc9c dc35 5e15 8233
00000370: 541d f7b3 d04a 2e35 b0de b635 b0e1 06b5
00000380: d9d8 5bb5 30a3 dcb5 d3e2 7e2f 38c0 3233
00000390: 8eb5 9333 6e16 f8b4 c51a 38b3 027d 2db4
000003a0: dc67 9d35 0894 8935 8a4f e034 3047 8532
000003b0: 5071 b431 1da0 d8b5 3c1a 3935 0cf2 d4b1
000003c0: ff3e cc35 ec9e 9632 ae64 8bb3 f2bf dcb5
000003d0: 7cdb 37b5 1da2 8635 7690 11b4 cccf 28b5
000003e0: df02 5bb5 4c4e 5733 3df2 d733 386c d735
000003f0: 0bee b235 1c59 4735 029a 01b4 a4f5 b732
-0.001795094 -0.0016423352 -0.0013103551 8.225713e-05 -0.001004925 0.0016104786 0.0001885944 0.0006222941
0.0014964528 0.0001312369 0.0002423335 0.003259828 0.0015687596 0.0013388137 0.00034178686 -0.0011637139
0.0018800996 0.0020989596 -0.0015520696 0.001739491 -0.0018182228 0.0016375768 -0.0006116031 -4.108551e-05
-0.0016644122 0.0019273501 -0.0018449882 -0.00033871364 -0.000841521 -0.0018680356 -0.001929251 -0.0002343752
0.0016885465 0.0018278826 -1.964216e-06 0.00044806924 -0.00029113173 0.0014244379 0.00032924223 -0.0002798268
-0.0018895497 -0.0012425765 -0.001436849 -0.0004147948 0.0011048142 0.0016980646 -0.001015583 -5.513982e-05
-0.0019199386 9.4879106e-05 -0.0011264193 0.0018320859 0.0008694201 -0.0013719529 0.0006471174 0.0010388243
0.0010962327 -0.0003398073 0.0007027708 -0.00170055 -0.0019393117 -0.0010855783 -0.00081420643 -0.0004743225
-0.0016886962 -0.001478075 -0.0014851546 0.00010684845 -0.00057797355 0.0014020507 0.00020960382 0.000118614145
0.001260758 0.0001512238 0.00027923658 0.0028599056 0.001376498 0.0010481491 0.0004159839 -0.0008008476
0.0019880715 0.0026142166 -0.0013166051 0.0016305004 -0.0017271688 0.0014145784 -0.0007074459 -8.640697e-05
-0.0018401885 0.002031388 -0.0017407585 -0.00041289767 -0.0009646341 -0.0023707827 -0.0020105662 -0.00075634755
0.0018631126 0.0017367676 -2.5691186e-06 -0.000114861316 -0.0002914012 0.0017815023 0.0004015504 0.00030419498
-0.0020177828 -0.0009071867 -0.0016179725 -0.0004928989 0.0012592714 0.0015740906 -0.00060632237 -7.680494e-05
-0.0019443724 0.00010072059 -0.001385855 0.0017367882 0.00046464358 -0.001028684 0.00012385071 0.00061725115
0.0007140009 -0.00041341726 0.0008091844 -0.0015627432 -0.0020291165 -0.00068772165 -0.0009340709 -0.0005020532
2.7620561e-05 -1.1581236e-05 0.00020891253 1.18663775e-05 -0.00025957113 6.167753e-05 2.9131985e-05 0.00029868563
7.4040916e-05 1.6985105e-05 4.269412e-05 0.00074177916 3.2080825e-05 0.00011679543 3.331333e-05 -0.00018827204
-0.00020541696 0.00048803448 -8.59992e-05 -3.3829987e-05 4.031403e-05 8.8283196e-05 1.2496099e-05 3.3792764e-06
0.00024936223 -0.000200943 2.1109212e-05 -3.4315693e-05 7.4455966e-05 -0.0004573017 0.0001836222 -4.8250495e-05
-0.00025038284 -3.8841725e-05 -4.3503255e-07 0.00037011877 -0.0001249572 0.00031103662 2.7475991e-05 -0.00036614834
0.00022041317 -0.0001630665 0.00023394296 -2.49987e-05 -0.00015711479 -2.429571e-05 -0.00022985382 -5.952982e-06
0.00013787218 2.3696455e-05 -9.832909e-05 -3.3470045e-05 0.00018208037 -0.00021154147 0.00034916686 0.00026008743
0.0002037615 -3.0896314e-05 -3.161229e-05 8.549825e-06 0.00018918319 -0.00022892191 6.119962e-05 -5.7088233e-05
1.6380036e-06 1.5658899e-06 1.3802025e-07 -2.4346983e-08 6.1400374e-07 -1.480874e-06 5.395454e-08 -2.2362713e-07
-1.3952823e-06 -4.2071193e-08 2.4853446e-08 -8.354807e-08 -1.504397e-06 -1.2045673e-06 -5.6342028e-08 9.0731584e-07
-1.2616866e-06 -2.8961693e-07 1.4050376e-06 -1.6278934e-06 1.642336e-06 -1.4452322e-06 -7.476307e-08 3.8146407e-08
7.9510653e-07 -1.2795787e-06 1.6436929e-06 6.0574834e-08 -1.15071686e-07 6.492892e-07 1.3624867e-06 -5.024731e-07
-8.189941e-07 -1.6438771e-06 2.318175e-10 4.1618677e-08 6.8782455e-08 -4.620992e-07 -4.2865185e-08 -1.6157358e-07
1.1727639e-06 1.0250378e-06 4.1781124e-07 1.551561e-08 5.2515716e-09 -1.6139853e-06 6.8956047e-07 -6.1975296e-09
1.5217519e-06 1.7534568e-08 -6.4910054e-08 -1.6447141e-06 -6.8492204e-07 1.0030959e-06 -1.3556732e-07 -6.288726e-07
-8.1588036e-07 5.01298e-08 1.00557806e-07 1.6050244e-06 1.3331313e-06 7.426295e-07 -1.2070089e-07 2.1415708e-08

lstm.bias_ih_l1 f4 [256]
00000000: 8565 e93c cb2d 053d 1698 3c3a 2316 3bb7
00000010: 1d84 8a3d 9d62 203d 545a ccb7 2e19 9a3d
00000020: df0b 253d 16b6 85b7 8322 29b8 5124 40bb
00000030: 3ec2 0e3d 3920 3d3d dc77 0c39 8f1b 683d
00000040: 377b 1a3c cf26 1abc 051d 2e3d 6c29 de3c
00000050: 1963 dd3c 738a 303d 3de9 8f39 dcf5 30b8
00000060: 3e0a 4e3b 43a5 2f3c 29f2 f33c e1e0 0a39
00000070: 23b0 9539 caf8 32bc ea2f 483c e79e 9fbb
00000080: f07f 633b 9463 e03c b490 ffb1 3341 b13d
00000090: f28e b1b8 5bbe 41bc 2d9b 0439 169c b23d
000000a0: d99c 0b3c 27ab 593d ff1d 933a c13c 4239
000000b0: 9688 a539 e4bd e43c 638b 813d 483a 43b7
000000c0: a781 883c 59f9 0db7 83a2 efba d089 e53c
000000d0: b410 653d 19e6 763d a815 aa3d 8761 8b3d
000000e0: 9849 723d 0a64 0c39 eb4c 9939 f9b1 f63c
000000f0: 6940 433c 1b7c 813d 8abf 9c39 dd2f 40ba
00000100: 355a 353c 2dbb 5b3c 47ab aeba 8fe5 35b7
00000110: 1e99 083d 1e1d 8b3c b33c c3b7 1755 1c3d
00000120: 7ddd 913c 425e 7eb7 1470 22b8 214c 49bb
00000130: 7ad0 713c ef35 ad3c 9778 3e38 13cd dd3c
00000140: e75c 943a a7df 07bc 59e0 993c a8fe 2a3c
00000150: 445e 283c 3153 9b3c 9069 f236 0edb 25b8
00000160: 321a b6ba b266 e13a 140a 3f3c ba29 3c38
00000170: 9917 9ab9 8528 1abc db1b 223b 840f 98bb
00000180: 5740 a9ba 7efb 2a3c 62a1 f0b1 0d28 393d
00000190: 8ca0 9db8 33fc 25bc eadd 3338 d0ea 3a3d
000001a0: 394c 373a 7666 cc3c 5e39 d3ba e09f 8438
000001b0: 4ac9 6fba e754 333c a2fe fc3c 23bc 39b7
000001c0: c27d 9b3b 61c1 f8b6 e588 d8ba 96a9 303c
000001d0: d53c df3c 255f e93c a87e 2d3d 8c7c 083d
000001e0: 5683 e93c 4d14 4038 8ef3 9ab8 71f2 453c
000001f0: 23cd 163b 8f0e fb3c fc81 70b9 1eb0 14ba
00000200: 1801 723d 3cf4 7e3d 69b1 5a3c adae f339
00000210: 15a9 b93d 03d6 5abd df9c 5c3a 62ce bdbd
00000220: fb6f 9fbd 1c07 3c3a 006d 873a ec91 cf3b
00000230: c742 8ebd 199e 96bd 0fae 83ba ec07 d13d
00000240: 1f1d 1dbd 1c27 a43b 298a 823d 441f 70bd
00000250: a711 883d a769 87bd 2f56 603b 212e 26ba
00000260: 054c d13c 651a 1fbd db60 703d be9c 1d3a
00000270: 0dc0 b33b bb88 00bb dabc 113d 38e5 aebb
00000280: 835f ccbc cb37 7abd 5222 52b7 b5bf cebd
00000290: 501c 23bb 3100 7aba 147c 2039 59ac e93d
000002a0: 74f1 063d 97ea ab3d 90e9 873c 72ce f93a
000002b0: 9792 19bc 9bba 6dbd d42d cd3d dc60 e7b9
000002c0: 4f6e 253d c3bc f539 8c38 d1bb 46d3 64bd
000002d0: aacf c2bd 49c4 b63d d5f3 03be 3132 94bd
000002e0: d8f2 d0bd 1838 05b9 f43f a2bb 4cc6 8e3d
000002f0: 948e 183d cf83 cc3d a575 b73b e414 2b3a
00000300: c251 f93c 44fa 0e3d 58f5 393a 7e92 38b7
00000310: d36c 993d b269 2d3d 0795 c7b7 82a9 ab3d
00000320: 43a9 323d 6434 85b7 6c2d 27b8 f579 3ebb
00000330: 56af 193d 66f4 4d3d ac5c 0739 9611 7f3d
00000340: a165 203c 6155 1abc 4ef5 3c3d 13f4 ec3c
00000350: c90b ec3c 79b8 3f3d a8e3 8839 2563 30b8
00000360: 3465 523b 10be 363c c87e 023d b8de 0539
00000370: 2c5d 8c39 a297 33bc 22d6 503c 34d7 9ebb
00000380: aa94 683b 1860 ef3c 18de feb1 7ea5 c63d
00000390: f2bf acb8 7dee 42bc 3799 fe38 244e c83d
000003a0: 2ba2 103c 0792 6e3d fa74 933a 3fb6 3a39
000003b0: c038 9c39 ac33 f43c 9e1a 8f3d c8a0 42b7
000003c0: a174 8f3c 8057 0eb7 5eb2 efba b704 f53c
000003d0: 67b6 7b3d b523 883d 504c be3d 1f93 9a3d
000003e0: 5566 853d 6b16 0739 5b44 9139 7707 043d
000003f0: eb93 4b3c 8f12 8f3d aeca 9339 72f6 40ba
0.028490791 0.032514375 0.00071942934 -1.1151223e-05 0.0676348 0.039156545 -2.4360757e-05 0.07524334
0.040294524 -1.5939626e-05 -4.032488e-05 -0.0029318521 0.034853213 0.046173308 0.00013396092 0.056666907
0.009428791 -0.009408667 0.042508144 0.02711936 0.027024793 0.043100785 0.00027448862 -4.2190644e-05
0.003143921 0.010720554 0.029778557 0.0001324448 0.00028550727 -0.010923574 0.012218455 -0.0048712376
0.0034713708 0.027391233 -7.4379276e-09 0.08655014 -8.466643e-05 -0.011825169 0.00012646308 0.08721177
0.008521282 0.05314174 0.001122415 0.00018523914 0.00031573017 0.027922578 0.06325414 -1.1636475e-05
0.016663386 -8.462311e-06 -0.0018282685 0.028019816 0.055924132 0.060278032 0.08304912 0.06805711
0.059152216 0.00013388708 0.00029239742 0.03011416 0.011917212 0.06322499 0.00029897346 -0.0007331351
0.01106887 0.013411325 -0.0013326191 -1.0841889e-05 0.03334915 0.016981658 -2.3274077e-05 0.038167085
0.01780581 -1.5161526e-05 -3.872819e-05 -0.0030715542 0.014759177 0.021143882 4.5411838e-05 0.027075326
0.0011319191 -0.008293069 0.018783735 0.010436691 0.010276381 0.018960567 7.224451e-06 -3.9543076e-05
-0.0013893305 0.0017196743 0.011660118 4.4861554e-05 -0.0002939075 -0.009409075 0.0024735841 -0.0046405215
-0.0012912852 0.010435937 -7.0032664e-09 0.04520421 -7.5162476e-05 -0.01013093 4.28836e-05 0.04563409
0.0006992254 0.024951201 -0.0016115119 6.3240295e-05 -0.0009147121 0.010945535 0.030883137 -1.1070663e-05
0.004745216 -7.413488e-06 -0.001652029 0.01078262 0.027250687 0.028487751 0.042357117 0.033321902
0.028505009 4.5795274e-05 -7.388658e-05 0.012081728 0.0023010455 0.03064659 -0.00022936607 -0.00056719955
0.059083074 0.06224464 0.013347962 0.00046478715 0.09065453 -0.053426754 0.00084157096 -0.0926788
-0.077850305 0.000717269 0.0010332167 0.006334534 -0.069463305 -0.073543735 -0.001004638 0.10206589
-0.03835785 0.005009545 0.06374008 -0.058623567 0.06643992 -0.066119485 0.0034231057 -0.0006339271
0.025548944 -0.03884353 0.05868612 0.0006012431 0.0054855407 -0.0019612748 0.035580494 -0.0053373836
-0.024947887 -0.061088365 -1.2524966e-05 -0.10095159 -0.0024888702 -0.00095367717 0.00015305012 0.11409826
0.03294511 0.08394354 0.016590863 0.0019058718 -0.009373329 -0.05803929 0.10018507 -0.0004413192
0.0403884 0.0004687068 -0.0063849147 -0.05586555 -0.09512265 0.08924157 -0.12885983 -0.07236136
-0.10202569 -0.00012704765 -0.0049514715 0.06971416 0.037245348 0.09986078 0.005598741 0.0006526245
0.030434493 0.03490664 0.0007093749 -1.10013625e-05 0.0749146 0.042337127 -2.3792045e-05 0.083819404
0.04361845 -1.5879232e-05 -3.9858205e-05 -0.0029064391 0.03752073 0.050281905 0.00012909126 0.06227263
0.009789855 -0.00941977 0.04613238 0.028924977 0.028814213 0.046806786 0.00026109559 -4.2054005e-05
0.0032103779 0.011153713 0.03185919 0.00012766838 0.000267723 -0.010961445 0.012746366 -0.0048474316
0.0035489001 0.029220626 -7.417622e-09 0.09699534 -8.237352e-05 -0.01189768 0.00012140202 0.09780529
0.008827726 0.05824473 0.0011250072 0.00017806234 0.0002979692 0.029809795 0.06987499 -1.1600736e-05
0.017511668 -8.484232e-06 -0.001828741 0.029909475 0.06145325 0.066474356 0.09291899 0.07547592
0.06513659 0.00012882955 0.00027707484 0.03223368 0.012425403 0.06985962 0.00028189033 -0.0007360942
